tests/continuity/simulation_ckpts/allegro_ntl9_5b_specialized_model_and_config.pt (torch, 543815 bytes, 34 tensors)

_rmax_recip f8 []
000000 00 00 00 00 00 00 d0 3f
       0.25

bessel_weights f8 [1, 8]
000000 00 00 00 00 00 00 f0 3f 00 00 00 00 00 00 00 40
       1.0 2.0
000010 00 00 00 00 00 00 08 40 00 00 00 00 00 00 10 40
       3.0 4.0
000020 00 00 00 00 00 00 14 40 00 00 00 00 00 00 18 40
       5.0 6.0
000030 00 00 00 00 00 00 1c 40 00 00 00 00 00 00 20 40
       7.0 8.0

weight f4 [101, 32]
000000 27 2c 8a 3f 92 6d 78 3f f2 88 95 bd eb c7 9d 3f
       1.0794724 0.9704219 -0.07301511 1.2326635
000010 6c 56 a4 3a 54 3c 04 3f 91 75 f0 be da 74 82 be
       0.0012537963 0.51654553 -0.46964696 -0.25479776
000020 bf 94 c8 bf 3b d9 3f bf e5 37 9d bf d3 3a ea bf
       -1.5670394 -0.7494084 -1.2282683 -1.8299202
000030 ca 06 fe 3d 86 f4 bf bf 17 1f ca 3f d4 6e 79 bf
       0.12403639 -1.4996498 1.5790738 -0.97434735
000040 ca 6e 02 be 2d 80 9d 3f fe 09 94 bf 37 34 e6 3f
       -0.12737575 1.2304741 -1.1565549 1.7984685
000050 95 77 e1 3e 8d f3 9c bf 1b fe 6c 3e be e7 79 3f
       0.44036546 -1.2261826 0.23143809 0.97619236
000060 4e 0d bb 3f 3e 28 a5 bd 84 f5 8a 3e de c3 03 40
       1.4613435 -0.08064316 0.2714044 2.0588298
000070 87 53 1f 3d cd 41 77 bf 09 27 7f 3e 3d 76 12 be
       0.038898017 -0.9658478 0.24917234 -0.14302917
000080 dd ba 52 bf 35 66 59 bf 02 e7 87 3f a3 8b da 3e
       -0.8231638 -0.8492158 1.0617373 0.4268466
000090 f9 8b 09 be 60 17 b9 bf 77 80 57 40 87 47 ad bf
       -0.13432302 -1.4460258 3.3672159 -1.3537453
0000a0 9c 8a fb bf cd b4 74 3f 32 97 b6 3f bd 2d 15 40
       -1.9651675 0.9558838 1.4264891 2.3309166
0000b0 f6 b9 94 3d cf 89 ce be 50 ff c5 bc 68 1e 53 3e
       0.07262032 -0.40339515 -0.024169594 0.20617068
0000c0 ac bc 80 be e2 8e 84 bf 82 d8 5d 3f f2 e7 06 3d
       -0.25143945 -1.0356104 0.8665849 0.032936044
0000d0 dc 78 22 bf 96 1c 19 3f 77 79 ec 3f 81 6b af be
       -0.63465667 0.59809244 1.8474568 -0.34261706
0000e0 ce c7 3b be f3 1e 88 bd 4d 21 59 3f 1c e4 b5 be
       -0.18337938 -0.06646528 0.8481644 -0.35525596
0000f0 ec d0 88 3f 06 6b 99 3f 5e c0 87 3f 7f 74 00 bd
       1.0688758 1.1985786 1.0605581 -0.0313611
000100 6a 73 3c 3f 30 fe b4 bf 89 58 81 bf 74 57 14 40
       0.7361361 -1.4140072 -1.0105144 2.3178377
000110 e3 4b 3a 3f 08 71 84 bd 43 18 0f bf 17 30 b3 bc
       0.72772044 -0.064668715 -0.55896395 -0.021873517
000120 f5 bb 75 3f 60 da 89 3f 72 2e 1c c0 f8 48 19 c0
       0.95989925 1.0769768 -2.4403348 -2.3950787
000130 a4 ee 65 bf d9 70 03 3f 37 c6 f5 bf 25 60 84 3f
       -0.8981726 0.51344067 -1.9201115 1.0341841
000140 d6 1f 6d 3d ab 47 ea 3d ab e5 3c be d0 2c 27 3e
       0.05789169 0.11439451 -0.18446986 0.16325688
000150 32 0e 2a 3f b3 28 12 bf 8a c9 e3 3e 5a a2 e8 bf
       0.6642791 -0.5709335 0.444897 -1.8174546
000160 62 95 59 3e 18 1b 9c 3f 34 7b 65 bf cf 7e de 3f
       0.21248391 1.2195768 -0.8964112 1.7382449
000170 08 71 8b bf cc 72 66 bf 9b 91 7b be dc a3 8a bf
       -1.0893869 -0.90018916 -0.24567263 -1.0831256
000180 d8 44 70 bf f2 0e d1 bf fe 1b 00 bf 11 f6 86 bd
       -0.9385505 -1.6332686 -0.5004271 -0.06589902
000190 73 b2 1c bf 62 2e 43 be 1e c2 ab 3f 30 f7 8d 3e
       -0.6120979 -0.19060662 1.3418615 0.27727652
0001a0 8e c9 4b 3e da d5 80 3f 7f 27 d9 3f fa 2a ae bf
       0.19901106 1.0065262 1.6965178 -1.3606865
0001b0 7b 40 35 3d 85 f0 b6 be f6 25 86 3f b2 76 6f bf
       0.044250946 -0.35730377 1.0480335 -0.9354049
0001c0 3e 64 5c 3f 12 bb a6 3e 7d 02 13 bd 79 2c 11 3f
       0.8609046 0.32564598 -0.035891045 0.56708485
0001d0 81 56 77 bd 73 ac 10 bd 7d 72 d2 3e 93 c1 90 be
       -0.06038523 -0.03532071 0.41102973 -0.28272685
0001e0 a9 26 d1 be 7f 8f 91 3f 73 de 24 bf 99 1c eb bf
       -0.40849808 1.1371917 -0.6440193 -1.8368102
0001f0 83 ed b6 bd 64 64 0a 3e 0d 43 42 3f 05 10 bb 3f
       -0.089320205 0.13514858 0.7588356 1.4614264
000200 ec 4b 1b c0 8f 57 31 bf 7f 07 52 3f 5a e7 38 40
       -2.426509 -0.6927423 0.8204269 2.8891206
000210 01 5b cc be 43 08 df be 14 22 53 3c f6 28 ee 3e
       -0.3991318 -0.4356099 0.012886543 0.46515626
000220 13 89 37 bf 34 db ff 3e 57 97 b9 be c4 fb 56 bf
       -0.71693534 0.49971926 -0.36248276 -0.83977914
000230 fa 88 96 bf 45 bb a2 bf 04 da 01 40 09 a4 95 3e
       -1.1760552 -1.27134 2.0289316 0.2922671
000240 e0 56 e7 bf 7a 19 1a bf f4 17 19 c0 f6 6b 03 40
       -1.8073387 -0.60195124 -2.392087 2.0534644
000250 c4 08 90 bf 4d e2 12 3f 46 a5 37 3f bf 78 4b 3f
       -1.1252675 0.5737656 0.7173656 0.7948112
000260 1f 0e 59 bd 15 15 0d c0 4d f1 9f 3e 0c 11 99 3e
       -0.052991983 -2.2044117 0.31238785 0.29895818
000270 fe 0c d9 bc ec 0a b1 be ef 00 2b be 9b 37 81 3e
       -0.026495453 -0.34578645 -0.16699575 0.25237736
000280 0f 15 2e 3f 0a d7 05 c0 85 94 d9 3c 78 3f b3 3f
       0.6800088 -2.09125 0.026560077 1.4003744
000290 ed b5 ea 3e 6c df 4a bf fe c1 89 bf 2c aa b3 be
       0.45841923 -0.79247165 -1.0762327 -0.35090768
0002a0 d9 0e e5 be 6f d2 b7 3f ac 1b a1 bf 6c 1f 84 bf
       -0.4473789 1.4361094 -1.258657 -1.0322089
0002b0 5d 84 b9 be f7 1d 7e 3f 09 0e 16 bf 63 5c 40 bf
       -0.36233798 0.9926447 -0.58615166 -0.7514097
0002c0 49 b7 08 bf df 5b de 3f 06 34 01 3f 5b 75 6a bf
       -0.5340467 1.7371787 0.50470006 -0.9158532
0002d0 fc 95 b0 be 6c 8a e5 3f 19 0a 10 3f f1 3e a6 3f
       -0.3448943 1.7932868 0.5626541 1.2987958
0002e0 57 48 aa 3e 8c 26 5d 3e ae 50 3f 3f a1 74 a7 3f
       0.33258316 0.21596736 0.7473248 1.3082467
0002f0 2b 1c 60 be 8b 12 dd be 68 a2 0a bf 13 8a af 3f
       -0.21885745 -0.4317821 -0.5415406 1.3714012
000300 96 18 99 bf 84 df 2e 40 ab a9 be 3e 0e 8d 51 bf
       -1.1960628 2.7323923 0.3723882 -0.8185586
000310 8d 2d dd 3e 8b d9 49 bf 67 5c 6a 3f 81 9f 7c 3f
       0.43198815 -0.7884757 0.91547245 0.98680884
000320 1a e6 a5 be 79 c1 19 bf 69 98 c6 be 55 69 ad bf
       -0.32402116 -0.6006084 -0.38788155 -1.354777
000330 15 8d 51 3d 35 ac 5f 3d 94 e8 fa 3e 10 0f cd 3e
       0.051159937 0.05460759 0.49005568 0.40050554
000340 2c 31 3a bf 8b f1 7e bf 1d 4f b6 bd f1 89 00 bf
       -0.7273128 -0.99587315 -0.089018084 -0.5021048
000350 63 04 b0 be 69 ce 26 3f 53 43 b3 bf e3 01 a5 3f
       -0.34378347 0.65158707 -1.4004921 1.2891201
000360 04 68 fe bd 98 a7 01 3f f8 a8 bf bf c0 b0 6d 3f
       -0.12422183 0.5064635 -1.497344 0.92847824
000370 62 87 f7 be e2 ee e6 bf b1 e9 8d 3f eb 8d 6a bf
       -0.48345476 -1.8041651 1.1086942 -0.916228
000380 e8 13 17 be 7d 7d 20 3e 82 5e 7b 3d 2e c8 d6 3f
       -0.14753687 0.1567287 0.061369427 1.677984
000390 8c 4a 37 3f 30 ca 9c bf 36 68 5c 3f 0b 17 ca 3f
       0.71598125 -1.2249203 0.86096513 1.5788282
0003a0 cf b7 43 bd db 9e 81 3e 63 54 60 3e 68 aa 6b bf
       -0.047782715 0.2531651 0.21907191 -0.92056894
0003b0 c8 1f e7 3e f0 38 e7 be 40 a9 46 bf 04 d9 cf 3f
       0.45141435 -0.45160627 -0.77602005 1.6238103
0003c0 3f 44 8c bf 6d bc 82 bf d1 23 9f bf df 58 c0 3f
       -1.0958327 -1.0213753 -1.2432805 1.5027121
0003d0 34 5b 30 c0 da b0 3d 3f a9 a6 ee 3d b2 c7 60 bd
       -2.7555666 0.7409798 0.11652882 -0.054877944
0003e0 93 1a 29 bf 6e 31 43 3f 1e 41 34 40 73 eb ec bf
       -0.66056174 0.762473 2.8164744 -1.8509353
0003f0 c1 e9 2e 3f 38 31 08 bf 07 bf 13 bf b8 bf 1b 3f
       0.6832543 -0.532001 -0.5771336 0.60839415

weight f4 [101, 32]
000000 8c 69 20 3e 2c 1d 56 bf 1d 82 2f 3f 77 2d c3 3f
       0.15665263 -0.8363826 0.6855791 1.524825
000010 df bd c8 be 27 e9 df 3e ee dd 19 bf 5e b6 81 3f
       -0.3920736 0.4373257 -0.6010426 1.0133779
000020 4a fb 9b bf d2 78 1b c0 e7 1e d8 3f 8b fe c3 3f
       -1.2186062 -2.4292493 1.6884431 1.5312055
000030 f1 7c 7c 3e c9 cc b1 3f b6 f8 71 bf 08 bd f5 3e
       0.24657036 1.389062 -0.9452013 0.47995782
000040 9d 4e 2b be 7e 30 77 3e 2a dc a1 3f bd 82 77 bf
       -0.16729207 0.24139592 1.2645314 -0.96683866
000050 2d 0a 86 bf ed 13 8c bf 7d a2 1d be 9b 53 50 3f
       -1.0471855 -1.0943581 -0.15394016 0.8137757
000060 8d 1f de 3e 4c b9 13 bf 6e 16 2d be ba 97 93 bf
       0.43383446 -0.57704616 -0.16903087 -1.1530678
000070 23 11 30 bf ed e7 58 3f 25 64 02 40 db 7d 50 3e
       -0.6877615 0.8472889 2.0373623 0.2036051
000080 ad fd 37 bf 24 90 d7 3e c4 bf 52 3e 04 ab 42 bf
       -0.71871454 0.42102158 0.20580965 -0.760422
000090 b4 cc 85 3e 20 b0 93 3e 31 e2 1a 3f 25 f2 85 3f
       0.2613274 0.2884531 0.6050139 1.0464522
0000a0 06 62 d8 3e a7 41 4c 3f fd b6 64 bf 81 30 0c 3f
       0.42262286 0.7978768 -0.8934172 0.5476151
0000b0 b3 3d d6 3f 53 de 77 3f 92 76 ba 3e 36 6c 65 3f
       1.6737579 0.96823615 0.36418587 0.8961824
0000c0 ac 0f d0 bd af e2 93 be 11 27 09 3f a6 84 87 be
       -0.10159239 -0.28883883 0.53575236 -0.2646839
0000d0 c0 2b 16 c0 98 f3 2a bf f4 6d 21 c0 38 d5 30 bf
       -2.3464203 -0.66777945 -2.522336 -0.69075346
0000e0 1c 38 e9 3e de b7 6e bf 7b a0 d5 bf cf 3a 06 bf
       0.4555062 -0.9324931 -1.66896 -0.52433485
0000f0 71 58 d7 bd 81 f7 f6 bf 8e 9f 2e bf a0 f1 bd bf
       -0.10514916 -1.9294282 -0.6821221 -1.4839363
000100 6d 71 0d bf bf f0 ce 3e b6 bf fd 3f 52 9e 6a 3f
       -0.552512 0.4041805 1.982413 0.9164783
000110 cf 7e 24 bf 79 ae 09 bf fc 26 69 3f 9c b1 13 3f
       -0.64255995 -0.5378185 0.9107511 0.57692885
000120 67 78 11 40 64 e9 b5 3f 8e 8e 5f bf 2c 98 88 be
       2.2729738 1.421185 -0.87326896 -0.26678598
000130 f2 4e 16 3f 6b 3b 03 bf c2 1c 7a 3f 09 51 91 bf
       0.5871421 -0.5126254 0.9770013 -1.1352855
000140 8b 07 a6 3f 19 1c b3 bf 6f d4 0d c0 2a 74 05 bf
       1.2971052 -1.399295 -2.216091 -0.5213038
000150 92 23 44 3f 9d c2 4b be 8c bd 6c 3f 65 ac a8 bf
       0.76616776 -0.19898458 0.92476726 -1.3177611
000160 0f 29 8e bf 94 1e a4 3e fc 55 0e bc ae d1 79 3f
       -1.110628 0.3205458 -0.008687492 0.9758557
000170 7e 70 40 3e bf ec 9c 3f 0b aa 68 3f e1 62 13 3d
       0.18792912 1.2259749 0.90884465 0.03598297
000180 7c 1c fa be cd ad e7 be 9b 5b ad 3f e2 85 bd be
       -0.48849857 -0.45249787 1.3543581 -0.37016207
000190 b4 67 5a bf 00 a1 57 be d5 0c 1e be b5 90 d8 bd
       -0.8531449 -0.2105751 -0.15434583 -0.10574476
0001a0 46 01 80 bf 64 52 10 40 06 b7 d7 3e 54 57 f9 be
       -1.0000389 2.2550287 0.42131823 -0.4869944
0001b0 7c ed dd 3e 6f 4b dd 3f d2 88 6e 3e 95 3c 6f bf
       0.4334525 1.7288646 0.2329438 -0.93451816
0001c0 0b 1c 34 3c a8 68 c1 3e 62 a3 53 bf d8 17 0a 40
       0.010993014 0.3777516 -0.8267118 2.1577053
0001d0 70 dd 7e bf f8 65 ac 3e 9c cb df be 79 ec 61 3e
       -0.99556637 0.33671546 -0.4371003 0.22062863
0001e0 e4 7c 02 3f 83 ad b9 3e 45 d9 0e 3f 6a 8c 6f 3e
       0.5097182 0.3626519 0.55800277 0.23393407
0001f0 48 8a a9 3e 3e 14 02 3f 20 78 88 bf 6f af 1a bf
       0.33113313 0.5081214 -1.0661659 -0.6042394
000200 ac 1a a6 3f 57 95 ae 3f 5e 61 8b be 44 e9 88 3f
       1.297689 1.3639325 -0.27222723 1.0696187
000210 f7 8e 1d be 92 d3 2e 3f fd 2e 84 bf 6c a9 91 bd
       -0.15386568 0.6829158 -1.032684 -0.07112393
000220 6b d3 f0 be 6c 16 97 3e be 53 8b bf 00 c8 ba bf
       -0.470363 0.29509294 -1.0884931 -1.4592285
000230 44 f1 91 3e 13 62 5a 3f 49 2c 56 3f b8 b3 86 bf
       0.28504384 0.853059 0.83661324 -1.0523596
000240 1d 7f 89 bf 52 e0 90 3f 16 37 8f 3f 41 75 37 3f
       -1.0741917 1.1318457 1.1188686 0.7166329
000250 55 18 5e bf 34 19 86 3f 71 75 39 3e d2 2d a6 3f
       -0.8675588 1.0476441 0.18111207 1.2982733
000260 0c 10 9c 3f 61 84 a0 3e d9 ad bb 3e 55 e5 2f 3f
       1.2192397 0.31350997 0.36656073 0.6870931
000270 7c a2 28 be 6f e2 f8 be 7f 47 39 bf 5c 95 0d 3f
       -0.16468233 -0.48610255 -0.7237472 0.5530603
000280 ad 5a 95 3f cb 24 39 bf fa ec 04 c0 bc 82 e2 be
       1.1668297 -0.72321767 -2.076964 -0.44240367
000290 17 7f f1 3f 6d f5 1b 3e 47 b9 1e bf cc c8 b9 bf
       1.886691 0.15230341 -0.6200146 -1.4514403
0002a0 e9 0f 17 3f e3 12 bf 3e 72 63 f4 3e 15 94 e5 3f
       0.5900865 0.37319097 0.4773212 1.7935816
0002b0 29 2a 0e be 2d 8f 9a 3f bb 20 72 3f 02 7f 39 3d
       -0.1388327 1.2074944 0.9458119 0.04528714
0002c0 3a 05 40 bf a5 60 cb bd 12 0c fb 3e 97 df 46 bf
       -0.75007975 -0.09930543 0.49032646 -0.7768492
0002d0 5b 77 6d 3f 50 f9 36 3f ba 3a 11 3f 54 ab 99 3f
       0.92760247 0.7147417 0.56730235 1.200541
0002e0 a0 a3 11 3e 30 e4 89 be 3e 81 cf 3e 6f e5 f3 3f
       0.14222574 -0.26931906 0.4052829 1.9054393
0002f0 53 87 88 bf 28 40 d8 3f ad 7d 84 3e fc c6 9b bf
       -1.0666298 1.6894579 0.25877133 -1.21701
000300 38 e9 ea bf 03 ee 92 3d 34 51 f7 be d5 cf 88 3f
       -1.8352423 0.071743034 -0.4830414 1.0688425
000310 ce 9a 0b 40 ec b6 83 3e 79 df bc bf 3a c1 15 3f
       2.1813235 0.25725496 -1.4755698 0.58497965
000320 29 54 c9 be 38 63 2a 3f 34 c1 b5 be 98 37 c3 3f
       -0.39322022 0.66557646 -0.35498965 1.5251341
000330 d6 a1 2a bf 0a 7d b0 bf b8 26 de 3e 2c f3 c4 be
       -0.6665319 -1.3788159 0.43388915 -0.38466775
000340 79 5d 43 40 35 45 e2 bf 60 29 a4 bf fc 3a dd be
       3.05258 -1.767737 -1.2825127 -0.43209064
000350 6c 9d 23 3f c3 33 d3 be 05 08 86 bf 5f 32 a3 bf
       0.6391208 -0.4125043 -1.0471197 -1.2749747
000360 fd cc 70 be 4f 31 be be f3 53 01 c0 d3 29 34 bf
       -0.23515697 -0.37146994 -2.0207489 -0.7037632
000370 26 4a 95 3d d7 4e e8 3e f5 d5 9d 3e e6 9b 48 3f
       0.07289533 0.4537265 0.308273 0.7836288
000380 db d2 e7 3e d6 2a 9d 3f 3f e3 51 be 03 f3 36 3e
       0.45278057 1.2278697 -0.20496844 0.17866139
000390 8e f1 04 c0 b2 d4 9b 3e bf c5 0e 3f dc ac c2 bf
       -2.0772433 0.3043571 0.55770487 -1.5209002
0003a0 3e 27 2d 3f dd 8d 04 3e c3 b8 29 3f 8f 46 da bf
       0.67638004 0.12944742 0.6629755 -1.7052783
0003b0 4b 77 0e 3f 9f 07 a3 bf f1 07 11 bf ac 2e 28 3e
       0.55650777 -1.2736701 -0.5665274 0.16424054
0003c0 e5 4e 2a 3f 46 ca 54 bf 81 88 d4 bd df 85 46 3f
       0.66526634 -0.83121145 -0.103775986 0.7754802
0003d0 f2 45 1a 3f 19 ac b0 3f ba 4a 5b bf 7e d5 93 3e
       0.6026298 1.380252 -0.856609 0.2887382
0003e0 3b 6f a8 3f 44 8d b7 3e 16 95 fc 3e af 3f a0 bf
       1.3158945 0.35849965 0.49332494 -1.2519435
0003f0 97 cd 04 40 b3 d3 8e bf 62 d1 5f 3f b5 05 78 3f
       2.0750482 -1.1158355 0.8742887 0.9688371

weight f4 [8, 64]
000000 51 01 a1 bf a9 d1 85 3f 1c 9b 60 3f ab a7 dc 3e
       -1.2578527 1.0454608 0.8773668 0.4309667
000010 32 90 a4 bf 5b 35 10 3f cc bd db be f5 9c 2b 3f
       -1.2856505 0.56331414 -0.4291824 0.6703637
000020 58 82 9b 3f f6 4e ea 3e 2f f5 46 3f 46 87 a5 bf
       1.2149153 0.45763367 0.7771787 -1.2931907
000030 fe 38 fa be fe b0 a6 bf bc d6 b3 bf 20 e7 e7 be
       -0.48871607 -1.3022764 -1.4049907 -0.45293522
000040 19 f8 52 3f 25 10 af bf ca be a7 3f 8b 82 8e bf
       0.82409817 -1.3676802 1.3105099 -1.1133589
000050 dc f3 df be db de 8e bf 41 0a d3 bd 80 ac 7c 3f
       -0.43740737 -1.116176 -0.1030469 0.98700714
000060 64 42 ca bf 99 89 12 3e 56 9c b4 3f ce 19 86 be
       -1.5801511 0.14310302 1.411021 -0.26191562
000070 86 1b 08 be 74 62 54 3f f3 12 bd 3f 3a ab 64 3f
       -0.1329175 0.8296273 1.4771408 0.8932377
000080 ae 65 a8 3f bd 2b 71 be b6 19 4a 3d cc 30 8e bf
       1.315603 -0.23551841 0.049340926 -1.1108642
000090 6c 69 72 bf 0a c4 86 bf ab 37 c2 bf 90 b3 bc 3f
       -0.9469211 -1.0528576 -1.5173239 1.4742298
0000a0 1e 6b 82 bf 80 8d da bf b5 33 34 bf 00 ad d4 3f
       -1.018894 -1.7074432 -0.703914 1.6615295
0000b0 98 67 20 be 61 26 01 bf 03 6f 40 3f e4 18 d9 3e
       -0.15664518 -0.50449187 0.7516939 0.42401803
0000c0 ad 3e 82 3e 7a 0c b8 bf 99 22 45 bf 39 92 dc bf
       0.25438443 -1.4378808 -0.77005917 -1.7232124
0000d0 3e a3 75 bf 64 ac 97 bf 71 19 09 3d 64 b7 a7 3f
       -0.9595221 -1.1849484 0.03347153 1.3102841
0000e0 ec 0c 3e bf 27 45 d4 be fe 5e 0d bf b7 90 15 3d
       -0.7423847 -0.4145901 -0.5522307 0.036514964
0000f0 5f c1 1f 3e 0b 53 84 3e 07 80 b9 3f 9a 7d bd bc
       0.15601109 0.25844607 1.4492196 -0.02313118
000100 6d 3a 18 3e 94 98 78 3f 28 4f b1 3f 44 94 2a bf
       0.14866038 0.97107816 1.3852282 -0.66632485
000110 13 11 93 3f 91 54 b0 3f 78 18 62 bf 44 bd 3b bf
       1.1489586 1.3775808 -0.88318586 -0.7333567
000120 f5 53 d3 3f 7f 1c 60 bf 25 9d fc 3e 51 13 aa bd
       1.6509997 -0.8754348 0.49338642 -0.083044656
000130 75 74 6e 3f 10 fe d9 be c8 a3 79 3f 69 bc fd be
       0.9314645 -0.42576647 0.97515535 -0.49557808
000140 1d 30 b1 bf dc e4 52 3e fd 77 b1 bf 2e 57 10 be
       -1.3842808 0.20595115 -1.3864743 -0.14095756
000150 58 6c c7 bf 5c 65 b3 bf 13 4b 88 3e e1 7e a3 3f
       -1.5579939 -1.4015307 0.26619777 1.2773095
000160 ab 60 ad 3f e4 76 66 bd d7 2a bf bf 34 11 b8 3f
       1.3545126 -0.056265727 -1.4934949 1.438025
000170 03 16 95 3f 9e c2 b8 3f 43 e8 54 3f 50 8f 2b bf
       1.1647342 1.4434392 0.83166903 -0.6701555
000180 9a ad 1b 3e 26 e7 90 39 bf a2 57 3e a6 cc cc 3e
       0.15202942 0.0002763804 0.21058176 0.39999884
000190 d3 6f 2e 3f f9 2c af be e8 8d 4a bf 46 12 5d 3f
       0.6813938 -0.34214 -0.7912278 0.8635601
0001a0 e5 2b 63 3f 13 be 8a 3f cb 1c 9e 3f 76 ec bb bf
       0.8873885 1.0839256 1.2352537 -1.4681537
0001b0 8d 65 97 bf b6 b7 b3 3f 30 fe 02 bf af 88 10 3c
       -1.1827866 1.4040439 -0.5116911 0.00882165
0001c0 81 ae d0 3e 12 75 de bf df cd d9 be cf 5d 69 bf
       0.40758136 -1.7379477 -0.4253988 -0.91158766
0001d0 2a b7 cf bf 2c e8 af 3e 94 db bf bf 3e 9e 83 bf
       -1.6227772 0.3435682 -1.4988885 -1.0282667
0001e0 09 e0 08 be fb 96 74 3f 1a 62 82 bf 6f 6e c7 bf
       -0.13366713 0.9554288 -1.0186188 -1.5580577
0001f0 38 5b ec 3e 12 ec 61 bf 13 02 d9 3e 39 ae 8e be
       0.46163344 -0.8825084 0.42384395 -0.27867296
000200 56 97 71 3e 70 c6 64 bf 57 34 19 3f a9 16 8f 3f
       0.23592886 -0.8936529 0.5984549 1.117879
000210 78 e0 32 3e 22 9e c4 3e 37 4f 8a be 30 8c c8 3f
       0.1746844 0.38401896 -0.2701356 1.5667782
000220 15 f5 be bf 65 11 7e bf ed 58 15 3f 24 49 c4 bf
       -1.4918543 -0.9924529 0.58338815 -1.5334821
000230 8f 23 8a bc e3 6a d6 bf c9 b8 1d be cf 75 97 bf
       -0.016862659 -1.6751369 -0.15402521 -1.1832827
000240 a1 31 b8 3f cb 9c da bf 47 24 6a 3f 0f 51 87 3d
       1.4390146 -1.70791 0.91461605 0.066072576
000250 e0 21 12 bf 43 4b d9 be a7 af b5 bf 8c fd 58 bf
       -0.5708294 -0.42440233 -1.419423 -0.8476188
000260 f1 8f ce 3f cd 2f 95 bf e1 da 65 bf 20 23 73 3f
       1.6137677 -1.1655213 -0.8978711 0.9497547
000270 ff dd cf bf 5d 1a 6a bf 96 c1 bb bf 13 d8 95 3f
       -1.6239623 -0.9144648 -1.4668453 1.1706566
000280 19 03 c4 3f c3 ca 01 3f be 16 48 bf 93 1c 74 bf
       1.5313445 0.50700015 -0.781597 -0.953561
000290 08 aa b0 bf 6f c3 43 3f f2 ce d4 3f 15 a5 91 bf
       -1.380189 0.76470083 1.6625655 -1.1378504
0002a0 83 55 4a be 1c 9e ce bf 99 34 cb bf da 7f 1f bf
       -0.19759183 -1.6142001 -1.5875427 -0.6230446
0002b0 f8 1b a8 bf c3 4c c4 bf 92 ad 37 3d 9a bc ac be
       -1.3133535 -1.5335926 0.044843264 -0.33737642
0002c0 02 8e 20 3f 63 5e a3 bf 70 2a 90 3f a7 32 5c 3f
       0.62716687 -1.276318 1.1262951 0.8601479
0002d0 c7 77 c8 bf dd 7b 2e bf a1 4f ee be 92 0a 3c 3f
       -1.5661553 -0.6815775 -0.46545127 0.7345363
0002e0 76 32 0f bf d2 1a 0b 3f 61 36 0d 3e 96 f6 5d 3f
       -0.5593637 0.543378 0.13790275 0.86704385
0002f0 65 19 42 3d b3 e7 80 bf ee eb 7b be b4 b9 6b bc
       0.0473875 -1.0070709 -0.24601719 -0.014387537
000300 0b 89 a6 3e 1e ce 8a 3f 6d db 3b 3e ce 4e 59 3f
       0.3252643 1.0844152 0.18345423 0.8488587
000310 67 b0 a3 3d 4c a1 11 3f 65 bf 86 3f 60 84 b2 3f
       0.079926305 0.56886744 1.0527159 1.3946648
000320 b5 45 b8 3f ad 27 47 bf b9 69 b6 3e 77 f9 a4 bf
       1.4396273 -0.77794915 0.35627535 -1.2888631
000330 dc 0d f6 be 65 ba 0c be 8d 25 be 3f 10 a3 ae be
       -0.4805745 -0.13742979 1.485521 -0.34108782
000340 16 23 ae bf 86 a2 53 bf a7 ad 99 bf b0 2e c6 3d
       -1.3604457 -0.82669866 -1.200612 0.09676874
000350 a6 02 5a bd 3c de 55 bf 13 e3 72 3c 2c d1 00 3f
       -0.053225182 -0.8354223 0.0148246465 0.5031917
000360 73 e3 65 bf f5 9b 44 3f 4c 49 b1 bf fc 6d c7 bf
       -0.89800185 0.7680047 -1.3850493 -1.558044
000370 28 8a 01 3f 56 6a 8a 3e 0b 68 14 3f 5a a4 4b 3f
       0.50601435 0.27034253 0.57971257 0.79547656
000380 e6 54 9a 3f 68 7d c9 3f 64 e7 69 bf ec 9c b3 3e
       1.2057159 1.5741396 -0.913687 0.3508066
000390 6e 89 8e bf 73 fb 94 bf 16 25 2d 3e a5 83 f1 3e
       -1.113569 -1.1639236 0.16908678 0.4717075
0003a0 d4 52 98 be e0 25 c4 3f aa bc 05 3f 19 97 65 bf
       -0.29750693 1.5324059 0.52241004 -0.8968368
0003b0 40 05 cf bf 93 3f 22 bf c6 d8 70 3f ab 12 a9 3e
       -1.6173477 -0.63378257 0.9408077 0.33022055
0003c0 d4 aa 52 3e 42 10 a7 bf ed 34 7c 3e 0e 89 a2 bf
       0.20572978 -1.3051836 0.24629565 -1.2698076
0003d0 1f e1 e5 3e b4 0c 6a bf 07 bd 6c bf 4c cb f3 bd
       0.44898316 -0.91425633 -0.9247593 -0.1190401
0003e0 bd af 64 3e dd 20 9e 3e 3a ad be bf a3 a3 bc bf
       0.22332664 0.30884448 -1.4896615 -1.4737438
0003f0 c4 e7 fb bd dd 27 c0 bf 39 ec 10 be 6e 0a a0 3f
       -0.12300065 -1.5012165 -0.14152612 1.2503183

weight f4 [64, 64]
000000 89 50 06 bf e8 c0 50 3f 70 18 d7 3f 8c 61 8c 3e
       -0.52466637 0.8154435 1.6804333 0.27418172
000010 55 ec d7 bf 49 9b 79 be 3a 37 2c be 14 45 3a 3f
       -1.6868998 -0.24375643 -0.16817942 0.72761655
000020 1e 72 dd bf cf 4e 09 3e 28 6c 53 be 52 35 c7 bf
       -1.7300451 0.1340897 -0.20646727 -1.5563147
000030 0f 8c b5 3f 95 b0 cf 3e a4 e1 a0 bf 8b eb 98 3f
       1.4183367 0.4056441 -1.256886 1.1946882
000040 87 4e 18 bf 7f 72 c0 3f 50 1d 92 3f 96 d7 1d bf
       -0.59494823 1.5034941 1.1415195 -0.61657083
000050 fe 0e 55 3f 60 0b 8f bf cd c5 b1 3f 63 aa 90 3f
       0.83226 -1.1175346 1.3888489 1.1301998
000060 c2 de 5a bf f2 9b d8 bf 83 c0 a0 bf 8e 6a c4 bf
       -0.8549615 -1.6922591 -1.255875 -1.5345018
000070 85 e7 ff bc 13 5b 1c 3f 27 92 5c 3c e6 52 03 bf
       -0.031238327 0.6107647 0.01346258 -0.5129837
000080 41 a0 98 bf 81 28 c5 bf 5c 2b 93 3f b3 c4 d0 bf
       -1.1923906 -1.5402986 1.1497607 -1.6310028
000090 a9 56 3f bf e8 3b 37 3e 82 ac 88 bf 18 cd f8 3e
       -0.7474161 0.17893946 -1.0677645 0.48593974
0000a0 32 51 ad be 9d 3f c5 3f 56 31 b1 bc b4 70 b1 bf
       -0.3385101 1.5410038 -0.02162997 -1.3862519
0000b0 db 60 0b 3f 8b 57 98 3f 3a 89 3b 3f 38 f2 54 3f
       0.54444665 1.1901716 0.73256266 0.83182096
0000c0 38 20 83 3e 17 2e d3 bf 19 2d cb 3f 5b 58 47 bf
       0.25610518 -1.649844 1.5873138 -0.77869195
0000d0 34 8b a9 bd f1 dc 58 3f 4b 70 83 bf 63 11 af bf
       -0.08278504 0.8471213 -1.0268644 -1.3677181
0000e0 ef b6 92 3d 9b 3f ae 3f 48 30 aa 3e 55 1c dc bf
       0.07163798 1.3613161 0.3323996 -1.7196146
0000f0 24 2d da bf b3 29 3a 3f a8 f4 d9 bf bd 44 51 3f
       -1.7045026 0.7271988 -1.7027788 0.8174551
000100 b3 17 dd bf 0a ad 0d bd 5d 42 24 3d 8b 39 3d be
       -1.7272857 -0.03458885 0.04010235 -0.18478982
000110 fe 69 b9 3f 24 4b cb bf 8c d9 34 bf 28 42 ca bf
       1.4485471 -1.5882306 -0.7064445 -1.5801439
000120 da 3e bc 3d 3c 57 fc be 11 5f 28 3f 49 97 ca bf
       0.091916755 -0.49285305 0.6577006 -1.5827419
000130 c4 72 0a 3e 9a 24 bd bd 8f 5a d4 bf 6e 17 a4 bf
       0.13520342 -0.09235497 -1.6590136 -1.281965
000140 a6 0d b5 bf 87 30 1f bf ab 2f 44 bf 23 5c 0c 3f
       -1.414479 -0.6218342 -0.76635236 0.5482809
000150 bd 38 1b 3f d1 16 c7 3f e8 51 8f bf 00 03 c8 3f
       0.6063345 1.5553838 -1.1196871 1.5625916
000160 e9 cb d4 3f f5 7c d7 3e 8f a0 a5 be 67 21 91 3f
       1.6624728 0.42087522 -0.3234906 1.1338319
000170 d5 ec ae bd 56 81 d3 bf 52 e6 73 3f 1f e8 ab bf
       -0.08541266 -1.6523845 0.95273316 -1.3430213
000180 4d 23 44 bf ec 3c db 3f 9e 32 72 bf d3 1e 60 bf
       -0.76616365 1.7127967 -0.94608486 -0.87547034
000190 e7 1d 11 bf ce 11 80 bf 2b 99 35 bf 42 84 a4 3f
       -0.5668625 -1.0005434 -0.7093684 1.2852862
0001a0 b4 b7 43 bf 98 0a 9f 3f 00 37 dc 3f 2f d0 1e bf
       -0.76452184 1.2425108 1.7204285 -0.6203641
0001b0 83 c7 c0 bf ab f9 db bf 5c a0 87 3f 98 a8 88 bf
       -1.5060886 -1.7185568 1.0595813 -1.0676451
0001c0 a7 bb 03 3f 6a 89 db bf 01 61 ba 3f d4 05 d5 bf
       0.5145821 -1.715131 1.4560853 -1.6642404
0001d0 c8 b9 d4 3f b4 78 02 be 61 36 95 bf 7b f6 c3 be
       1.6619196 -0.12741357 -1.165722 -0.38273987
0001e0 06 e7 97 3f 7d bf 3d 3f 92 f3 94 be cb 04 67 bf
       1.1867378 0.7412031 -0.2909208 -0.9024169
0001f0 cb 4a 86 be cc 9b c8 3e 88 4a ed be f6 17 2d 3f
       -0.26228938 0.39181364 -0.46345925 0.67614686
000200 7e a9 c6 bf df ad b2 3f d0 4f 3e 3f a9 c1 55 3f
       -1.5520475 1.3959311 0.74340534 0.83498627
000210 5b f6 45 3f 9c 2f 12 be 91 7a 50 3c 94 d1 48 be
       0.77329034 -0.14275974 0.012724535 -0.19611198
000220 24 ca 7d 3e 0a 05 fc be 34 0a b8 3e b4 6a a0 3e
       0.24784142 -0.49222594 0.35945284 0.31331408
000230 8c 56 a9 3b ca 1f a6 bf 7f df 8b bf 87 4f 81 bf
       0.005167788 -1.2978451 -1.092758 -1.0102395
000240 73 af 0b 3f 0a e4 49 3e 25 54 dc be 11 84 ea 3e
       0.5456459 0.19715896 -0.43032947 0.45803884
000250 c9 b7 0b bf af 2b 9b bf 2f 52 14 3f 62 76 cb 3f
       -0.5457731 -1.2122706 0.579379 1.5895503
000260 93 97 c5 be 1d 14 43 bf 06 4e bc bf 20 c0 63 3f
       -0.38592204 -0.76202565 -1.4711311 0.88965034
000270 4a 2e c2 be d4 b0 85 3f cb 3d 85 bf 8f cd e7 3e
       -0.3792594 1.0444589 -1.0409483 0.45274016
000280 74 08 0c 3f 7e 85 33 3e 6e df d5 bf 33 40 1e bf
       0.547004 0.17531392 -1.670881 -0.6181671
000290 05 4b 09 3e 64 7d 98 bf 10 b1 ae 3f 1c 4e c7 3f
       0.13407524 -1.1913266 1.3647785 1.5570712
0002a0 ee 3d a0 bf 07 cc 77 3d f7 12 c2 bd 04 02 09 3f
       -1.25189 0.06049731 -0.094762735 0.535187
0002b0 3b 2a 00 be ca c3 c1 3f 59 bc 42 bf a1 2a cf 3f
       -0.1251611 1.5137875 -0.76068646 1.6184884
0002c0 90 04 96 bf 5a 0b 63 bf 54 32 cf bf 7f 5c a7 3f
       -1.1720142 -0.88689196 -1.6187234 1.3075103
0002d0 81 32 1e 3e 7c e9 ff bc 7a 2a 3a 3f 17 17 da 3e
       0.15448953 -0.031239264 0.72721064 0.4259574
0002e0 4b f8 82 bf 8d 99 9d 3e c5 c6 ce 3f 6f 75 39 3f
       -1.0232023 0.30781212 1.615441 0.72444814
0002f0 f3 c3 c3 be e3 4e 2a bf 74 43 11 bf ba b3 8f 3f
       -0.38235435 -0.6652662 -0.5674355 1.1226723
000300 e6 60 24 be 27 65 56 bf 06 a4 f1 3d 8a f4 a2 bf
       -0.16052589 -0.83748096 0.11798863 -1.2730877
000310 26 c9 24 be ce 4e 9e 3f 96 ff 7a bf 5c 44 06 be
       -0.16092357 1.2367799 -0.98046243 -0.13112015
000320 12 84 6d 3f ef 2e be bf 8d 07 a3 be 57 5a 2f 3f
       0.9277965 -1.4858073 -0.31841698 0.6849722
000330 5e e5 d5 3f 07 a5 91 3e df 48 af 3f d8 ed 84 3e
       1.6710622 0.28446218 1.3694113 0.2596271
000340 1b 0a 8e be 47 33 89 be c5 7c 96 3f c3 ba c1 bf
       -0.27742085 -0.26796934 1.1756827 -1.513512
000350 1b e3 95 be b0 f8 5e bf 7a 4f 9b 3d de 41 b6 bf
       -0.2927483 -0.87098217 0.07583518 -1.4238851
000360 b6 af 22 3f 71 05 a8 bf 06 fb a6 bf 04 13 a5 be
       0.63549364 -1.312666 -1.3045356 -0.3224107
000370 af 4b c1 bf 4f c9 ae bf da 80 5b bf 78 08 d2 be
       -1.5101222 -1.3655185 -0.85743487 -0.41022086
000380 7b 33 53 bf 1d f9 86 bf 2b 51 3e bf fa 27 8d bf
       -0.8250043 -1.0544773 -0.743426 -1.1027825
000390 74 5e 9f 3f a7 f2 97 bf 0d 1f 4f bf 6d ad 1a be
       1.24507 -1.1870927 -0.80906755 -0.15105219
0003a0 23 5a c9 bf a3 2a 75 be 49 be 6d 3d f1 0a ac 3f
       -1.5730633 -0.23942046 0.0580428 1.3440839
0003b0 a2 9f 6c 3e 1e ec f0 be ea 4b 77 3e dc 5c d7 3f
       0.2310777 -0.47055143 0.24150053 1.6825213
0003c0 14 ed 4e 3e 4f 66 fc be a1 ca d5 3f fa d9 02 3e
       0.20207626 -0.49296805 1.6702462 0.12778464
0003d0 df 5a b5 3f 1d 46 ee 3d 47 41 c1 bf ef 9e 55 3e
       1.4168357 0.11634467 -1.5098046 0.2086141
0003e0 5e 57 13 3f 3d 98 18 3f 38 20 a8 3f 05 e5 7f 3f
       0.57555187 0.596073 1.3134832 0.9995883
0003f0 11 50 0d 3f 57 4e 84 3f ee ba b2 bf 98 d7 9f bf
       0.55200297 1.0336407 -1.3963296 -1.2487669

weight f4 [64, 64]
000000 2d 8f 7f 3e 3e 32 80 3f be 39 d5 bf ad cc bc bf
       0.24956961 1.0015333 -1.6658247 -1.4749962
000010 60 35 ab bd 18 7a c8 3e 7c 9d 86 3e 80 ff 5e bf
       -0.0835979 0.3915565 0.26292026 -0.8710861
000020 42 e9 44 3f 25 e2 3c be 38 59 40 bf 29 95 9a bf
       0.76918423 -0.18445642 -0.75136137 -1.207677
000030 a4 a7 da bf 1e dc af 3d 38 99 a1 3f c9 8f fa 3e
       -1.708241 0.08586906 1.2624884 0.48937824
000040 2c 14 8d bf 1c 19 4a be 99 8e 71 bf 44 0f 03 bf
       -1.1021781 -0.19736141 -0.9435821 -0.5119517
000050 d7 95 8c 3f 9c 3d cc 3f 74 fd 1b 3f 52 f9 1f bf
       1.0983227 1.5956302 0.60933614 -0.6248981
000060 5d 83 b6 3f 8f f0 53 be 16 b3 a7 bf 8a 2f 59 be
       1.4258839 -0.20697235 -1.3101528 -0.21209541
000070 0f d7 53 3f 58 88 4b 3f 23 26 b2 3f e0 5f a8 3f
       0.8275003 0.7950492 1.3917888 1.3154259
000080 83 f3 a1 3f c0 a4 ce 3f 68 71 db 3f 28 86 30 bf
       1.2652439 1.6144028 1.7143984 -0.68954706
000090 e6 3d 78 3f 20 09 b9 bf e2 4e 27 be e5 36 35 3e
       0.9696945 -1.445591 -0.16338685 0.17696722
0000a0 7c 26 a1 bf 51 e5 a2 3f ff 49 50 bf 92 50 52 3f
       -1.258987 1.2726232 -0.8136291 0.8215419
0000b0 f9 fd b7 bf ff 57 a8 bf 13 11 1f 3f 64 0c b2 bf
       -1.4374381 -1.3151854 0.6213543 -1.3910031
0000c0 6b dd c5 bf 97 e7 c7 3e 6f d3 bc 3f 7a ff b1 bf
       -1.5458196 0.39043877 1.4752024 -1.390609
0000d0 d0 bc a5 3f 31 f3 c9 3f 26 e8 12 bf 4a ef f9 3c
       1.2948246 1.5777341 -0.5738548 0.03050961
0000e0 0d 4c 33 be c4 0b 94 bf b0 ea 29 bd 8d 79 a6 bf
       -0.1750948 -1.156609 -0.04148358 -1.3005844
0000f0 0a 16 c4 3f d9 59 99 3f 57 33 d5 bf 05 7e 9f bf
       1.5319226 1.1980544 -1.6656293 -1.2460333
000100 81 11 5c 3f 03 a5 69 3f 2f 68 c8 be fa 87 84 3f
       0.8596421 0.9126741 -0.39141986 1.0353997
000110 e0 dd 76 be 43 13 8a bf c7 b7 88 3f 5a 1b a2 3f
       -0.24108076 -1.0787128 1.0681084 1.2664597
000120 cb d4 06 3f e4 54 ba 3f 54 89 7a bf e9 a4 cb be
       0.52668446 1.4557157 -0.97865796 -0.39774254
000130 09 c0 44 3f 51 fd 99 be 53 18 77 be fb c5 d4 3f
       0.7685552 -0.30076078 -0.24130373 1.6622919
000140 23 d4 96 bf 83 5f 8f bf c0 86 6c 3f a6 1b 09 bf
       -1.1783489 -1.1201023 0.9239311 -0.53557813
000150 15 c7 4f be 48 fc 9b bf fb f6 3e bf e1 ff b3 3e
       -0.20290788 -1.2186365 -0.7459561 0.35156158
000160 76 14 a0 be d4 fe bf 3f e3 cd 14 be 23 4d 6c 3e
       -0.3126561 1.4999642 -0.14531665 0.230763
000170 85 9c 37 bf 04 1d 19 be fd 0d d4 bf a0 e1 43 3e
       -0.71723205 -0.14952475 -1.6566769 0.19129038
000180 cd 9c 6a be 02 30 63 be b3 b9 10 be 30 35 de bf
       -0.22911377 -0.22186282 -0.14133339 -1.7359982
000190 17 78 a2 be 39 58 c7 be 77 76 86 3f 25 db ad bf
       -0.31732246 -0.38934496 1.0504903 -1.3582503
0001a0 bc 38 98 3e 1e 99 30 bf 2f dc 9c 3e b6 f6 bf 3f
       0.29730785 -0.6898364 0.30636737 1.4997165
0001b0 e7 ae 49 3f c2 d4 c9 3f ef 16 5c 3f ec 46 28 3f
       0.78782505 1.5768054 0.85972494 0.6573322
0001c0 23 53 04 be f3 82 99 bf af e2 29 bf 05 d0 ad 3e
       -0.12922339 -1.1993088 -0.66361517 0.3394777
0001d0 67 63 47 3f 9c 75 b4 bf fa 47 e5 3e b9 46 16 3d
       0.7788605 -1.4098392 0.44781476 0.03668854
0001e0 0f d4 bf bf 3f 09 d9 3f 10 05 85 3f 30 b7 b4 3f
       -1.498659 1.6955947 1.039217 1.4118404
0001f0 42 7e ce bd cd 8c a4 3f fd 48 be 3f ca 96 91 bf
       -0.100826755 1.2855469 1.4866024 -1.1374142
000200 7f 8b a7 be ab 5e 8f 3f 54 03 14 bd b8 aa c5 3f
       -0.32723615 1.1200765 -0.036135986 1.5442724
000210 a8 6d d4 3f fe f8 86 3f af 0c 9a 3f 8b b0 89 3f
       1.6595964 1.0544736 1.2035121 1.0757002
000220 1a aa c6 be c7 ac 15 3f a3 93 d1 3f b0 f3 06 3e
       -0.38801652 0.5846676 1.637318 0.13178897
000230 40 78 b4 bf 27 56 06 bf f1 f7 86 bf a7 58 97 be
       -1.4099197 -0.5247521 -1.0544416 -0.29559824
000240 03 3d 04 3f 6a 3f a3 bf 33 68 bd 3d 34 99 93 3f
       0.51655596 -1.2753727 0.0924839 1.1531129
000250 1c 99 c3 3f 25 b5 dc 3e e9 86 62 3f bc 80 e8 3b
       1.52811 0.43106952 0.88487107 0.0070954245
000260 97 2e 2c bf a7 b4 bd 3f de fc ea be 9f 56 f6 be
       -0.6725859 1.4820756 -0.45896047 -0.48112962
000270 c4 99 7f bc 29 fc bf bf b5 18 b9 bf 44 42 45 3f
       -0.015600625 -1.4998828 -1.4460665 0.7705424
000280 e6 74 47 bf c3 c7 81 bc 43 ad cb be 6a 57 b8 bf
       -0.7791275 -0.015842324 -0.39780626 -1.4401677
000290 c7 e5 96 3f 8e 99 b1 bf e8 77 88 3f 93 2e 82 bf
       1.1788872 -1.3874986 1.0661592 -1.0170463
0002a0 cb e9 d2 be f0 19 c5 bf 87 fb 96 3e 5e 05 48 3d
       -0.41193995 -1.539854 0.29488775 0.048833244
0002b0 92 db e6 be e8 47 2c 3f 1a 3d 13 bf 27 b6 46 bf
       -0.45089394 0.6729722 -0.5751511 -0.7762169
0002c0 63 68 40 3f 11 19 5f bf c9 52 bb 3f a2 35 d6 3e
       0.7515928 -0.87147623 1.4634639 0.41837794
0002d0 7e 67 8a 3f 4d 6f 79 bf 94 e3 5f 3f 45 07 73 3f
       1.0812833 -0.97435457 0.8745663 0.9493297
0002e0 70 d9 93 3e 1f 51 c4 bf 22 16 eb be 75 be bb bf
       0.2887683 -1.5337256 -0.45915323 -1.4667498
0002f0 b5 fe de bf 65 a4 d1 bf 51 4e 8c bf 6d e0 33 3f
       -1.742148 -1.6378294 -1.09614 0.7026432
000300 37 59 3a 3e 6c dc 12 3f 27 24 34 3f e3 c1 e0 be
       0.18198095 0.5736759 0.70367664 -0.43897924
000310 8d 39 13 be a1 33 46 bf 51 79 87 bf bb 42 b7 bf
       -0.14377423 -0.7742253 -1.0583898 -1.431724
000320 2e 5c bb 3e 3d 7d b0 3e 7e b3 74 3f 36 ed 1e be
       0.36593765 0.3447055 0.95586383 -0.15520176
000330 c5 af b2 be 86 d0 c2 3f 4e 08 b7 3f 76 aa ac 3f
       -0.34899727 1.5219886 1.4299409 1.348952
000340 c3 6f 00 be 57 25 d1 bf 99 2c 02 3f 79 ad 68 3f
       -0.12542634 -1.633952 0.508493 0.908897
000350 00 4f ba 3f d1 18 9e bf fe 6c ab 3f f0 8e c3 bf
       1.4555359 -1.2351323 1.3392637 -1.5277996
000360 00 23 95 bf ff c7 c5 be 59 32 2b bf 14 eb d3 bf
       -1.1651306 -0.38629147 -0.668737 -1.6556115
000370 35 a1 4d 3e 26 4f 07 3c 47 1a ad bf b6 16 1c 3e
       0.20081027 0.008258617 -1.3523644 0.15243039
000380 ad 2c 2f 3f 16 b4 c8 bd 52 1f 5a 3e 34 c0 0f bf
       0.68427545 -0.09799974 0.2130101 -0.56152654
000390 d3 8c 07 3f 6c 6a 29 3f fa 6f 69 3f 4b 65 93 bf
       0.52949256 0.6617801 0.9118649 -1.1515287
0003a0 c8 20 b5 bd 3f 71 43 bf 16 08 bc bd b3 bc 40 bf
       -0.08844143 -0.76344675 -0.0918123 -0.7528793
0003b0 12 b4 02 bf fc 4c 08 bf 8e dd b8 bc e9 df da 3f
       -0.51056015 -0.5324247 -0.022566583 1.7099582
0003c0 f3 12 d5 bf 1e 64 b1 3e cc cb 9c 3f f9 9f d0 3f
       -1.6646408 0.34646696 1.2249694 1.629882
0003d0 a4 00 ba be cf 7e a5 bf 10 ec 2e bf a5 a5 31 bc
       -0.36328614 -1.2929324 -0.6832895 -0.010842715
0003e0 34 27 13 3f fd a2 b5 bf da f4 77 3f 76 bb a2 be
       0.57481694 -1.4190365 0.9685799 -0.31783646
0003f0 e4 1f 22 3e bf 4b c1 be c7 8f 2b bf 3b b5 41 bf
       0.15832478 -0.37753102 -0.6701626 -0.7566716

_rtoi f4 [3, 9]
000000 00 00 80 3f 00 00 00 00 00 00 00 00 00 00 00 00
       1.0 0.0 0.0 0.0
000010 00 00 00 00 00 00 00 00 00 00 00 00 00 00 00 00
       0.0 0.0 0.0 0.0
000020 00 00 00 00 00 00 00 00 00 00 80 3f 00 00 80 3f
       0.0 0.0 1.0 1.0
000030 00 00 80 3f 00 00 00 00 00 00 00 00 00 00 00 00
       1.0 0.0 0.0 0.0
000040 00 00 00 00 00 00 00 00 00 00 00 00 00 00 00 00
       0.0 0.0 0.0 0.0
000050 00 00 00 00 00 00 00 00 00 00 80 3f 00 00 80 3f
       0.0 0.0 1.0 1.0
000060 00 00 80 3f 00 00 80 3f 00 00 80 3f
       1.0 1.0 1.0

weight f4 [64, 48]
000000 93 dd 9f 3f 2c 54 67 3f 7e 87 67 3d 16 2d 17 3f
       1.2489494 0.9036281 0.0565257 0.5905317
000010 19 43 cc 3d 5c 98 9d 3f 4a 8d 1b bf 77 df 01 bf
       0.09973735 1.2312121 -0.60762465 -0.50731605
000020 fd 74 8e 3f 79 92 d4 bf f2 30 8b 3f ac 48 1f bf
       1.1129452 -1.66072 1.0874312 -0.62220263
000030 50 ca 2b 3f 54 5e c4 bf 8d 30 3b bf 38 30 bf 3f
       0.6710558 -1.5341287 -0.7312096 1.493659
000040 f3 e4 d1 3e 2b 10 bc 3d b5 ad 71 bf 9f 97 c4 3d
       0.40994987 0.09182771 -0.9440568 0.09599232
000050 c1 30 03 3f 61 fa 13 3f 33 83 82 bf b7 49 ae bf
       0.5124627 0.5780392 -1.0196289 -1.3616246
000060 e4 20 9a bd b1 f7 a0 3f 1f 31 7a 3e ee 59 00 bf
       -0.07525805 1.257559 0.244328 -0.5013722
000070 0b 93 4a 3e ca 45 ff 3e eb 85 a9 bf 89 30 8e 3f
       0.19782655 0.49857932 -1.3243994 1.1108562
000080 12 37 ce 3e 53 ff 92 be 5d 41 89 3f 32 b8 92 be
       0.4027639 -0.28710422 1.0723072 -0.28656155
000090 75 eb c2 bf f4 fd c7 3f f7 23 51 3c 1d de 51 3f
       -1.5228106 1.5624375 0.012764922 0.8197954
0000a0 f4 f0 2d bf 88 f6 68 3f 24 a7 a0 3f 4c c1 ac 3f
       -0.6794579 0.91001177 1.2551007 1.349649
0000b0 66 4e 76 3f 38 14 99 bf 59 29 b1 3e bf 84 d3 3f
       0.96213377 -1.1959295 0.34601858 1.6524886
0000c0 32 ae 94 be 62 df 20 3f b1 ce 3f bf 38 cf 1d be
       -0.2903915 0.62840855 -0.7492476 -0.15411079
0000d0 6f 80 a3 bf df 76 d3 3d eb 5d a5 3f 29 5a 8b 3e
       -1.277357 0.10325407 1.2919286 0.27217224
0000e0 c9 85 85 3f 16 40 22 3f 89 df 69 3f 06 e9 47 3f
       1.0431453 0.6337904 0.9135671 0.7808994
0000f0 d6 62 d8 3f 61 da b1 3f 02 02 b5 3f 83 46 50 3f
       1.6905162 1.3894769 1.4141238 0.8135759
000100 94 a4 1a 3f b5 b7 25 3e 21 76 74 bf a7 2d b8 3e
       0.60407376 0.1618336 -0.9549275 0.3597233
000110 93 f5 a8 bc e1 2d d3 3d 85 05 94 3e e1 7c 0a 3e
       -0.020624911 0.10311485 0.2891046 0.135242
000120 33 d8 90 3f 52 36 a7 bd 6f 1e d3 bf 8b 01 9e 3f
       1.1315979 -0.08164658 -1.6493663 1.2344221
000130 74 2f 9a bf 71 6d 01 3f 4f 7f 62 3f f5 7c b5 bf
       -1.2045732 0.5055762 0.8847551 -1.4178759
000140 bd 95 fe be bf 44 29 3f d2 73 44 3f 4b c5 cc bf
       -0.49723616 0.66120523 0.7673923 -1.5997709
000150 11 a0 72 3f 3f 37 41 bf c0 d1 c6 3f ad 0a 85 3e
       0.9477549 -0.75474924 1.5532761 0.25984707
000160 4a c6 c8 be c5 de 44 bf a2 e3 5d bf 4d 8c a7 3f
       -0.39213783 -0.7690242 -0.86675465 1.3089691
000170 2c a5 a0 3f 21 2b 09 be 68 32 87 bf a3 75 25 3f
       1.2550406 -0.13395359 -1.0562258 0.64632624
000180 36 e0 81 bf 60 aa cf bf 6a dd 1b 3f a4 00 db 3e
       -1.0146549 -1.6223869 0.60884726 0.42773926
000190 46 b0 85 bf 10 50 37 be d5 70 53 3e c2 d3 70 be
       -1.0444419 -0.17901635 0.20648511 -0.23518279
0001a0 ec 6a c1 3e cd b0 67 3d 4d 5b 6a 3d d0 bd 86 3e
       0.37776887 0.056565095 0.057215977 0.2631669
0001b0 e1 74 16 bf 74 70 9f bf 2b 7f d6 bf 77 be 26 3d
       -0.58772093 -1.2456193 -1.6757559 0.040708985
0001c0 0c ef e7 3e 89 1d d5 3c d6 e0 32 3f 6f ce 1e bf
       0.45299566 0.02601506 0.6987432 -0.6203374
0001d0 61 42 b2 3e 3b c4 46 3e ee 91 7d bf 1e b9 32 3f
       0.34816268 0.19410793 -0.99050796 0.69813716
0001e0 de ef 6d bf 3e 42 03 bf b6 98 aa bf aa b8 c9 3f
       -0.92944133 -0.5127295 -1.3327854 1.575948
0001f0 fb d6 83 3f 38 c0 58 bf bf e3 ab bf a4 ed fa 3e
       1.0299982 -0.846683 -1.3428878 0.4900943
000200 65 5a c5 3f 74 f6 dc bf aa 83 ad bf 9b 2f a9 be
       1.5418211 -1.7262712 -1.3555806 -0.33044133
000210 67 f7 17 3e 9d d6 a2 bf ee 4d e8 3e d1 69 92 3f
       0.1484047 -1.2721745 0.45371956 1.1438543
000220 e9 c4 f1 be 4c 48 c7 bd 5e d6 82 3f f9 bc 0d 3f
       -0.47220543 -0.097305864 1.022167 0.55366474
000230 b4 b4 16 be 15 e8 2b bf 9d 2a ea 3e ab c7 9e bf
       -0.1471737 -0.67151004 0.45735636 -1.2404684
000240 8e ec 43 be de e2 5a bf fd 28 85 3f fc b6 13 bf
       -0.19133207 -0.8550242 1.0403134 -0.57701087
000250 01 0c 7e 3f 06 02 58 bf b0 2d 5b be 90 55 84 bf
       0.99237067 -0.8437809 -0.21404147 -1.0338612
000260 fd 14 a4 bf 1b f6 52 3e 65 33 93 bf 62 56 d0 3c
       -1.2818905 0.20601694 -1.1500059 0.025431816
000270 85 ff 2c bf fe 29 39 bf 2f 79 b6 3f e0 f2 2f 3e
       -0.6757739 -0.723297 1.4255732 0.17182493
000280 38 1e b3 bf 98 31 67 3f d7 79 83 3f b2 4f 04 3f
       -1.3993597 0.9031005 1.0271558 0.51684105
000290 3a cc d2 3e d9 f0 9a 3f d9 92 da be 16 5a be 3e
       0.41171438 1.2104751 -0.4269016 0.37178105
0002a0 41 6e 9d 3f 8d 87 9e 3f cd 14 2d 3e 57 e8 8e bf
       1.2299272 1.2385117 0.16902466 -1.1164654
0002b0 a4 72 c5 bf 5c 9b 86 be ce 40 2a 3f a1 2d c0 bf
       -1.542561 -0.26290405 0.66505134 -1.5013925
0002c0 c2 ea b1 3f 26 60 03 3f 8e 44 9c bf 8a ec 4a 3f
       1.3899767 0.51318586 -1.2208421 0.7926718
0002d0 9b 1e a2 3f 89 04 cb 3f b8 30 eb 3d 8e 2d 46 3e
       1.266559 1.5860759 0.11483902 0.19353315
0002e0 0a 71 c6 bf 30 d7 02 bf 5c ee 56 bf e4 85 d3 3e
       -1.5503247 -0.511096 -0.8395746 0.41313088
0002f0 a0 1e 3c bd e5 da 17 3f 0a 91 be 3f 09 bc 8c bf
       -0.045927644 0.5931838 1.4888012 -1.0994884
000300 32 29 ac be 5d 49 a0 3e 77 ce 96 3e f1 7c a6 bf
       -0.3362518 0.31305972 0.29454395 -1.3006879
000310 11 d7 d0 3f 77 f0 d9 bf f5 a4 05 3f b3 f8 1e bc
       1.6315633 -1.7026509 0.5220483 -0.009702849
000320 e6 0f 95 bf 94 ea 9c bd ee 90 8b 3f 49 36 03 3e
       -1.1645477 -0.0766193 1.0903604 0.12813677
000330 9d fb 85 be 47 27 6d 3f 1f 3d dc 3f da 6e d1 3f
       -0.26168528 0.9263806 1.7206153 1.6361954
000340 ae b9 3d bf 56 6c 55 bf 2b 27 d0 bf 49 d6 4b 3f
       -0.7411145 -0.8336843 -1.6261953 0.7962385
000350 54 fa bc 3f 59 4e ad be 8d ac 75 bf 60 a8 cd 3f
       1.4763894 -0.33848837 -0.95966417 1.6067009
000360 63 0c e8 3e e4 54 a4 be b4 6b 56 3f 18 b0 ba 3f
       0.4532195 -0.32096016 0.8375809 1.458499
000370 ff 27 cd bf 95 bb cf 3f 2a 3e d6 3e 9a e4 ce bf
       -1.6027831 1.622912 0.41844302 -1.6163514
000380 5f f4 89 be ab c7 9f be 29 d0 b7 3f 78 01 31 3f
       -0.26944253 -0.31207022 1.43604 0.69142866
000390 81 98 cc bf ad 1c ea be b1 c4 c7 3f c3 f6 47 bf
       -1.598404 -0.45725003 1.56069 -0.78110904
0003a0 b0 19 70 bf 54 a6 81 3e 6f 04 81 3f ee 99 f8 3e
       -0.93789196 0.2532221 1.0079478 0.4855494
0003b0 1a 8e 3f bf 9b 32 b0 3f fd 7c 82 bf ca 6d a9 3f
       -0.74826205 1.3765444 -1.0194393 1.323663
0003c0 9f a3 a3 3e 35 4d 88 3f b7 fe c5 3f 13 4a 77 3f
       0.3196077 1.0648562 1.5468358 0.96597403
0003d0 5e 35 72 3f 0f 12 29 3f 8e c3 8d be 6b 9e 2e 3f
       0.9461268 0.6604318 -0.2768826 0.68210477
0003e0 ef 8c 5f 3e 6b 87 a9 3e dc 30 d4 bf f7 43 c5 3f
       0.21831106 0.33111128 -1.6577411 1.5411366
0003f0 66 20 46 3e 38 cc a3 be d7 f9 a3 3e 9a 1b 60 bf
       0.19348297 -0.31991744 0.3202655 -0.87542117

_rtoi f4 [3, 9]
000000 00 00 80 3f 00 00 00 00 00 00 00 00 00 00 00 00
       1.0 0.0 0.0 0.0
000010 00 00 00 00 00 00 00 00 00 00 00 00 00 00 00 00
       0.0 0.0 0.0 0.0
000020 00 00 00 00 00 00 00 00 00 00 80 3f 00 00 80 3f
       0.0 0.0 1.0 1.0
000030 00 00 80 3f 00 00 00 00 00 00 00 00 00 00 00 00
       1.0 0.0 0.0 0.0
000040 00 00 00 00 00 00 00 00 00 00 00 00 00 00 00 00
       0.0 0.0 0.0 0.0
000050 00 00 00 00 00 00 00 00 00 00 80 3f 00 00 80 3f
       0.0 0.0 1.0 1.0
000060 00 00 80 3f 00 00 80 3f 00 00 80 3f
       1.0 1.0 1.0

weight f4 [64, 112]
000000 b3 da a7 be e1 70 a9 be 06 ab 8d 3f e5 35 88 bf
       -0.32784042 -0.33093932 1.1067817 -1.0641447
000010 10 3b 9a 3f c9 33 3c bf a5 0d 9c bf df fa 58 bf
       1.2049274 -0.7351652 -1.2191664 -0.847578
000020 c8 39 d8 bf 04 b2 42 3f 12 14 ad bf ae ac 87 3f
       -1.6892633 0.7605288 -1.352175 1.0599573
000030 b8 32 c2 3f b2 f5 b3 bf 5f 71 0a 3f db 8f 04 bf
       1.5171728 -1.4059355 0.5407924 -0.51782006
000040 7d aa 8e 3f fc aa b0 bf cf b6 b7 bf 6d 7b 3e bf
       1.1145779 -1.380218 -1.4352664 -0.7440708
000050 27 54 2a 3f 5a 4d f6 be af b7 a5 bf 02 c9 15 3d
       0.66534656 -0.4810589 -1.2946681 0.03656865
000060 7c ab 8f 3f 27 d8 da bf bf d9 44 3e 99 7a 8b 3f
       1.1224208 -1.7097214 0.19223689 1.0896789
000070 8d 2e 5a bf 53 1d 58 bf 40 bc d6 bf 61 6b b4 be
       -0.8522728 -0.84419745 -1.6776199 -0.35238174
000080 f6 b5 8e 3e a0 53 6f 3f 32 23 36 3e 19 de 53 bf
       0.278732 0.93486977 0.17786863 -0.8276077
000090 8e 06 cf 3f 56 24 7b bf 76 1c b6 3f 1c 58 95 bf
       1.6173875 -0.9810232 1.4227436 -1.1667514
0000a0 b0 d2 b8 bf 6b 3d d5 3f d1 57 d8 3f 29 0c 78 3f
       -1.4439297 1.6659368 1.69018 0.96893555
0000b0 ab bc 4a bf 4c 49 aa 3f 83 78 aa 3e 14 43 8d bf
       -0.79194134 1.3303618 0.33295068 -1.1036096
0000c0 bb 7d 86 be f6 c4 b2 3f 2f f3 56 bc ad 4f 90 3f
       -0.262678 1.3966358 -0.013119503 1.1274315
0000d0 41 e0 dc 3d 57 95 bb 3e 39 8e 83 bf 50 ca 26 bf
       0.107849605 0.36637375 -1.0277778 -0.65152454
0000e0 6f 5a 82 3f d8 d2 ba be 97 02 9e bf bd d8 c5 bf
       1.0183848 -0.36488986 -1.234454 -1.5456768
0000f0 fa a4 cb 3e bd 50 d3 bf 62 5d bc bf 69 42 f0 bc
       0.39774305 -1.6509014 -1.4715998 -0.029328542
000100 b1 15 a9 bf 4c be 01 3f 71 59 a8 3e e4 cd 7a bf
       -1.3209745 0.50680995 0.32880738 -0.97970414
000110 66 6b f2 3e 16 ef ed 3e 1f 3a 43 3f de 76 b8 3f
       0.47347564 0.4647147 0.7626056 1.4411275
000120 1c 16 74 3f c8 1c 82 be 51 02 c5 bf 89 e4 23 bf
       0.95346236 -0.25412583 -1.5391332 -0.6402059
000130 19 a7 ca 3f cc f6 47 bf f1 c8 c7 bf 10 31 b9 3f
       1.5832244 -0.7811096 -1.5608197 1.4468098
000140 c8 82 a5 3f ae 7d b0 be 0b bb 40 3f f6 32 c1 3f
       1.2930536 -0.34470886 0.75285405 1.5093677
000150 ce 32 d1 3f 61 b6 4c bf a1 5a 08 3f 84 a4 c2 bf
       1.6343629 -0.7996579 0.5326329 -1.5206456
000160 2c 63 dc 3f 14 df 64 3f ef fd 2d bf 72 82 69 bf
       1.7217765 0.8940289 -0.67965597 -0.9121467
000170 62 61 8f bf 72 5d 24 bf 52 14 87 3f fd c4 43 bf
       -1.1201594 -0.64205086 1.0553076 -0.76472455
000180 d3 d4 4c 3f 76 44 4e 3f b1 e3 62 bf 85 c5 07 3f
       0.80012244 0.80573213 -0.8862868 0.53035766
000190 a6 b7 21 3f 1a 3b 68 3f 11 bc 8b bf 49 d8 83 bf
       0.6317085 0.9071518 -1.0916768 -1.030038
0001a0 1b 92 01 3f c0 f1 b2 bf 63 5d 1d bf bb 57 a8 bf
       0.50613564 -1.3980026 -0.6147062 -1.3151773
0001b0 61 6a 97 3f dc aa 74 3f 15 b9 b1 3e 10 5d 21 bd
       1.1829339 0.9557321 0.3471152 -0.039395392
0001c0 40 87 6b 3f 08 b7 11 be b7 f2 d4 3e 34 d2 f7 bd
       0.9200325 -0.14229977 0.41591427 -0.1210064
0001d0 98 e4 8a 3e 62 f2 15 3f e6 56 98 3f c9 eb 34 3d
       0.27127528 0.5857297 1.1901519 0.044170175
0001e0 64 e7 be 3f 32 eb cb 3f 15 9d 72 3f f5 56 3a 3e
       1.4914365 1.5931151 0.9477094 0.18197234
0001f0 01 b2 66 bf 68 a4 ab 3f cf 44 c9 bf e0 b0 22 3c
       -0.9011536 1.3409548 -1.5724124 0.009929866
000200 43 6d bb 3f e1 e7 a5 3f 58 a3 d4 bf 9d d7 92 bd
       1.4642719 1.2961389 -1.6612349 -0.07170031
000210 e5 75 af bd ca 01 c3 3e 5a e7 36 bf 0c 08 ff 3e
       -0.085674085 0.38087302 -0.71446764 0.49810827
000220 14 d6 33 bf 94 1b a1 bf d7 b7 93 bf 75 b0 3f bf
       -0.7024853 -1.2586541 -1.1540478 -0.7487863
000230 1a 8b 57 bd 96 2b dc 3e 0d d9 d2 bf 51 7a 2c 3e
       -0.052622892 0.43002003 -1.6472489 0.16843535
000240 82 ec 6b 3f f4 61 6c 3f d3 b7 a9 3e f5 27 c7 bf
       0.9215776 0.92336965 0.3314806 -1.5559069
000250 28 46 d1 bf c3 9f 76 bf bf 34 1c 3e 66 3c a7 bf
       -1.6349535 -0.9633753 0.15254496 -1.3065307
000260 45 4e eb 3e 03 23 83 bf 62 38 ba bf 34 87 94 bf
       0.45958152 -1.024506 -1.4548457 -1.1603761
000270 67 69 a7 3f d0 cd cb 3f 35 15 94 3f 28 ab 04 3f
       1.3079041 1.5922184 1.1568972 0.51823664
000280 a6 19 e7 bd 22 f3 d0 3e 70 cf 98 bf 2a 01 dc 3f
       -0.11284189 0.40810496 -1.1938305 1.7187855
000290 d4 15 ca 3f 23 81 c7 3f 6b 48 7d 3f 93 3a c8 bf
       1.5787911 1.5586284 0.98938626 -1.5642875
0002a0 8b 06 60 bf 0a 39 7a 3f 77 e7 92 3f 80 e9 2b 3f
       -0.87509984 0.97743285 1.1476887 0.6715317
0002b0 e5 e1 b8 bf a7 a7 57 bf a1 43 93 3e e5 ae a0 be
       -1.4443938 -0.8424019 0.28762534 -0.31383434
0002c0 ae e0 07 3f 22 cc 6c 3f 6d 52 ce 3f 7b ae b4 3d
       0.5307721 0.9249898 1.6118904 0.08822342
0002d0 1e 64 66 3f 12 a6 16 bf d8 3e e7 3e 15 08 f9 be
       0.89996517 -0.58847153 0.45165133 -0.4863898
0002e0 31 10 f8 bc 01 ae d7 3e e6 6e 99 bf 3d 98 9f 3f
       -0.030281158 0.42124942 -1.1986969 1.2468334
0002f0 84 ab d4 3e 6e d9 b3 3f 2c 27 79 bf c9 68 9e bf
       0.41537106 1.4050729 -0.97325397 -1.2375728
000300 83 c6 be be ba 43 a5 bf e3 2d 29 3f 0f 42 ca be
       -0.37260827 -1.2911294 0.6608564 -0.39503524
000310 ae a6 26 bf f2 f2 a7 be 46 b6 fe 3d 29 f7 44 3d
       -0.65098083 -0.3280254 0.1243711 0.048087273
000320 7c a6 94 3f b1 b5 ac 3f 0e 06 50 3d 21 6e dc bf
       1.1613307 1.3492948 0.050787024 -1.7221109
000330 89 59 8e be 73 dc 6f 3f d6 b8 a9 bf 76 c6 8d bf
       -0.27802685 0.93695754 -1.3259532 -1.107619
000340 b4 39 b3 3f 07 55 3a bf a5 3a 09 bd b9 05 64 3f
       1.4001985 -0.7278599 -0.033503193 0.8907123
000350 f8 f4 a2 3f ce 60 d2 3f 9b 6a b8 3f 16 9b 85 bf
       1.2731009 1.6435792 1.4407533 -1.0437953
000360 89 7c d7 bf 89 e3 14 3f 5c de 35 be da a3 c2 bf
       -1.683488 0.5815969 -0.17760605 -1.5206254
000370 6c 67 b1 bf 99 42 dc 3f 7a 07 b0 3f f9 cb 71 3f
       -1.3859687 1.7207824 1.3752282 0.9445186
000380 4a 7f 33 3f 64 c6 3a bd d8 f7 81 3f 1d 7c 0f 3e
       0.701161 -0.045599356 1.0153761 0.14012189
000390 e8 29 a4 bf bf 71 73 bf b9 7d b5 bf 08 aa 18 3f
       -1.2825289 -0.9509544 -1.4178993 0.5963445
0003a0 94 d4 77 bf 1d 55 a6 be 10 bb 89 bf 9f 50 bc bf
       -0.96808743 -0.3248681 -1.0760212 -1.4712104
0003b0 e7 4d 6b bf ce 10 65 3f 9d 22 52 3f d5 da 36 3f
       -0.91915745 0.89478767 0.82084066 0.7142766
0003c0 4b b2 89 3f 61 6d 45 3f 53 e9 f2 be 10 75 aa 3e
       1.0757536 0.77120024 -0.47443637 0.33292437
0003d0 5c b4 bd bf 04 de 35 bf bc 36 24 bf f8 80 21 bf
       -1.4820666 -0.71041894 -0.6414602 -0.63087416
0003e0 c2 f5 84 bf 84 17 c2 bf e9 63 33 3f 3b 20 ab bf
       -1.0387499 -1.5163426 0.70074326 -1.3369211
0003f0 90 da 89 bf 70 7b a9 bf bb 53 b6 bf b8 3b 86 bd
       -1.0769825 -1.3240795 -1.4244303 -0.06554359
