tests/continuity/model_ckpts/allegro_cln_ca.ckpt (torch, 757062 bytes, 108 tensors)

model.model.edge_norm._rmax_recip f8 []
0.05
00000000: 9a99 9999 9999 a93f

model.model.radial_chemical_embed.bessel_encode.bessel_weights f8 [1, 48]
1.0 2.0 3.0 4.0 5.0 6.0 7.0 8.0
9.0 10.0 11.0 12.0 13.0 14.0 15.0 16.0
17.0 18.0 19.0 20.0 21.0 22.0 23.0 24.0
25.0 26.0 27.0 28.0 29.0 30.0 31.0 32.0
33.0 34.0 35.0 36.0 37.0 38.0 39.0 40.0
41.0 42.0 43.0 44.0 45.0 46.0 47.0 48.0
00000000: 0000 0000 0000 f03f 0000 0000 0000 0040
00000010: 0000 0000 0000 0840 0000 0000 0000 1040
00000020: 0000 0000 0000 1440 0000 0000 0000 1840
00000030: 0000 0000 0000 1c40 0000 0000 0000 2040
00000040: 0000 0000 0000 2240 0000 0000 0000 2440
00000050: 0000 0000 0000 2640 0000 0000 0000 2840
00000060: 0000 0000 0000 2a40 0000 0000 0000 2c40
00000070: 0000 0000 0000 2e40 0000 0000 0000 3040
00000080: 0000 0000 0000 3140 0000 0000 0000 3240
00000090: 0000 0000 0000 3340 0000 0000 0000 3440
000000a0: 0000 0000 0000 3540 0000 0000 0000 3640
000000b0: 0000 0000 0000 3740 0000 0000 0000 3840
000000c0: 0000 0000 0000 3940 0000 0000 0000 3a40
000000d0: 0000 0000 0000 3b40 0000 0000 0000 3c40
000000e0: 0000 0000 0000 3d40 0000 0000 0000 3e40
000000f0: 0000 0000 0000 3f40 0000 0000 0000 4040
00000100: 0000 0000 0080 4040 0000 0000 0000 4140
00000110: 0000 0000 0080 4140 0000 0000 0000 4240
00000120: 0000 0000 0080 4240 0000 0000 0000 4340
00000130: 0000 0000 0080 4340 0000 0000 0000 4440
00000140: 0000 0000 0080 4440 0000 0000 0000 4540
00000150: 0000 0000 0080 4540 0000 0000 0000 4640
00000160: 0000 0000 0080 4640 0000 0000 0000 4740
00000170: 0000 0000 0080 4740 0000 0000 0000 4840

model.model.radial_chemical_embed.type_embed.center_embed.weight f4 [21, 16]
2.603048e-08 2.3400665e-08 -1.7606955e-09 2.9724472e-08 3.023409e-11 1.2456039e-08 -1.1325068e-08 -6.1442735e-09
-3.7787224e-08 -1.8071358e-08 -2.9618413e-08 -4.4126867e-08 2.9910245e-09 -3.6162792e-08 3.8077612e-08 -2.3495465e-08
-3.0715788e-09 2.9671687e-08 -2.788935e-08 4.3368154e-08 1.0618971e-08 -2.9568014e-08 5.5809464e-09 2.353999e-08
3.5238603e-08 -1.9446387e-09 6.54463e-09 4.9647767e-08 9.379948e-10 -2.3290356e-08 6.0085417e-09 -3.449023e-09
-1.988733e-08 -2.0481188e-08 2.5919036e-08 9.973686e-09 -2.8952227e-09 -3.4492405e-08 8.0838184e-08 -3.297934e-08
-4.7021032e-08 2.3356984e-08 3.4051833e-08 5.632205e-08 2.1271258e-09 -1.0103433e-08 -2.73938e-10 4.653974e-09
-0.44047874 -0.7460082 -0.30476487 -0.15343127 0.2646222 0.28098822 1.5756464 -0.16794649
-0.39021194 -0.03483633 0.2997944 0.74452084 0.26125583 1.8637978 0.4352369 0.45273724
0.36780933 -0.27968535 -0.5633184 0.016417393 0.14957646 0.1791907 -0.60533285 -0.48918378
1.0877657 0.7217696 -0.8806731 -1.3550667 -0.62952477 0.09081667 -2.0514765 2.036465
1.3960105e-09 2.7585174e-09 -4.448329e-09 3.936789e-09 1.6018422e-08 -1.3767617e-08 1.0728311e-08 -4.3825715e-08
5.123781e-09 2.940909e-08 -2.1616087e-08 4.1916216e-08 -2.6269777e-08 -2.1707056e-08 -5.924151e-09 -2.6118412e-08
-0.49065042 -0.16152997 -0.14397821 -0.5696478 -0.104671426 0.15334934 0.59071124 0.5353458
0.14178942 0.7637946 1.0459217 -0.056075852 -0.084964626 -0.21807359 -0.019869583 -1.1381367
2.0467759e-08 8.090182e-09 -6.685734e-10 1.3284226e-08 -1.7862204e-09 -1.2442691e-09 1.01231326e-08 -6.6213013e-09
-1.0215295e-08 2.7125289e-08 -1.5711507e-08 -4.4479048e-08 -2.3517122e-09 2.9609484e-09 1.7954548e-08 3.5678642e-08
-5.854466e-08 -1.670639e-08 2.0105457e-08 6.9349845e-08 -9.31073e-09 -1.011749e-08 -5.4871545e-11 1.08937845e-08
-1.6915006e-08 1.2342454e-08 -9.07575e-09 -2.0078511e-08 -2.7975743e-08 -3.100005e-08 4.920142e-08 6.734145e-09
-4.388346e-08 -1.4467986e-08 -5.7502326e-08 4.9158054e-08 -2.7456446e-08 1.3466434e-08 1.7271265e-08 1.9353976e-08
-1.6199714e-09 -5.3433663e-08 7.2533664e-09 6.9040436e-09 -8.193173e-10 -8.619569e-09 -4.335901e-09 6.5057497e-09
1.62782e-08 -5.05127e-08 9.53998e-10 3.3438035e-08 1.1422807e-08 -1.8731402e-08 -2.6314142e-08 -8.817675e-09
-1.041159e-08 3.495423e-08 -3.0717736e-08 -2.4802974e-08 -8.3627025e-09 2.3523015e-08 -1.387454e-08 -1.8442917e-08
-1.3283612e-08 4.187294e-08 1.2365655e-08 -2.2442258e-08 -8.733127e-09 4.286962e-08 1.3469842e-08 3.152628e-08
7.672238e-09 4.9265556e-09 1.7605815e-08 3.1094984e-08 -5.457958e-09 -1.0702809e-08 -1.3360763e-08 3.3515125e-08
-2.8798413e-08 6.595155e-08 9.417777e-09 -2.012462e-08 1.0771697e-08 -1.84943e-08 2.1598428e-08 2.3425391e-08
-7.347942e-09 -1.4145309e-08 -9.740254e-09 -3.255864e-08 1.746903e-09 9.3119146e-10 1.2347299e-08 9.270092e-09
-1.1558603 -0.45808318 0.08685004 -0.3205536 -0.43836543 0.9509418 -1.0454772 -0.70644885
0.25887644 0.7935833 -1.1618928 0.88061565 -0.5179884 -0.7835277 -0.23298483 -0.89327717
-3.5577072e-09 3.7793986e-09 1.4798608e-09 4.0462833e-08 1.7265148e-08 -2.9537516e-08 2.0761508e-08 3.807174e-08
-1.1522422e-09 6.104869e-09 5.2827214e-09 -2.2198758e-08 1.0885378e-08 -1.0890001e-08 -1.871283e-08 3.9156742e-08
-2.6424829e-08 -2.4629704e-08 -2.9980573e-08 3.6236646e-08 -6.644791e-08 1.7868212e-08 2.8099858e-09 -1.3233313e-09
-1.5928741e-08 1.8386233e-08 6.791662e-08 -4.4633857e-08 1.6476177e-08 -1.2828775e-08 -1.39170915e-08 1.4670778e-08
00000000: a299 df32 9b02 c932 f7fc f1b0 ce54 ff32
00000010: 8ff8 042e 3dfe 5532 2d90 42b2 9a1d d3b1
00000020: 7e4b 22b3 563b 9bb2 946b feb2 0186 3db3
00000030: a98a 4d31 6951 1bb3 c78a 2333 13d3 c9b2
00000040: c913 53b1 bbe0 fe32 5491 efb2 ca43 3a33
00000050: ba6e 3632 c0fc fdb2 86c2 bf31 fc34 ca32
00000060: 4159 1733 72a2 05b1 2ddf e031 4c3c 5533
00000070: c2ea 8030 0910 c8b2 b173 ce31 db03 6db1
00000080: b3d4 aab2 9cee afb2 90a4 de32 bc58 2b32
00000090: 4cf5 46b1 cd24 14b3 4399 ad33 2ba5 0db3
000000a0: 2cf4 49b3 8da2 c832 6340 1233 c0e6 7133
000000b0: cb2c 1231 5e93 2db2 5999 96af cae8 9f31
000000c0: 6e86 e1be 65fa 3ebf 240a 9cbe 161d 1dbe
000000d0: 907c 873e b0dd 8f3e c8ae c93f 2afa 2bbe
000000e0: dcc9 c7be 8ab0 0ebd a77e 993e eb98 3e3f
000000f0: 53c3 853e ed90 ee3f 5fd7 de3e 2dcd e73e
00000100: 8151 bc3e eb32 8fbe a235 10bf c57d 863c
00000110: 922a 193e c47d 373e 18f7 1abf 4c76 fabe
00000120: e83b 8b3f e4c5 383f cb73 61bf d372 adbf
00000130: 8928 21bf 17fe b93d 644b 03c0 7155 0240
00000140: c1dd bf30 5a90 3d31 ead7 98b1 5d44 8731
00000150: e298 8932 9f86 6cb2 9c4f 3832 e23a 3cb3
00000160: 410d b031 469f fc32 47ae b9b2 5e07 3433
00000170: daa7 e1b2 5276 bab2 628d cbb1 ff5a e0b2
00000180: 8836 fbbe 1d68 25be 066f 13be 70d4 11bf
00000190: f95d d6bd 9c07 1d3e da38 173f 6c0c 093f
000001a0: 3f31 113e 0b88 433f c3e0 853f cbaf 65bd
000001b0: ef01 aebd af4e 5fbe 89c5 a2bc 77ae 91bf
000001c0: 14d1 af32 fffc 0a32 acc6 37b0 a538 6432
000001d0: 0b7f f5b0 d402 abb0 02ea 2d32 9581 e3b1
000001e0: 587f 2fb2 2401 e932 f8f5 86b2 3b09 3fb3
000001f0: c29b 21b1 8e79 4b31 783a 9a32 153d 1933
00000200: 8972 7bb3 bd81 8fb2 5eb4 ac32 7bed 9433
00000210: 06f5 1fb2 31d1 2db2 de53 71ae 5f27 3b32
00000220: 7e4c 91b2 b00a 5432 92eb 1bb2 1d79 acb2
00000230: 4f4f f0b2 ea24 05b3 8951 5333 2a62 e731
00000240: 607a 3cb3 e08e 78b2 7af8 76b3 da21 5333
00000250: 5dd9 ebb2 015a 6732 ea5b 9432 d83f a632
00000260: ada5 deb0 ef7e 65b3 4939 f931 9c38 ed31
00000270: 5436 61b0 4415 14b2 fdfa 94b1 2e89 df31
00000280: 24d4 8b32 4df3 58b3 d21d 8330 829d 0f33
00000290: 093e 4432 cae6 a0b2 6909 e2b2 8b7c 17b2
000002a0: a8de 32b2 9520 1633 82ee 03b3 510e d5b2
000002b0: 8eab 0fb2 a80f ca32 df5c 6eb2 676c 9eb2
000002c0: f235 64b2 c9d7 3333 ba70 5432 0cc7 c0b2
000002d0: b308 16b2 a51f 3833 fe68 6732 8367 0733
000002e0: dcce 0332 7146 a931 993b 9732 4c8d 0533
000002f0: b588 bbb1 74df 37b2 4289 65b2 45f2 0f33
00000300: 6160 f7b2 40a1 8d33 d2cb 2132 82de acb2
00000310: 6d0e 3932 65dd 9eb2 7287 b932 fb38 c932
00000320: 2e79 fcb1 ba03 73b2 1756 27b2 9ad6 0bb3
00000330: af17 f030 c6f6 7f30 ff1f 5432 4c42 1f32
00000340: 3bf3 93bf e189 eabe 6fde b13d 9a1f a4be
00000350: 6f71 e0be ec70 733f 32d2 85bf d5d9 34bf
00000360: 748b 843e 4628 4b3f e7b8 94bf 0770 613f
00000370: e39a 04bf 4595 48bf 9393 6ebe d0ad 64bf
00000380: d97b 74b1 f1db 8131 f963 cb30 5bc9 2d33
00000390: 764e 9432 afb9 fdb2 0a57 b232 5284 2333
000003a0: eb5c 9eb0 ffc2 d131 4f83 b531 96af beb2
000003b0: 6602 3b32 bb16 3bb2 f3bd a0b2 4b2d 2833
000003c0: d0fc e2b2 4b91 d3b2 fdc3 00b3 9da2 1b33
000003d0: 20b2 8eb3 9d7c 9932 cb19 4131 95e0 b5b0
000003e0: acd3 88b2 c1ef 9d32 8fd9 9133 72b3 3fb3
000003f0: 7f87 8d32 8d65 5cb2 0418 6fb2 c40a 7c32

model.model.radial_chemical_embed.type_embed.neighbor_embed.weight f4 [21, 16]
1.7333255e-08 2.9398844e-08 2.177339e-08 3.982859e-08 4.5724192e-08 -1.8151901e-08 -1.300731e-08 1.2775161e-09
2.513212e-08 4.9830615e-09 2.1177204e-08 -7.735079e-09 1.3880094e-08 -1.0182051e-08 5.9419033e-08 -1.6546204e-08
4.734342e-09 -3.1745113e-09 8.69171e-09 1.1622244e-09 -6.756399e-09 -3.876621e-09 2.6862343e-09 -9.5873025e-09
3.291345e-08 1.4406318e-08 -1.2275941e-08 1.6960641e-08 -7.3513506e-09 -1.48409836e-08 -2.3013271e-08 -8.6648635e-09
2.2454326e-08 4.969919e-09 -4.130561e-08 1.2761502e-08 -3.0542296e-08 8.132455e-09 -5.6214353e-09 -1.3226091e-08
5.4051856e-09 2.5198712e-08 -9.6579855e-09 3.6407124e-09 6.226885e-10 3.0348666e-08 4.794848e-08 -1.0355312e-09
-0.94297653 0.12612158 0.022055136 1.2264915 -0.7254604 0.52498966 0.3743245 -0.8950725
-1.3616734 -0.28469363 0.90731984 -1.465156 -0.095138356 0.9693044 1.0296887 0.050883677
-0.76394874 -0.15229946 0.0009173024 -1.9316207 -0.7880407 0.9357863 -0.7287273 1.252907
0.4010623 0.43670517 1.5164526 1.8227732 -0.1353836 0.068686925 -1.3408052 2.3149576
7.423726e-09 2.1995193e-08 -2.265297e-08 -4.908596e-08 -2.2790624e-08 4.508274e-09 3.6832585e-08 1.0143817e-08
-1.4131539e-08 -1.7015665e-08 -1.9805865e-08 -2.8605736e-08 3.457428e-08 6.8469617e-09 1.0182299e-08 8.965257e-09
1.1985981 0.13337131 -1.5049754 -0.0061305338 1.0732522 0.36914703 -0.8617858 0.14655939
1.2029951 -0.16721202 0.0021086405 -1.5284342 0.679116 1.3199209 -0.9444576 -0.8906442
-2.4207694e-08 -1.82181e-08 1.3613807e-08 5.587588e-09 1.30034685e-08 -1.212025e-08 -1.8499701e-08 -1.375609e-09
-4.4707154e-08 4.87006e-08 9.887386e-09 1.4198674e-08 -3.8361872e-08 1.6042346e-08 1.2240812e-08 3.4230059e-09
-2.3540645e-08 -1.0687997e-08 -2.6121326e-08 8.129854e-09 3.1877573e-08 -5.828273e-09 2.0152166e-08 -3.5409567e-08
2.6210477e-08 1.7581982e-08 -2.2031957e-08 1.9171981e-08 2.4618825e-09 6.4354557e-09 3.249412e-09 -2.5233241e-08
-1.6686178e-08 -9.743912e-09 -2.1698327e-08 1.830209e-08 -3.1885207e-08 1.2305977e-08 1.7553381e-09 -4.7185617e-10
4.450775e-08 3.225256e-08 3.1111853e-08 5.2521754e-10 -2.256824e-08 -3.7579095e-08 4.6003086e-09 4.3550827e-08
2.6986296e-08 -3.290168e-08 -1.9420925e-08 -3.504015e-08 8.033704e-09 -7.766378e-09 1.692393e-08 -2.6916464e-08
3.0265603e-08 -4.613079e-08 1.7945263e-08 1.6653731e-09 2.0187402e-08 -6.6743255e-09 -2.4407626e-10 1.00922835e-08
8.339137e-09 1.8089114e-09 3.306048e-08 -6.516023e-09 5.2935243e-09 -7.683848e-09 2.5560785e-09 -2.154227e-09
2.3667926e-08 -2.2432468e-08 -3.6920532e-08 -1.853328e-08 1.2057734e-08 6.8070665e-09 1.4654115e-09 3.743243e-09
-2.5862462e-08 7.1467987e-09 1.9930058e-08 5.3452087e-09 5.5758594e-08 4.1038533e-08 3.1493528e-08 7.498695e-09
1.2010741e-08 -5.2301994e-09 3.1894718e-08 1.3200181e-10 5.2571396e-09 -1.9316872e-08 -3.2530703e-08 -4.2881002e-08
-1.0944396 -0.2175996 0.1277684 -0.013609062 -1.123488 -0.5965508 1.3811063 0.8365848
-0.14193104 1.0498317 -1.5397446 0.4329657 0.6674465 0.54833734 0.3375297 0.62189406
-3.4776535e-09 -2.2232145e-08 2.9916304e-08 2.8049467e-09 -9.2420915e-09 -2.6939069e-09 1.2128863e-08 -7.7441795e-09
-1.5071153e-08 -2.1308344e-08 -3.587743e-08 -3.477808e-08 1.0635814e-08 -1.1604161e-08 -4.7408825e-08 1.3281172e-08
-2.2236204e-08 2.290835e-08 2.069757e-09 -2.4552358e-08 -3.5122184e-08 1.26235005e-08 -1.8338933e-09 1.780985e-08
2.2078622e-08 -1.3971416e-08 4.616329e-09 -1.4199316e-08 2.659648e-08 9.961184e-09 -2.1043492e-08 -1.576303e-09
00000000: 3be4 9432 be88 fc32 3108 bb32 ff0f 2b33
00000010: 4862 4433 74ec 9bb2 c176 5fb2 9a94 af30
00000020: 1ee2 d732 7937 ab31 2ae9 b532 3de3 04b2
00000030: 4d75 6e32 22ed 2eb2 eb33 7f33 7d21 8eb2
00000040: b6ab a231 9826 5ab1 8b52 1532 23bc 9f30
00000050: ea25 e8b1 1e33 85b1 bc98 3831 67b5 24b2
00000060: b95c 0d33 a87f 7732 29e6 52b2 d8b0 9132
00000070: 2a97 fcb1 56f7 7eb2 b8ae c5b2 79dc 14b2
00000080: 96e1 c032 dfc3 aa31 0068 31b3 ae3d 5b32
00000090: 9c2d 03b3 eab6 0b32 ab26 c1b1 f738 63b2
000000a0: 84b8 b931 8e74 d832 45ec 25b2 1730 7a31
000000b0: cf29 2b30 b658 0233 e9ef 4d33 8452 8eb0
000000c0: e966 71bf 0426 013e f9ac b43c acfd 9c3f
000000d0: c6b7 39bf b965 063f 76a7 bf3e 7923 65bf
000000e0: 504b aebf 5dc3 91be 1d46 683f 3b8a bbbf
000000f0: e6d7 c2bd 5524 783f d7cc 833f 676b 503d
00000100: 2592 43bf 64f4 1bbe 1f77 703a 593f f7bf
00000110: 09bd 49bf b18f 6f3f df8d 3abf 425f a03f
00000120: 0a58 cd3e d297 df3e 1e1b c23f a250 e93f
00000130: 00a2 0abe bbab 8c3d 819f abbf 4428 1440
00000140: c913 ff31 f1ef bc32 6896 c2b2 95d2 52b3
00000150: 1dc5 c3b2 33e7 9a31 db31 1e33 fb44 2e32
00000160: 2ac7 72b2 d829 92b2 8f21 aab2 aeb8 f5b2
00000170: d37e 1433 8342 eb31 39ee 2e32 9e05 1a32
00000180: aa6b 993f 7d92 083e 09a3 c0bf a5e2 c8bb
00000190: 5460 893f d700 bd3e ff9d 5cbf aa13 163e
000001a0: befb 993f a139 2bbe 1e31 0a3b bba3 c3bf
000001b0: 8cda 2d3f 2bf3 a83f f9c7 71bf 4201 64bf
000001c0: 48f1 cfb2 077e 9cb2 28e2 6932 f2fc bf31
000001d0: dc65 5f32 6c39 50b2 46e9 9eb2 f00f bdb0
000001e0: 0904 40b3 e02a 5133 2fdd 2932 6eee 7332
000001f0: 53c3 24b3 7ecd 8932 a94b 5232 283a 6b31
00000200: 6d36 cab2 4f9e 37b2 6761 e0b2 7aab 0b32
00000210: c3e9 0833 0842 c8b1 151b ad32 3b15 18b3
00000220: 7325 e132 3007 9732 c940 bdb2 a2af a432
00000230: e52d 2931 de1e dd31 434c 5f31 7cc0 d8b2
00000240: 4b55 8fb2 2e66 27b2 2063 bab2 b936 9d32
00000250: 28f2 08b3 426a 5332 7840 f130 edb3 01b0
00000260: ca28 3f33 1186 0a33 d89f 0533 e65e 1030
00000270: 16dc c1b2 a766 21b3 be10 9e31 a40c 3b33
00000280: 7ecf e732 c84f 0db3 11d3 a6b2 0d7f 16b3
00000290: 9b04 0a32 e46c 05b2 1e60 9132 ee35 e7b2
000002a0: 62fd 0133 5721 46b3 0d26 9a32 1be3 e430
000002b0: 9168 ad32 fd53 e5b1 ae2e 86af 5562 2d32
000002c0: ea43 0f32 699d f830 62fe 0d33 8be3 dfb1
000002d0: 55e2 b531 ec01 04b2 02a7 2f31 9009 14b1
000002e0: 524e cb32 85b1 c0b2 8e92 1eb3 1d33 9fb2
000002f0: 7a26 4f32 97e3 e931 9567 c930 ea9d 8031
00000300: 2828 deb2 e88f f531 a932 ab32 f4a8 b731
00000310: 397b 6f33 5842 3033 8043 0733 9cd3 0032
00000320: cc57 4e32 52b5 b3b1 9dfc 0833 3523 112f
00000330: 4aa2 b431 40ee a5b2 e3b7 0bb3 292c 38b3
00000340: 9916 8cbf 6ed2 5ebe b8d5 023e 8bf8 5ebc
00000350: 74ce 8fbf 8eb7 18bf 17c8 b03f 6c2a 563f
00000360: 5f56 11be e360 863f 5a16 c5bf aead dd3e
00000370: c6dd 2a3f d65f 0c3f b1d0 ac3e 7334 1f3f
00000380: 87fb 6eb1 01f9 beb2 537d 0033 25c1 4031
00000390: 26c7 1eb2 b61f 39b1 4e5f 5032 430b 05b2
000003a0: d175 81b2 8b09 b7b2 a717 1ab3 e75e 15b3
000003b0: ceb8 3632 a45b 47b2 8e9e 4bb3 362b 6432
000003c0: ee01 bfb2 ffc7 c432 8d3b 0e31 35e7 d2b2
000003d0: 40d9 16b3 bede 5832 620c fcb0 46fc 9832
000003e0: 67a7 bd32 f006 70b2 a99d 9e31 41f1 73b2
000003f0: 4776 e432 c021 2b32 21c3 b4b2 3ba5 d8b0

model.model.radial_chemical_embed.type_embed.basis_linear.mlp.0.weight f4 [48, 32]
-0.5640138 1.2215208 2.0267887 0.89830273 -1.2432418 0.34476784 1.0424632 1.1278744
1.126292 -0.5410475 -1.9294661 -0.258569 -0.3430343 0.5151701 0.053221222 1.036295
-1.2059885 1.6348723 0.11350993 0.63437605 1.0271434 -1.7508764 1.3138714 0.31404194
2.3967907 0.23429887 2.2783728 -0.4990653 -1.3829937 -2.1428034 0.51974016 2.2721443
-1.2437434 0.46752998 2.131429 -0.20901726 -1.7117195 0.72409433 1.4329331 1.4241828
0.6161578 -1.3537138 -2.2269514 0.36061794 -0.56720597 0.9589825 0.5553304 1.5313993
-1.6097955 1.1866134 0.92234004 2.3101997 1.3250839 -1.1314759 0.6847365 -0.19278172
1.5989293 -0.009483093 0.36431953 -0.16103846 -2.207625 -1.4090166 0.056648385 2.8968241
-1.0363526 -0.8543529 0.5446536 -1.5085424 -0.5391388 0.9594953 1.0782151 0.62079674
-0.10929377 -0.64936143 -0.65044075 0.32884818 -0.51433474 0.068327054 0.84909445 1.1865414
-1.2116144 0.7110737 1.0216553 2.0518255 0.31302395 -0.01677762 -0.40499893 -0.91715
-0.22319207 -1.0351458 -1.554654 1.3663269 -1.908881 -0.7453765 -0.30259877 0.48496804
-0.6119994 -1.5129362 -0.8990769 -1.4173286 1.0254339 0.71352476 0.41185635 -1.0738713
0.4448789 0.8302904 0.14210062 -0.28057358 0.2766316 -1.0187951 0.63279974 0.0355945
-0.6126574 0.5727814 0.5017242 -0.06183313 -1.0303482 0.3969077 -1.4458997 -0.57753366
-1.6762937 -1.1664292 -1.2571405 2.3067975 -0.39979255 0.07910592 0.08115969 -0.8868845
0.043050054 -0.47086862 -1.921071 -0.02490524 2.086166 -0.15505958 -0.49691844 -2.2402117
0.31911588 1.6785678 1.1802634 -0.3893981 0.91678387 -1.4070498 0.24182808 -1.9036145
0.48197517 0.08646997 0.08842331 -1.4411837 -1.7507212 0.8599128 -2.0283337 0.8468439
-1.8631457 -0.8753839 -0.049341463 0.6771439 1.2632132 1.2884282 0.42933774 -1.3079706
1.0484113 1.7787194 -1.1651188 0.8251291 1.1478611 -0.53398055 -1.1189221 -1.3065145
-0.18222082 1.1007996 1.3812933 -0.046023976 0.9974887 -0.80609334 -0.2402861 -2.1140897
1.3496763 -0.30125746 -0.40733966 -1.5334994 -1.1244262 0.68647957 -0.830544 1.4705148
-0.6061003 0.10830219 0.7417802 -0.94065595 1.7142828 1.2806712 0.07183963 -1.2794758
1.7997478 1.9403446 -0.2693422 1.2047282 -0.055284888 -0.76715326 -1.1376015 -0.042078935
-0.57216984 -0.2075094 0.95703936 0.4934158 0.7107473 0.6064798 -0.81347805 -1.2790675
1.4173586 -0.6078465 -0.67041814 -0.6971332 0.240933 0.24994457 0.6996828 0.99818605
0.96911335 1.0949082 1.1010126 -2.5249724 1.494385 0.88412446 -0.35702947 -0.32172227
1.2215725 0.47623432 0.47876635 0.86969405 -1.1031203 -0.91833764 -0.78616345 1.4351275
-1.0483098 -1.4521476 0.32818565 0.566644 -0.0630777 1.3438563 -0.99729556 -0.43303367
0.9916969 -0.8217062 -0.9070183 0.082673736 1.4676625 -0.13964304 1.5875422 -0.56973684
1.6009609 1.3564103 0.527923 -1.9818579 0.69764566 0.056508623 -0.699694 0.4783679
00000000: 3563 10bf cb5a 9c3f e8b6 0140 2bf7 653f
00000010: 8c22 9fbf 6985 b03e 6f6f 853f 305e 903f
00000020: 562a 903f 1782 0abf bff8 f6bf 2863 84be
00000030: 31a2 afbe 30e2 033f 7ffe 593d 51a5 843f
00000040: d55d 9abf 7f43 d13f e577 e83d 7866 223f
00000050: 6f79 833f b81c e0bf f02c a83f 1bca a03e
00000060: 0565 1940 0bec 6f3e dcd0 1140 7d85 ffbe
00000070: f005 b1bf b123 09c0 b10d 053f d06a 1140
00000080: fc32 9fbf 1760 ef3e 5569 0840 9f08 56be
00000090: a019 dbbf 3f5e 393f 5a6a b73f 9f4b b63f
000000a0: 85bc 1d3f 7e46 adbf 5f86 0ec0 eaa2 b83e
000000b0: 6934 11bf e17f 753f 222a 0e3f e404 c43f
000000c0: c70d cebf f3e2 973f 7a1e 6c3f 50da 1340
000000d0: 599c a93f 34d4 90bf e44a 2f3f 9268 45be
000000e0: b7a9 cc3f fa5e 1bbc 1788 ba3e 44e7 24be
000000f0: ba49 0dc0 a85a b4bf 2308 683d 9165 3940
00000100: 34a7 84bf dfb6 5abf 6b6e 0b3f eb17 c1bf
00000110: 0005 0abf 7ca1 753f f402 8a3f 89ec 1e3f
00000120: 69d5 dfbd 8d3c 26bf 4983 26bf ca5e a83e
00000130: 71ab 03bf 0eef 8b3d 415e 593f 97e0 973f
00000140: 2e16 9bbf ed08 363f 9ac5 823f 1c51 0340
00000150: ad44 a03e 3871 89bc 055c cfbe 58ca 6abf
00000160: 768c 64be a87f 84bf e7fe c6bf cde3 ae3f
00000170: 3656 f4bf ffd0 3ebf 3aee 9abe bb4d f83e
00000180: feab 1cbf e5a7 c1bf e729 66bf 066b b5bf
00000190: 6b41 833f 8fa9 363f d6de d23e 9d74 89bf
000001a0: 2bc7 e33e e98d 543f d382 113e 57a7 8fbe
000001b0: a8a2 8d3e e167 82bf 2aff 213f 8acb 113d
000001c0: 1ed7 1cbf cda1 123f ff70 003f bc44 7dbd
000001d0: 73e2 83bf 7c37 cb3e 3e13 b9bf 3fd9 13bf
000001e0: cb90 d6bf 8d4d 95bf fbe9 a0bf 92a2 1340
000001f0: 9cb1 ccbe 4902 a23d 0d37 a63d dd0a 63bf
00000200: 4155 303d b115 f1be a8e5 f5bf 1306 ccbc
00000210: be83 0540 f0c7 1ebe 186c febe a15f 0fc0
00000220: 2863 a33e 4fdb d63f df12 973f 305f c7be
00000230: 59b2 6a3f 351a b4bf c8a1 773e a4a9 f3bf
00000240: 73c5 f63e 2b17 b13d 4817 b53d b578 b8bf
00000250: a217 e0bf 3f23 5c3f 38d0 01c0 c3ca 583f
00000260: 8f7b eebf 2919 60bf 461a 4abd 4d59 2d3f
00000270: f8b0 a13f 37eb a43f 28d2 db3e 956b a7bf
00000280: 5732 863f 14ad e33f 9d22 95bf a93b 533f
00000290: 1ded 923f f3b2 08bf d738 8fbf de3b a7bf
000002a0: 1898 3abe 00e7 8c3f 38ce b03f a383 3cbd
000002b0: 6b5b 7f3f 225c 4ebf 8f0d 76be 3f4d 07c0
000002c0: 31c2 ac3f 6b3e 9abe d38e d0be b549 c4bf
000002d0: 33ed 8fbf 20bd 2f3f 889e 54bf d439 bc3f
000002e0: 6429 1bbf 8acd dd3d 4fe5 3d3f d4ce 70bf
000002f0: 9e6d db3f 09ed a33f a820 933d ddc5 a3bf
00000300: 235e e63f 365d f83f 39e7 89be 8934 9a3f
00000310: 6872 62bd 2864 44bf ed9c 91bf f65a 2cbd
00000320: b979 12bf 587d 54be 8800 753f ffa0 fc3e
00000330: 89f3 353f 4342 1b3f 1940 50bf 7cb8 a3bf
00000340: 026c b53f d49b 1bbf 86a0 2bbf 5277 32bf
00000350: 24b7 763e 78f1 7f3e 691e 333f 1f89 7f3f
00000360: d017 783f f425 8c3f fbed 8c3f 2699 21c0
00000370: 0248 bf3f fb55 623f 91cc b6be c8b8 a4be
00000380: 7d5c 9c3f fcd4 f33e dd20 f53e 45a4 5e3f
00000390: 0c33 8dbf 2d18 6bbf 0242 49bf 42b2 b73f
000003a0: 042f 86bf f9df b9bf f307 a83e 950f 113f
000003b0: e22e 81bd 7c03 ac3f c34e 7fbf 97b6 ddbe
000003c0: d9df 7d3f 565b 52bf 5a32 68bf d950 a93d
000003d0: 5ddc bb3f 96fe 0ebe 9534 cb3f 46da 11bf
000003e0: 49ec cc3f da9e ad3f f625 073f 85ad fdbf
000003f0: e898 323f 9675 673d 251f 33bf a3ec f43e

model.model.scalar_embed_mlp.mlp_module.mlp.0.weight f4 [32, 64]
0.010419732 0.39975438 -0.103213586 0.82169 -0.6431541 0.53159726 0.4490917 -0.7434563
0.08074354 -0.04282091 0.49412444 -0.7793449 0.9845219 0.050057348 0.10734283 -0.08140575
0.3469754 -0.72083974 0.40428686 0.2536747 0.05544823 0.021955686 -0.8987127 0.058627564
-0.13277338 0.34058267 0.21087743 -0.28358236 0.2847843 0.60801715 -0.07895118 -0.16460492
0.92824996 -0.42364395 -0.3491218 0.39785683 -0.7739551 -0.251577 0.97472876 0.3767458
-0.2721522 -0.6112355 0.46961224 -1.1772434 -0.23071899 1.0418046 0.9054204 -0.08347483
0.004376554 -0.36678883 0.5214099 -0.17361815 -0.16456874 0.75859976 0.30321267 0.3276101
-0.9552338 -0.96817565 -1.2884085 -0.837956 0.21972215 -0.86686885 -0.4999751 -1.1038673
-0.8384459 -0.59761894 1.0175197 -0.5715437 0.43658817 -0.28811717 0.025813939 -0.10278579
0.021483663 -0.12936479 -0.18617347 -0.110234864 -0.6785431 0.60311365 -0.34536573 0.07589204
-0.19784693 0.16403678 0.118794456 -0.5700102 -0.29940358 0.13226348 0.12785885 -0.5594251
-0.49931538 -0.24951543 -0.298895 0.29559147 0.28569528 0.44013807 0.2826312 0.04915148
-0.09743558 -0.029468413 0.43964463 -0.4247685 0.017882382 0.13351543 -0.65593994 0.51047844
0.81202066 0.27393988 0.29751283 -0.2732385 -0.34613284 -0.1630391 0.07883537 -0.020982716
0.15339556 -0.38938498 0.9005833 0.26973775 0.24526355 0.43143237 -0.057772666 0.26065138
0.45176765 -1.3901062 0.15449792 -0.42247307 0.55156386 0.66457814 0.17121819 0.21653448
-0.2123429 -0.25718096 0.9686887 0.014210341 1.565537 0.11527525 0.2146156 0.054982983
0.537404 -1.0034198 -0.63331884 -0.31782833 -0.22770815 0.26011902 1.1689657 0.02123088
-0.25889128 0.16296233 0.46559027 -0.90640813 0.32518706 -0.38475853 0.33117393 0.12938043
0.09099032 -1.147664 1.1181551 0.033687834 0.06768583 0.13907598 -0.43835387 0.3556724
0.026006307 0.36414623 0.43784723 -0.68820477 -0.5557933 -0.08824435 0.7114555 0.5008808
-0.21049783 0.51141673 -0.6428625 0.33255854 -0.31908688 -0.5249558 0.21966632 0.27523845
0.918126 0.21463773 -0.07295843 0.16073209 0.54622734 0.7801813 0.6048672 -0.44669157
0.49873915 0.3106465 -0.6234679 -0.52432275 -0.14891651 -0.25841698 -0.33091798 0.06988206
-0.04071106 -0.6594789 -0.57594675 0.1346792 0.4258944 -0.5741295 0.42634204 -0.66757095
-0.68130964 0.51632094 -0.06843691 -0.11122968 -0.22471282 0.40305272 -0.17011592 0.048703283
0.00074684265 -0.35462746 -0.14188446 -0.80178815 -0.09250907 0.030177623 -0.2964185 -0.8852347
0.056774423 -0.230867 0.33681417 -0.7946363 0.3666823 1.1035261 -0.03407075 0.4091852
-0.010722006 -0.3171649 0.19263597 -0.086293235 -0.5045458 -0.5862327 0.033516403 0.6508241
-0.22601259 0.744741 -0.5931353 -0.48245654 -0.104835235 -1.202233 0.35149547 -0.1933177
-0.024558764 -0.13824531 0.50651217 0.5423272 0.936964 0.2858074 -0.3277598 0.43284833
-0.06714005 -0.388873 0.04379286 0.35801205 0.108759746 -0.05996251 0.3382257 0.5114051
00000000: 86b7 2a3c 9bac cc3e a561 d3bd 475a 523f
00000010: bfa5 24bf c216 083f 59ef e53e 2753 3ebf
00000020: de5c a53d fb64 2fbd e1fd fc3e 2683 47bf
00000030: a109 7c3f ef08 4d3d 8fd6 db3d 0fb8 a6bd
00000040: c2a6 b13e f488 38bf b0fe ce3e a6e1 813e
00000050: af1d 633d 69dc b33c 0912 66bf 7523 703d
00000060: bff5 07be da60 ae3e 41f0 573e b531 91be
00000070: 3fcf 913e 03a7 1b3f 28b1 a1bd 318e 28be
00000080: caa1 6d3f dce7 d8be 18c0 b2be e4b3 cb3e
00000090: ec21 46bf b3ce 80be d387 793f d3e4 c03e
000000a0: 8857 8bbe ee79 1cbf 0471 f03e e9af 96bf
000000b0: 9941 6cbe da59 853f a2c9 673f daf4 aabd
000000c0: 3269 8f3b bfcb bbbe 1f7b 053f f5c8 31be
000000d0: b584 28be 9833 423f b13e 9b3e 83bc a73e
000000e0: 348a 74bf 5cda 77bf 92ea a4bf 4984 56bf
000000f0: d8fe 603e 1eeb 5dbf bcfc ffbe 864b 8dbf
00000100: 64a4 56bf 8efd 18bf 163e 823f b050 12bf
00000110: 7c88 df3e 1884 93be c177 d33c 5b81 d2bd
00000120: 82fe af3c 3478 04be 42a4 3ebe d1c2 e1bd
00000130: 00b5 2dbf a865 1a3f c7d3 b0be 496d 9b3d
00000140: 6398 4abe 42f9 273e 824a f33d 30ec 11bf
00000150: 6d4b 99be 1470 073e 6eed 023e 7c36 0fbf
00000160: 44a6 ffbe f980 7fbe c408 99be c457 973e
00000170: a746 923e c759 e13e 09b5 903e 1053 493d
00000180: 4e8c c7bd be67 f1bc 1a19 e13e 427b d9be
00000190: 137e 923c 45b8 083e aeeb 27bf b7ae 023f
000001a0: 96e0 4f3f d941 8c3e 9a53 983e ebe5 8bbe
000001b0: 5338 b1be b9f3 26be 7074 a13d f2e3 abbc
000001c0: ba13 1d3e 785d c7be a18c 663f 111b 8a3e
000001d0: 5e26 7b3e b4e4 dc3e 08a3 6cbd 1974 853e
000001e0: 174e e73e 00ef b1bf b434 1e3e 644e d8be
000001f0: 4a33 0d3f cb21 2a3f d253 2f3e 37bb 5d3e
00000200: 6b70 59be 39ad 83be fcfb 773f 7dd2 683c
00000210: 8463 c83f 6e15 ec3d 31c4 5b3e d635 613d
00000220: 4f93 093f 0f70 80bf 2f21 22bf 65ba a2be
00000230: 532c 69be 522e 853e aba0 953f 62ec ad3c
00000240: 668d 84be 99df 263e d961 ee3e 5d0a 68bf
00000250: eb7e a63e 12ff c4be a18f a93e 4e7c 043e
00000260: 2259 ba3d a7e6 92bf b51f 8f3f 41fc 093d
00000270: de9e 8a3d ef69 0e3e eb6f e0be b11a b63e
00000280: 2e0b d53c 6071 ba3e 832d e03e 302e 30bf
00000290: 7848 0ebf 74b9 b4bd f321 363f b939 003f
000002a0: be8c 57be 35ec 023f a392 24bf 1d45 aa3e
000002b0: 5b5f a3be 8163 06bf 35f0 603e 0eec 8c3e
000002c0: 4e0a 6b3f fec9 5b3e 3b6b 95bd f496 243e
000002d0: 8ed5 0b3f f6b9 473f 94d8 1a3f c2b4 e4be
000002e0: bd5a ff3e 0f0d 9f3e 989b 1fbf 043a 06bf
000002f0: 927d 18be 3b4f 84be 156e a9be 531e 8f3d
00000300: a4c0 26bd 9cd3 28bf 3f71 13bf 58e9 093e
00000310: d50e da3e 27fa 12bf 8149 da3e eee5 2abf
00000320: 4f6a 2ebf 9c2d 043f a728 8cbd 63cc e3bd
00000330: 1e1b 66be ed5c ce3e de32 2ebe 187d 473d
00000340: c3c7 433a bb91 b5be 294a 11be fd41 4dbf
00000350: 6575 bdbd 1037 f73c 2ac4 97be be9e 62bf
00000360: 4c8c 683d 6668 6cbe e872 ac3e 496d 4bbf
00000370: c8bd bb3e 5840 8d3f c58d 0bbd b980 d13e
00000380: 5aab 2fbc 7063 a2be 5d42 453e 82ba b0bd
00000390: ea29 01bf 5913 16bf 7f48 093d 699c 263f
000003a0: d86f 67be 59a7 3e3f b7d7 17bf 8b04 f7be
000003b0: dbb3 d6bd c5e2 99bf 37f7 b33e 13f5 45be
000003c0: 762f c9bc 2e90 0dbe c8aa 013f f5d5 0a3f
000003d0: dfdc 6f3f 5955 923e 22d0 a7be 4c9e dd3e
000003e0: b980 89bd 5d1a c7be 2460 333d 5b4d b73e
000003f0: 6ebd de3d 409b 75bd eb2b ad3e 72eb 023f

model.model.scalar_embed_mlp.mlp_module.mlp.2.weight f4 [64, 64]
-0.90478414 1.219925 0.793131 -0.88437027 -0.57446027 -0.28296784 0.57378083 0.5831746
0.4000607 0.00021643944 0.19624324 -0.59553105 1.4136969 0.7545227 -0.4037816 -1.0642253
-0.116854586 0.015344686 -0.0073270462 -0.21541196 -0.08747794 -0.83774924 -0.21974687 -0.3060649
0.6939384 -0.74557924 0.15469725 -0.63900256 1.0405773 0.057756722 0.35661286 -0.36479604
0.8644444 -0.54209113 -1.0025604 -1.7115762 -0.3300838 -0.29213434 -0.5807791 -0.87629074
-0.38309598 0.4624501 -0.4780297 -0.9220856 0.69494104 -0.3419993 -0.31560314 -0.0048335698
0.3426112 0.8128671 -0.102775306 -0.018876893 -1.1337103 -0.59557533 -0.15265529 -0.5026871
-0.71321607 -0.17182775 0.7179357 -1.2879969 -0.5157457 -0.09342057 -1.1772946 -0.14036393
0.51699656 -0.22691184 -1.200541 0.09201928 -0.47875258 -0.3590054 0.27757326 0.40261355
-0.24420945 0.10194567 0.052983437 0.30581382 0.27807173 0.37618 0.32494485 -0.6246784
0.023242561 -0.0063226707 -0.540316 -0.02365648 0.47259587 -0.051079676 -0.01684552 0.165089
1.5503457 0.0067255767 0.67947847 -0.2529628 0.22267058 -0.3510606 -0.19899073 -0.1566514
0.8452957 -0.46267715 -0.19069637 0.57879204 -0.5233815 1.343101 -0.020001512 -0.33149856
0.6380442 0.06790484 0.5738306 0.5939984 0.74744254 -0.022483291 0.7979744 -0.22564626
0.24687074 -0.24896878 -0.61058336 0.59403557 -0.12945005 0.3090785 -0.47824013 -0.52897763
0.5520566 0.5651881 -0.39392507 -0.21633433 -0.21997781 -0.059758626 -1.936596 -1.9564034
0.26260874 -0.23686144 0.09491357 -0.7842795 0.7211164 1.0763063 0.31955156 0.038508568
-0.25833344 1.1169746 0.07919376 -1.0932803 -0.9749378 -0.3644795 -0.09725304 1.3584002
-0.18585126 0.31392896 0.9214967 0.4194578 0.405222 0.7331341 0.5479016 0.4187365
-1.2598723 0.57468325 -0.15336034 0.37391308 -1.085385 0.31227675 -0.18989651 0.2161775
-0.5276619 -0.41563612 -0.36634606 0.45963433 -0.6842331 -0.01212236 -0.9310332 -0.46303046
0.017831845 0.38820297 0.8701397 -0.16516861 -0.339859 0.55781347 0.8616972 0.30172956
0.25369653 -1.7509271 -0.056657493 0.61095864 1.1376091 0.35680717 0.23922111 0.12429366
0.1832227 -0.9287493 0.46393645 0.38026744 -0.4666432 1.0848505 0.12801935 0.9425404
0.75562876 1.3748183 0.39875078 -0.4734405 -0.653101 0.6299931 -0.16926913 0.35156155
-0.25595945 -0.7672787 0.043457005 -0.64892197 0.051985063 -1.0653611 0.742574 1.283399
-0.72984004 1.2506125 -0.064074256 0.04591823 -1.4162234 -0.09479222 0.39083448 0.73343885
0.18498042 0.41268206 -0.97118855 0.78527075 -0.51122946 0.048255835 -0.096267074 -1.9170955
-1.3343209 1.1948571 -1.2445594 -0.6011456 0.74954796 -0.17910206 -0.33036605 -0.26766035
-0.8733424 -0.3169141 -0.03564409 1.1124064 0.58592933 0.38811156 0.38794145 -0.64926267
-0.47235233 -0.0011529359 1.1515887 -0.06892081 -0.7611216 0.025894 -0.39605933 0.6263556
0.34657902 -0.290571 0.76874477 -0.5180715 -0.37334147 -0.21633585 0.44967288 0.680561
00000000: ef9f 67bf 8126 9c3f a20a 4b3f 1766 62bf
00000010: d40f 13bf 29e1 90be 4de3 123f ee4a 153f
00000020: c2d4 cc3e 05f4 6239 fdf3 483e b974 18bf
00000030: 05f4 b43f 6628 413f 76bc cebe 8938 88bf
00000040: 7551 efbd 4768 7b3c b817 f0bb f494 5cbe
00000050: a227 b3bd bc76 56bf 5305 61be 8ab4 9cbe
00000060: f2a5 313f 48de 3ebf f568 1e3e ac95 23bf
00000070: a331 853f 5092 6c3d f695 b63e 8cc6 babe
00000080: 3a4c 5d3f 7cc6 0abf e653 80bf ee14 dbbf
00000090: be00 a9be a292 95be f0ad 14bf 9754 60bf
000000a0: 2825 c4be 42c6 ec3e 4fc0 f4be cd0d 6cbf
000000b0: a8e7 313f 881a afbe bc96 a1be ec62 9ebb
000000c0: bc6a af3e 0f18 503f dc7b d2bd b7a3 9abc
000000d0: 6b1d 91bf a077 18bf ab51 1cbe 1ab0 00bf
000000e0: 5495 36bf 9df3 2fbe a2ca 373f 15dd a4bf
000000f0: e907 04bf 4953 bfbd 97b1 96bf 90bb 0fbe
00000100: e359 043f 945b 68be 54ab 99bf 9b74 bc3d
00000110: 0f1f f5be 8ecf b7be 151e 8e3e 5d23 ce3e
00000120: 0b12 7abe e4c8 d03d 2905 593d a193 9c3e
00000130: 6b5f 8e3e aa9a c03e 2c5f a63e ecea 1fbf
00000140: 2f67 be3c 682e cfbb 2652 0abf 3ccb c1bc
00000150: 16f8 f13e ec38 51bd 9eff 89bc 170d 293e
00000160: ba71 c63f 3a62 dc3b 4df2 2d3f 5784 81be
00000170: c203 643e 37be b3be 3ac4 4bbe 3969 20be
00000180: 4d65 583f 05e4 ecbe e945 43be b72b 143f
00000190: 54fc 05bf bcea ab3f 36da a3bc 2eba a9be
000001a0: dd56 233f b111 8b3d 90e6 123f 4710 183f
000001b0: 6558 3f3f e12e b8bc 0d48 4c3f d00f 67be
000001c0: afcb 7c3e acf1 7ebe 314f 1cbf b712 183f
000001d0: 8e8e 04be 8a3f 9e3e e4db f4be 146b 07bf
000001e0: 9553 0d3f 2bb0 103f 8cb0 c9be bf86 5dbe
000001f0: dd41 61be 76c5 74bd 61e2 f7bf 6d6b fabf
00000200: a774 863e ce8b 72be 0c62 c23d 8bc6 48bf
00000210: 169b 383f 68c4 893f 439c a33e 29bb 1d3d
00000220: 4844 84be 06f9 8e3f 5730 a23d 9cf0 8bbf
00000230: 8695 79bf 0f9d babe 9a2c c7bd 0fe0 ad3f
00000240: cb4f 3ebe 4cbb a03e 35e7 6b3f 2cc3 d63e
00000250: 4279 cf3e adae 3b3f 4743 0c3f a164 d63e
00000260: 7f43 a1bf 711e 133f 7e0a 1dbe 8971 bf3e
00000270: e5ed 8abf bde2 9f3e 3b74 42be a25d 5d3e
00000280: da14 07bf 42ce d4be b691 bbbe 3155 eb3e
00000290: e729 2fbf dd9c 46bc 3158 6ebf 5412 edbe
000002a0: 1714 923c 8ac2 c63e 7ac1 5e3f f621 29be
000002b0: 0002 aebe ddcc 0e3f 3098 5c3f 4c7c 9a3e
000002c0: 83e4 813e 611e e0bf b011 68bd c967 1c3f
000002d0: 2d9d 913f 6eaf b63e 61f6 743e ad8d fe3d
000002e0: bb9e 3b3e 84c2 6dbf 1489 ed3e 6ab2 c23e
000002f0: dceb eebe 62dc 8a3f 8117 033e 544a 713f
00000300: e370 413f 0cfa af3f 1029 cc3e cb66 f2be
00000310: a131 27bf 3a47 213f e354 2dbe e0ff b33e
00000320: 1e0d 83be 606c 44bf f9ff 313d c01f 26bf
00000330: 4aee 543d c15d 88bf 5419 3e3f 6b46 a43f
00000340: ccd6 3abf 1214 a03f 5d39 83bd c114 3c3d
00000350: cf46 b5bf 6c22 c2bd 751b c83e a6c2 3b3f
00000360: 826b 3d3e 104b d33e d09f 78bf 8107 493f
00000370: efdf 02bf e9a7 453d ac27 c5bd 6363 f5bf
00000380: 07cb aabf 14f1 983f b94d 9fbf aee4 19bf
00000390: 60e2 3f3f 8866 37be bd25 a9be c70a 89be
000003a0: 5e93 5fbf 9142 a2be 8aff 11bd 5563 8e3f
000003b0: 77ff 153f 8fb6 c63e 43a0 c63e 1436 26bf
000003c0: 2ad8 f1be 1c1e 97ba 4267 933f 5b26 8dbd
000003d0: ddd8 42bf a71f d43c 4ac8 cabe d758 203f
000003e0: ce72 b13e b9c5 94be 75cc 443f 55a0 04bf
000003f0: 9d26 bfbe 2587 5dbe 863b e63e 3f39 2e3f

model.model.scalar_embed_mlp.mlp_module.mlp.4.weight f4 [64, 32]
-0.604035 -1.2688648 -0.5316142 0.26123098 -0.4214934 1.0056291 0.980371 1.0319499
0.07141997 0.962504 -0.052298732 0.91227657 -0.361373 -1.0998461 -0.85865605 0.2778583
-0.9251477 -0.11755867 0.30186406 -0.15569118 -2.1204526 0.10050149 0.8414459 -1.1019949
1.5758885 -0.1359858 0.62636065 -0.564476 -1.019306 2.3518474 -0.6549381 0.49121198
1.8389021 -0.4158892 -0.92624426 -0.8345927 1.5564032 -0.45580518 -0.37471274 1.0049605
-0.9020726 -0.09806927 0.0070440047 -0.12585701 0.30106813 0.9984556 2.8937442 -1.503364
0.12882498 0.1643642 0.40956473 -0.6338003 0.18888474 0.3993127 1.2153475 1.2939721
0.5261498 -0.17392534 1.506384 -0.50486386 0.07585692 -0.784101 -0.53761286 -2.0844712
1.619389 -0.7166504 0.62927157 -0.3179936 0.85385233 -2.3394306 -0.4458201 1.219498
-0.38191906 -0.63030845 -0.34963977 0.7550231 1.0073051 1.9070835 0.49441698 -0.10766172
-0.41111338 0.27300555 -0.9174401 -0.75608665 -0.38132042 1.6333339 1.1216214 0.033048503
-0.7917882 0.17939371 -0.21562557 -0.41295588 -0.24467559 -0.5595127 -1.8328373 -1.2952249
-0.6431238 0.18012488 1.1311007 2.697899 -1.8678584 2.0643792 0.3669672 0.61678207
1.9774983 0.67506695 -0.41374758 -1.5590982 1.3791203 0.3286818 1.223679 -0.6902307
0.03734272 -0.89766794 1.2669915 0.2347547 0.009088552 -0.73896354 0.555439 -0.85274976
-0.116249554 0.05008249 0.2870582 -0.50640684 0.6001462 -1.309387 1.5656327 -0.3059272
-0.6461108 2.3530228 -0.026503611 -0.14784987 2.7955747 -0.7981547 -0.8917947 -1.3778584
-0.47535235 -0.37556872 0.84634 -0.241685 -1.8498347 0.9960202 0.1290965 0.84059155
-0.5659149 0.5380756 -0.17114262 -0.009803504 -0.37136632 0.044761352 -0.36739728 0.46052742
-0.3909635 0.590236 0.019261103 -0.32294977 -0.4471423 1.5112596 0.7039856 0.6667273
-1.258595 0.55397654 1.5509733 -0.62236756 -0.48080137 -0.22531481 1.4405134 0.12028394
0.18338303 -1.1317254 0.730556 -0.3111049 1.6598438 -1.263191 -2.0439293 0.51885843
-1.0131304 1.4021522 -0.22997779 0.8162733 -1.1380805 0.79469824 0.40237427 -0.15746213
-2.4805877 -0.7553041 0.81870383 0.79020673 -1.6752994 1.2925662 -1.2453445 0.03345896
0.8344445 2.1594043 -0.236714 -1.2851772 1.2878584 -0.49783373 -0.5230133 -1.1849082
-0.76670825 0.55918247 0.40511274 -0.51985997 -0.52005374 -0.09108941 0.5141542 -1.0459328
0.17777677 0.42323518 -1.183727 2.0892212 1.5613768 0.07533957 0.46433225 0.66704684
0.48918167 -0.8396483 1.6203896 -0.035470255 0.69717413 0.16480403 0.72084534 0.008849255
0.64204794 0.5323183 -1.5514953 1.1150793 0.8316535 -1.2980663 0.10037007 1.0709188
-2.0073395 0.48310277 0.81753844 -0.449546 -0.91539407 0.3265846 -0.7002667 -0.74174726
-1.7727927 -0.6561702 -0.63661945 -0.40213948 -0.4878808 -0.8675608 0.55696243 -0.5322343
0.9973124 0.3693841 0.48903632 2.0457184 -0.48506242 -1.9418327 -1.3155506 -0.41959646
00000000: 0aa2 1abf 296a a2bf de17 08bf 11c0 853e
00000010: fccd d7be 74b8 803f 98f9 7a3f ef16 843f
00000020: a244 923d aa66 763f 3237 56bd f58a 693f
00000030: e205 b9be c2c7 8cbf e2d0 5bbf 7143 8e3e
00000040: 7bd6 6cbf 9ac2 f0bd ed8d 9a3e 826d 1fbe
00000050: 7fb5 07c0 bad3 cd3d 0069 573f 2b0e 8dbf
00000060: b7b6 c93f dd3f 0bbe 2c59 203f 8081 10bf
00000070: 9e78 82bf ab84 1640 06aa 27bf 2380 fb3e
00000080: 2561 eb3f 6eef d4be 581e 6dbf dea7 55bf
00000090: 3838 c73f 4c5f e9be 59da bfbe 8ca2 803f
000000a0: 3bee 66bf 8bd8 c8bd 65d1 e63b a9e0 00be
000000b0: 9a25 9a3e c99a 7f3f 1b33 3940 3b6e c0bf
000000c0: b2ea 033e 174f 283e 78b2 d13e bd40 22bf
000000d0: 006b 413e b772 cc3e 8290 9b3f e1a0 a53f
000000e0: c1b1 063f 7c19 32be 31d1 c03f c23e 01bf
000000f0: df5a 9b3d d8ba 48bf ffa0 09bf fa67 05c0
00000100: 2448 cf3f 6776 37bf f117 213f 0fd0 a2be
00000110: 1196 5a3f 3bb9 15c0 8842 e4be 8318 9c3f
00000120: e58a c3be e55b 21bf fc03 b3be 3249 413f
00000130: 60ef 803f 501b f43f 3924 fd3e bf7d dcbd
00000140: 747d d2be 62c7 8b3e 5bdd 6abf e58e 41bf
00000150: 6e3c c3be 1611 d13f 4a91 8f3f de5d 073d
00000160: a2b2 4abf fcb2 373e f3cc 5cbe f46e d3be
00000170: 3d8c 7abe 393c 0fbf 6a9a eabf eec9 a5bf
00000180: c3a3 24bf a872 383e e8c7 903f 61aa 2c40
00000190: fc15 efbf ca1e 0440 20e3 bb3e 6ee5 1d3f
000001a0: aa1e fd3f 30d1 2c3f b9d6 d3be 8890 c7bf
000001b0: 0487 b03f fb48 a83e 83a1 9c3f f6b2 30bf
000001c0: aef4 183d 91cd 65bf c72c a23f 8963 703e
000001d0: 26e8 143c b72c 3dbf 4031 0e3f cf4d 5abf
000001e0: 3f14 eebd 4c23 4d3d 4bf9 923e e1a3 01bf
000001f0: 2ea3 193f fe99 a7bf a766 c83f 7da2 9cbe
00000200: 8467 25bf ed97 1640 1a1e d9bc f565 17be
00000210: b2ea 3240 de53 4cbf a84c 64bf aa5d b0bf
00000220: 6261 f3be 8b4a c0be bda9 583f 467c 77be
00000230: 62c7 ecbf 2efb 7e3f df31 043e 0231 573f
00000240: cddf 10bf 53bf 093f 0340 2fbe e09e 20bc
00000250: ba23 bebe ae57 373d 7f1b bcbe 40ca eb3e
00000260: 5e2c c8be b519 173f 76c9 9d3c ac59 a5be
00000270: d6ef e4be f470 c13f 6638 343f a4ae 2a3f
00000280: a419 a1bf 68d1 0d3f 4b86 c63f 7b53 1fbf
00000290: 992b f6be edb8 66be be62 b83f 6d57 f63d
000002a0: c3c8 3b3e 61dc 90bf b805 3b3f 2449 9fbe
000002b0: c375 d43f 3eb0 a1bf bdcf 02c0 e8d3 043f
000002c0: 42ae 81bf b979 b33f 4c7f 6bbe 49f7 503f
000002d0: 9fac 91bf 5871 4b3f 0004 ce3e c13d 21be
000002e0: f3c1 1ec0 9c5b 41bf 9396 513f fd4a 4a3f
000002f0: 3670 d6bf cf72 a53f 7367 9fbf 430c 093d
00000300: 289e 553f ae33 0a40 2865 72be b080 a4bf
00000310: 8bd8 a43f 10e4 febe 33e4 05bf 12ab 97bf
00000320: fe46 44bf 9526 0f3f f06a cf3e 8b15 05bf
00000330: 3e22 05bf 168d babd 9c9f 033f 20e1 85bf
00000340: 1d0b 363e 48b2 d83e 5e84 97bf cdb5 0540
00000350: 32db c73f a24b 9a3d f5bc ed3e 95c3 2a3f
00000360: 0576 fa3e 31f3 56bf ed68 cf3f 4249 11bd
00000370: 017a 323f 63c2 283e 5289 383f 77fc 103c
00000380: 415d 243f 0346 083f 6697 c6bf ebba 8e3f
00000390: 3ee7 543f 0927 a6bf d38e cd3d de13 893f
000003a0: 4078 00c0 3f59 f73e 334a 513f e52a e6be
000003b0: 4457 6abf 1936 a73e ae44 33bf 26e3 3dbf
000003c0: dfea e2bf c5fa 27bf 7ef9 22bf 3ae5 cdbe
000003d0: 83cb f9be 7718 5ebf 1795 0e3f 8240 08bf
000003e0: de4f 7f3f ea1f bd3e f862 fa3e 0ded 0240
000003f0: 1a5a f8be f98d f8bf f663 a8bf 59d5 d6be

model.model.tensor_embed.env_embed_linear.mlp.0.weight f4 [32, 24]
0.07714258 0.34917974 0.26140025 -0.6454198 -0.010233533 -0.15707381 -0.17627038 0.70829916
-0.7579034 0.1562135 -0.6539076 -0.11569483 -0.20153315 0.28014407 0.45573652 0.4939561
0.20714544 -0.7413911 -0.5214748 0.3230032 0.43663242 0.14944461 0.6553514 -0.123428665
0.27053043 0.68699396 0.31620884 -0.7921478 0.34567508 -0.3723595 -0.0309724 0.66519225
-0.8562263 -1.0664632 -0.27439034 0.07057346 0.72996694 1.2614288 -0.8002821 -0.04305984
0.15354565 -0.15181541 0.5206127 -0.113341086 0.18362528 0.07112891 0.4203895 0.5621003
-0.07995851 -0.8530732 0.68611866 0.6549049 -1.2592539 -0.051547166 0.25255892 -0.7433718
1.835937 0.282288 -0.045773037 -0.057313047 -0.16279247 -0.97558975 0.3608395 0.31746587
-0.972111 -0.34092438 0.25366488 -0.3937153 -0.4454131 -0.82744527 0.009877018 -0.20751117
-0.13340521 -0.19925934 0.30428427 -0.13600367 0.5941593 0.65594107 -0.2054235 0.035760082
-1.1510531 -1.0297754 0.78011763 0.39083108 0.4773757 0.66012895 0.061330225 0.1634521
1.0139301 -0.25394174 0.19427395 -0.38147 0.36635214 0.6024715 -0.10244944 1.5936471
-0.096739694 0.07257368 -0.17978467 -0.14821818 0.010555186 -0.5886274 -1.088271 0.03349583
-0.23406282 -0.4105262 -0.24521956 0.14391948 0.3378394 0.10488877 -0.05621985 0.10868454
-0.39032358 0.2075509 0.6163015 0.35120463 0.67194325 0.7342771 0.53524154 -0.0742624
0.18814814 -0.5664962 -0.12039219 -0.86112887 0.8025368 0.69376916 0.10102643 -0.49214908
0.5040888 -0.7092983 0.2939284 -0.32711765 -0.13988756 0.16040294 -0.80569136 -0.6144799
-0.36836123 0.085197605 -0.44099316 0.8117844 -0.61016786 -0.16849543 -0.16562168 0.024634903
-0.023847112 -0.53758144 0.42579088 -0.23930159 0.65268767 -0.52574575 0.7477534 -0.39314938
-0.34594807 0.7633754 0.27398664 0.3072012 -0.47255933 -0.5784308 -0.035441972 0.071932375
0.32790408 -0.1718185 0.13398701 -0.2638477 0.10451798 -0.5396289 -0.529396 0.014779847
-0.6493507 -0.3443139 -0.75452393 0.0826344 0.33536544 -0.5671704 -0.6073933 -0.55523545
-0.32272017 0.0042707985 0.670893 0.8182441 -0.325447 -0.23622109 -0.25914547 0.46158364
-0.7261569 -0.7838085 0.10490313 0.09432711 -0.25080806 0.66141415 -0.7221676 -0.5564967
0.29710633 -1.0083982 0.9764941 -0.17648041 0.049867652 -0.73459953 0.18823992 -0.16800767
1.2243187 -0.048944283 -0.6318814 -0.03680222 -0.5491046 -1.2979895 -0.19830468 -0.022193803
-0.41019592 0.28898153 -0.21501794 0.67421585 0.75969297 -0.35723618 -0.019781442 -0.4927715
-0.097199164 0.17071885 -0.66685957 0.7427293 -0.057646107 0.1665651 -0.27793893 0.21026817
0.40559244 -0.022982111 0.695666 0.41700295 0.014292899 -0.00998539 0.27853468 0.26517814
-0.3090834 1.6433493 0.36263457 -0.18042591 -0.50120217 0.57084703 -0.14480601 -0.18184891
0.18006024 0.7756553 0.11975648 -0.27807927 -0.6862001 0.54201245 -0.018899528 -0.8425447
-0.27918592 -0.23325466 -0.8930271 -0.8507702 -0.46574533 0.5852605 0.3367037 -0.21689534
00000000: eefc 9d3d b0c7 b23e 41d6 853e 3b3a 25bf
00000010: 8caa 27bc f5d7 20be 3980 34be 1853 353f
00000020: f505 42bf 6ff6 1f3e 7d66 27bf 69f1 ecbd
00000030: b55e 4ebe 0b6f 8f3e 4c56 e93e d0e7 fc3e
00000040: ef1d 543e cfcb 3dbf 5f7f 05bf ad60 a53e
00000050: 498e df3e 0208 193e 1cc5 273f 2bc8 fcbd
00000060: f782 8a3e d6de 2f3f 20e6 a13e 33ca 4abf
00000070: 53fc b03e e8a5 bebe d5b9 fdbc 0a4a 2a3f
00000080: a631 5bbf de81 88bf e47c 8cbe d188 903d
00000090: 1ddf 3a3f 8076 a13f 4adf 4cbf 845f 30bd
000000a0: 123b 1d3e 8075 1bbe e046 053f 5f1f e8bd
000000b0: 4408 3c3e 09ac 913d 4b3d d73e cee5 0f3f
000000c0: 4ac1 a3bd 0163 5abf 79a5 2f3f d9a7 273f
000000d0: 3b2f a1bf 1f23 53bd 674f 813e 9d4d 3ebf
000000e0: fcff ea3f 0e88 903e 827c 3bbd 16c1 6abd
000000f0: 12b3 26be 40c0 79bf f4bf b83e e38a a23e
00000100: 44dc 78bf a48d aebe 5de0 813e 0d95 c9be
00000110: 300d e4be 74d3 53bf 37d3 213c cf7d 54be
00000120: 609b 08be a40a 4cbe 26cb 9b3e 8c44 0bbe
00000130: d31a 183f c1eb 273f 8a5a 52be 2a79 123d
00000140: b555 93bf aecf 83bf cab5 473f 031b c83e
00000150: 966a f43e 36fe 283f 6735 7b3d fd5f 273e
00000160: 76c8 813f a704 82be c0ef 463e 0950 c3be
00000170: 8292 bb3e 923b 1a3f 03d1 d1bd a1fc cb3f
00000180: 761f c6bd 82a1 943d 7919 38be 82c6 17be
00000190: a9ef 2c3c 49b0 16bf 774c 8bbf ec32 093d
000001a0: 2aae 6fbe 7d30 d2be d61a 7bbe a15f 133e
000001b0: 49f9 ac3e eccf d63d c946 66bd 0096 de3d
000001c0: 7ed8 c7be 3988 543e efc5 1d3f 18d1 b33e
000001d0: 7904 2c3f 96f9 3b3f 9705 093f e316 98bd
000001e0: e8a9 403e e505 11bf 2e90 f6bd f172 5cbf
000001f0: 0d73 4d3f db9a 313f f2e6 ce3d f7fa fbbe
00000200: f70b 013f 9394 35bf c97d 963e f77b a7be
00000210: af3e 0fbe ab40 243e ca41 4ebf 8e4e 1dbf
00000220: d899 bcbe 157c ae3d dbc9 e1be 1ad1 4f3f
00000230: f633 1cbf 118a 2cbe bb98 29be 23cf c93c
00000240: 055b c3bc f09e 09bf 4301 da3e 7a0b 75be
00000250: 8a16 273f 4697 06bf c46c 3f3f e04a c9be
00000260: 1b20 b1be 926c 433f fa47 8c3e 7a49 9d3e
00000270: 4cf3 f1be 0a14 14bf 9a2b 11bd 4851 933d
00000280: 0be3 a73e 30f1 2fbe e433 093e 0c17 87be
00000290: 860d d63d 1f25 0abf 7f86 07bf 2c27 723c
000002a0: d93b 26bf e949 b0be 7b28 41bf 393c a93d
000002b0: 05b5 ab3e 1432 11bf 217e 1bbf e923 0ebf
000002c0: 943b a5be 0ef2 8b3b a5bf 2b3f 7278 513f
000002d0: fda0 a6be f1e3 71be b7ae 84be b154 ec3e
000002e0: 6be5 39bf ada7 48bf 74d7 d63d 922e c13d
000002f0: ea69 80be 7052 293f fadf 38bf 9176 0ebf
00000300: 521e 983e 3113 81bf 84fb 793f 48b7 34be
00000310: 0642 4c3d b70e 3cbf f7c1 403e 340a 2cbe
00000320: 7ab6 9c3f cd79 48bd fbc2 21bf edbd 16bd
00000330: 1e92 0cbf 8524 a6bf 6210 4bbe c7cf b5bc
00000340: 3305 d2be 63f5 933e aa2d 5cbe 6999 2c3f
00000350: 3d7b 423f a9e7 b6be b10c a2bc 8c4c fcbe
00000360: 5b10 c7bd ecd0 2e3e 4fb7 2abf 8223 3e3f
00000370: 531e 6cbd 0b90 2a3e 034e 8ebe 8a50 573e
00000380: d0a9 cf3e fb44 bcbc 2b17 323f 6981 d53e
00000390: c32c 6a3c c399 23bc 199c 8e3e 6ec5 873e
000003a0: 2e40 9ebe 4559 d23f 3dab b93e 92c1 38be
000003b0: c94e 00bf 0823 123f 0748 14be 9a36 3abe
000003c0: b661 383e 5991 463f e342 f53d 6860 8ebe
000003d0: cfaa 2fbf 54c1 0a3f 2fd3 9abc 02b1 57bf
000003e0: 75f1 8ebe 4fda 6ebe 6d9d 64bf 13cc 59bf
000003f0: 2c76 eebe a2d3 153f 6d64 ac3e d019 5ebe
