tests/continuity/training_ckpts/allegro_train.ckpt (torch, 116216 bytes, 56 tensors)

model.model.edge_norm._rmax_recip f8 []
00000000: 9a99 9999 9999 a93f
0.05

model.model.radial_chemical_embed.bessel_encode.bessel_weights f8 [1, 8]
00000000: 0000 0000 0000 f03f 0000 0000 0000 0040
00000010: 0000 0000 0000 0840 0000 0000 0000 1040
00000020: 0000 0000 0000 1440 0000 0000 0000 1840
00000030: 0000 0000 0000 1c40 0000 0000 0000 2040
1.0 2.0 3.0 4.0 5.0 6.0 7.0 8.0

model.model.radial_chemical_embed.type_embed.center_embed.weight f4 [31, 4]
00000000: 812d 8a3f ee6f 783f 9e8a 95bd 43c9 9d3f
00000010: ac00 ef3b 2e7c 013f 9f77 eabe 9b1e 89be
00000020: 00ea c7bf 2e82 3ebf bd8c 9cbf a2e9 eabf
00000030: 28c6 0a3e 605a bebf 366e c83f 822a 76bf
00000040: 246f ebbd 95bf 9b3f 4569 92bf 0d87 e43f
00000050: 53b7 dd3e 6ad0 9bbf bb00 643e aa08 7b3f
00000060: d282 b93f f153 bfbd 2d90 8d3e 64ec 0240
00000070: 7a83 503d 6850 75bf 32c2 713e 73ee 09be
00000080: 96b1 4fbf fce6 55bf 03f5 873f 0a5b d93e
00000090: 3fde d9bd 7a5d b5bf 31b2 5540 8657 adbf
000000a0: a0e9 f7bf 6310 753f e50b b33f 679e 1440
000000b0: a02b c63d 4760 d1be 2c3c bbbc c6f1 513e
000000c0: 1044 83be dafb 82bf 08f2 5c3f d1cc d53c
000000d0: 7908 23bf c713 133f fbc1 ea3f ee67 a5be
000000e0: 125a 3dbe a08b 87bd 0843 523f a29e b7be
000000f0: 5967 863f 15fb 963f 2b91 843f 764f 85bb
00000100: 61ec 3a3f f2eb b5bf 2bf7 7fbf a3a4 1340
00000110: 2823 3c3f 90af 84bd 29c3 0cbf 3bcc f6bc
00000120: 1952 723f ea1b 883f c751 1bc0 d5e8 19c0
00000130: 74c1 64bf 7736 033f 9c6c f4bf 8705 833f
00000140: ab2e 893d e8ba fa3d bc7c 48be 9185 203e
00000150: d8c9 263f 78fb 0ebf bae3 dc3e 9fee e6bf
00000160: 7e2d 4c3e 565a 9a3f a1f2 61bf 2bba dc3f
00000170: 5ab0 89bf 7506 63bf be50 84be bcf0 88bf
00000180: 5b62 6abf f560 cebf 05e5 f1be 6279 c0bd
00000190: ef1a 19bf bdeb 30be 29a5 a93f ec84 863e
000001a0: fbb0 5c3e 757c 823f 2f49 d73f 4b36 adbf
000001b0: 6407 b6bf 5411 34bf f33e dc3e f945 0c3f
000001c0: 0f63 1bc0 7f5d 31bf 2974 553f f210 3840
000001d0: 3f73 75be 17ba 01bf 9343 dbbe 1365 183f
000001e0: f294 33bf 2b09 033f 2bb5 c0be c22a 55bf
1.0795137 0.9704579 -0.0730183 1.2327045 0.0072937813 0.5058011 -0.4579439 -0.26781163
-1.5618286 -0.7441739 -1.223045 -1.8352549 0.13552153 -1.487133 1.5658634 -0.9615861
-0.11495808 1.2167841 -1.1438376 1.7853714 0.43303928 -1.2172978 0.22265904 0.98060095
1.4493048 -0.093421824 0.2764906 2.0456781 0.050906636 -0.95825815 0.23609236 -0.13469867
-0.8113035 -0.8355558 1.0621647 0.4245227 -0.10638093 -1.4169152 3.339001 -1.3542335
-1.9368172 0.9572813 1.3988005 2.322168 0.096762896 -0.40893766 -0.02285584 0.20502385
-0.25637865 -1.0233109 0.8630681 0.02609864 -0.63684803 0.5745205 1.8340448 -0.32305855
-0.1849139 -0.06618428 0.8213353 -0.35863215 1.0500289 1.1795374 1.0356802 -0.0040683104
0.73016936 -1.421263 -0.99986523 2.3069236 0.73491144 -0.064787984 -0.5498529 -0.030126682
0.9465652 1.0633519 -2.4268663 -2.404836 -0.89357686 0.5125498 -1.9095645 1.0236062
0.06698354 0.12242681 -0.19578832 0.15675952 0.6515174 -0.5585246 0.43142492 -1.8041571
0.19939229 1.2058818 -0.8826085 1.7244314 -1.0756943 -0.8868173 -0.2584285 -1.0698466
-0.9155633 -1.6123339 -0.4724504 -0.09398152 -0.5980672 -0.17277427 1.3253528 0.26273286
0.21551888 1.0194231 1.6819209 -1.3532194 -1.4221005 -0.7033894 0.43016776 0.5479427
-2.427921 -0.6928329 0.8338037 2.8760343 -0.23969744 -0.50674576 -0.42824993 0.59529227
-0.7014915 0.51185864 -0.3763822 -0.8326837

model.model.radial_chemical_embed.type_embed.neighbor_embed.weight f4 [31, 4]
00000000: 0c4c c4bf 66dc 003f 0efd 5b3d f871 0bbe
00000010: cf53 e7bf 2358 16bf cbcf 17c0 213b 0240
00000020: 48b5 5a3e 6d6c bc3f 4f16 433f 1cd8 cd3e
00000030: 85d6 70bd 1ff6 0cc0 d91b 9b3e da68 973e
00000040: e307 223f 5ad4 06c0 0393 1ec0 2dcd b9bd
00000050: c5a2 2a3f f67e 05c0 a285 323d e18a b13f
00000060: 9650 7b3f 7ee6 09bf b4d2 08bf 41e5 a43e
00000070: f712 ddbe 1a4b b83f e88f a1bf 8303 82bf
00000080: cd6a e83f 5098 bf3e e5b1 0bbe 4362 4e3f
00000090: ba04 0ebf e38a dc3f a0fe 013f 37be 6abf
000000a0: 4c3b 8d3f 3893 5abf fc68 a53f f355 a2bf
000000b0: 9582 9f3e a3dd 583e c6ec 393f 5f04 a43f
000000c0: 2b4f 8a3f 94eb 9ebd 3eaf ddbf ba50 e7be
000000d0: 623f 97bf 6c34 2e40 01da cc3e b83a 52bf
000000e0: dae5 413f 1b21 2240 d302 883f 54d6 873e
000000f0: 6cc9 9dbe a342 13bf d4d5 d3be 3d23 abbf
00000100: 2734 de3d 6c32 233f 9401 e93d 67ea 91bd
00000110: f9e1 3dbf ff46 7abf ca45 acbd e347 03bf
00000120: 02be 453e 8aa8 74bf 6800 d1be b5b2 a7be
00000130: 23e8 19be cae6 fe3e 0ba4 c1bf 680b 6c3f
00000140: 11dd e7be 42ce ccbf e5a7 7fbf 458c f53f
00000150: 2c38 0fbe 79d2 2d3e a898 423d 0e3c d63f
00000160: 1a28 ae3f 3789 4abf 02f7 593d 1fad 7dbf
00000170: 9392 1fbd 397a 883e fbc8 513e 8a1b 68bf
00000180: 1955 d53e a12d 2cbf 96a0 8d3f 3074 873e
00000190: 8b45 8cbf 0dbe 82bf dd25 9fbf 1f5b c03f
000001a0: 8f63 45bd e67e 893f 5b3c df3f 7840 ea3e
000001b0: 4ce4 233e 3f60 edbe 00b9 fe3e 6205 9fbf
000001c0: 255f 8e3d 6648 b7bf 9ccc b1bf 05ca 023f
000001d0: 2135 1e3f 4cef 7bbf be2a bcbf 4222 dc3e
000001e0: 1b0d 93bd 8ac2 68bc 1888 39bf 240f 093f
-1.5335708 0.503363 0.05370813 -0.13617694 -1.8072451 -0.58728236 -2.3720577 2.034859
0.21358216 1.4720589 0.76205915 0.4020394 -0.05879833 -2.202522 0.30294684 0.29572183
0.63293284 -2.106711 -2.477723 -0.09072337 0.66654617 -2.085874 0.043584473 1.3870507
0.9816984 -0.5386733 -0.5344651 0.32206157 -0.43178532 1.4397919 -1.2622042 -1.0157322
1.8157593 0.37420893 -0.1364208 0.80618685 -0.5547596 1.7229885 0.5077915 -0.91696495
1.1033721 -0.8538089 1.2922664 -1.268248 0.31154314 0.21178298 0.7262691 1.2813834
1.080541 -0.07759777 -1.7319105 -0.45178777 -1.1816218 2.7219496 0.40010074 -0.8212085
0.7574135 2.5332706 1.0625862 0.26530707 -0.30817735 -0.57523555 -0.41374075 -1.3370129
0.10849791 0.6374881 0.11377254 -0.07124787 -0.7417293 -0.9776458 -0.08411749 -0.51281565
0.19310763 -0.9556967 -0.40820622 -0.3275353 -0.1502996 0.49785453 -1.5128187 0.92204905
-0.45285848 -1.6000445 -0.9986556 1.9183432 -0.13986272 0.1697482 0.047508866 1.6737077
1.3605988 -0.79115623 0.05321408 -0.99092287 -0.038958143 0.26655748 0.20486824 -0.9066702
0.41666487 -0.67257124 1.1064632 0.26455832 -1.0958723 -1.0214249 -1.243343 1.5027808
-0.04819065 1.0741851 1.7440294 0.4575231 0.16005057 -0.46362492 0.4975052 -1.2423518
0.06951741 -1.4318969 -1.3890567 0.5108951 0.6179982 -0.98412013 -1.4700544 0.42994887
-0.07180234 -0.014206538 -0.7247329 0.5353873

model.model.radial_chemical_embed.type_embed.basis_linear.mlp.0.weight f4 [8, 8]
00000000: 8d44 303e 0d54 c63f 02cc 85bf 44e4 b4bf
00000010: 6ab6 e63e 34d0 bd3f 08a0 933d 57d4 d13f
00000020: 9491 bf3f f436 90bf d5b1 aebf ccf2 ba3f
00000030: bff4 c63f 154e eb3e b425 85bf e029 2c3f
00000040: 4a29 223f 8658 8f3f 4c7e 353d 9867 f63c
00000050: 1e17 093f 230d ca3f 154b f43e 9a1b cdbf
00000060: 8844 bd3e 1ae5 5d3f cfec d73f 557a c73f
00000070: 8e63 f8be 963a 363e 5667 afbe 018f 3e3f
00000080: e957 ba3f 790e b43f fa30 a6bf bebc ccbf
00000090: a27e 99bf a605 d03c e89a 723f 4b5e 8fbf
000000a0: 1aa0 21be caa9 83be f33b 063d bf44 93bc
000000b0: 99eb 873f 29a9 82be 0d95 9b3d de52 073f
000000c0: 0348 8d3f 4f79 893e ea6d 8f3f 17e3 abbd
000000d0: f7be cc3f e794 b53e a626 45bf d848 fb3e
000000e0: 765c 283e 5daa d93d 684c 1b3e 9a9a 603f
000000f0: 02b5 9d3f c427 24bf d382 c93f c8be 7cbf
0.1721365 1.54944 -1.0452883 -1.4132161 0.45061046 1.4829164 0.07208258 1.6392926
1.4966302 -1.126677 -1.364802 1.4605346 1.554344 0.4595801 -1.0402131 0.67251396
0.6334425 1.119889 0.0443099 0.030078694 0.535509 1.5785259 0.47713533 -1.6024048
0.36966348 0.86677706 1.6869143 1.5584208 -0.48513454 0.17795786 -0.34258527 0.74436957
1.4558078 1.4066917 -1.2983696 -1.59951 -1.199177 0.025393318 0.9476762 -1.1200651
-0.1578373 -0.25715476 0.032772016 -0.017977117 1.0618774 -0.25519684 0.075967886 0.5286082
1.1037601 0.26850364 1.1205418 -0.08392923 1.5995778 0.35465166 -0.770121 0.49079013
0.16441521 0.10628197 0.15165865 0.87735903 1.2320864 -0.6412318 1.5743049 -0.9872861

model.model.scalar_embed_mlp.mlp_module.mlp.0.weight f4 [8, 32]
00000000: 0bb4 97bf 0900 d0bf f17e a5bf d2b4 d13f
00000010: e02b c7bf ea00 893e 8fab 3cbf 1195 653f
00000020: e47b c23e 4340 90bf 0684 8dbf 7ec9 7bbf
00000030: 8775 b7bf f49a 8abf aebb dfbe c3a2 a0bf
00000040: ef66 75bf 3d7f 3bbf 7a7f 983f b4d9 6abf
00000050: 1748 ef3e 19fa 3a3f ec2b 6f3f f198 c83e
00000060: 63b5 eabe ff6f 5fbe 2047 7b3f 315e a0bf
00000070: 4078 293e 5e90 863e 152a a03f 5c99 9dbf
00000080: ed7d ccbf c681 75bf c8c9 0f3e bd4c c8bf
00000090: 5578 1d3b 322c 80bf 0683 4abf 727c ef3c
000000a0: 6c72 9abf a1ef c4bf e070 5abf 9369 fdbe
000000b0: b446 dcbe 803e 213f 6b76 7bbe 4541 90be
000000c0: e3f1 8c3e fd80 88bf 7e29 8abf 3a7e ca3f
000000d0: 5590 653f 8fd5 3abf 642c c7bf e16e 10be
000000e0: 2035 1f3f 4b35 6b3e 73a6 9dbf b9e6 4b3f
000000f0: 51cc 97bf ec0b e7be dfa3 a83f c573 623f
00000100: 93bf ae3d 68af a6bf adde efbe a2ad 3bbf
00000110: 424b bebf 842c 9dbf 300a 2b3f e72c 7cbf
00000120: 50c9 84bf ccaf 0fbd 0e69 033e 7a55 c03f
00000130: 36f4 6c3f 3a08 c3bf 5834 423f b0b9 9cbf
00000140: d77b 8f3f 307a ad3f c79c c33e 77d0 8d3e
00000150: abdc 07bf a426 96bf c48c c9bf e264 acbf
00000160: b1f6 ca3f 3260 21be 653b a43f 879f e03c
00000170: 05ce a23d 810b bdbe 4628 9ebd 944d b8bf
00000180: de5d b8bf 79ee 453f ac84 e63d d29a 9a3f
00000190: 8290 d3bf 22f1 d93f 559c 8e3e de6d ce3e
000001a0: e18a ae3f fc95 b03f d128 78bf 2773 8bbf
000001b0: 6db8 663f 90d2 37bf ded6 05bf 06bc d6bf
000001c0: 0f2b 1b3f 6b67 28bf eb91 afbf ff83 87bf
000001d0: d520 843f 11f6 05bf 170c acbe 0253 24bf
000001e0: c993 0d3f 6b46 30bf c230 f43e bae5 2abf
000001f0: d771 903e 1710 c0bf 48b9 2ebf 19be 843f
00000200: a722 f2be 0830 14bf 0a68 c23e e787 89bf
00000210: 5586 d6bf 80bc e4be bb26 d4bf 19e0 a73e
00000220: b0ec 9f3f 9e23 d43e d88d 363f 93a3 59bf
00000230: 8933 493f 04ee 503f 05c6 d2bf f02d 853f
00000240: 69bb 2dbf 42e8 32bf 7998 0abf 4732 dcbf
00000250: cfa1 b33e d497 833f 6b55 8abf 66b0 5fbf
00000260: 5352 603f 44f0 bf3f 0d0e 38be 5737 0b3f
00000270: 4542 12bf eaff b8bf ca25 76bf f8e0 243d
00000280: 0f7b a0bf 7fc2 093f 1475 cbbe a38d 50bc
00000290: 09cb 87bf 048f c13e b446 de3f b3d6 58be
000002a0: c638 98be a2e1 fdbe a361 a63f f66b 44bf
000002b0: b271 9ebf 3f6e b5bf 6d96 d8bf 63d9 d4bf
000002c0: f77a 88bf ba2a 6c3f 1cd1 a03f e870 2a3f
000002d0: b957 8abf 78d7 c6be 3966 babf 5d8c 17bf
000002e0: 55b1 bfba 2049 bfbf 6d1a 313f 38d2 d3bf
000002f0: 98c8 bf3f 0a5c 903f 224c 933f c187 883f
00000300: 0211 6dbe 8a4f af3f 7874 95bf 4599 dabf
00000310: 2152 d5bf c870 c03f 01a9 a43f 3a68 733f
00000320: cec1 9dbf 438c b23f dff0 0b3e 4725 c8bf
00000330: 9c83 233e 695e d03f d502 b93f 56b8 b33f
00000340: eecc 08bd 45a9 5dbf 9f41 413f 53c9 85bf
00000350: d95f 9fbf b59b 21bf 393a d43f d13a 95bf
00000360: 06d5 8cbf 20cd 3e3e 6f46 9a3f c1d1 073f
00000370: f54c 96bf 176c acbf 0e5d a33f b0a9 8abf
00000380: 002e 413f 45c3 d03e 772a 9e3f 8f57 6c3f
00000390: 906c eabe 3ebc 403f 2e17 823f aeb2 16bf
000003a0: 3356 833e de30 f3bd e946 d2bf dd16 7bbc
000003b0: d86a 883f 2a79 83bf c851 1dbf 059d 62bf
000003c0: fe90 d5be bc4a b53f 194e 8ebf 63f2 993e
000003d0: 1239 bdbe c3d5 acbf 54e5 4d3f 44b4 d73f
000003e0: fc6b 9c3f f22e a33f 04a8 83be 47ea 4e3f
000003f0: 796d 6cbf 1c9f a0bf 5cbb d3be 2efa aebf
-1.185182 -1.6250011 -1.2929364 1.6383307 -1.5560265 0.2675851 -0.7369928 0.8968058
0.37985146 -1.1269611 -1.1055915 -0.9835433 -1.4332741 -1.0828538 -0.43697876 -1.2549671
-0.9586019 -0.73241025 1.1913903 -0.9173844 0.46734688 0.7303787 0.93426394 0.39179185
-0.45841512 -0.21820067 0.98155403 -1.2528745 0.16549778 0.26282018 1.2512842 -1.2312427
-1.597593 -0.95901144 0.14041817 -1.5648419 0.0024028022 -1.0013487 -0.79106176 0.029234145
-1.2066169 -1.5385629 -0.85328484 -0.4949461 -0.43022692 0.6298599 -0.24556892 -0.28174797
0.27528295 -1.0664364 -1.0793912 1.5819771 0.8967336 -0.72982115 -1.5560422 -0.14104797
0.6219044 0.22969548 -1.2316421 0.7964893 -1.1859227 -0.45126283 1.317501 0.884579
0.08532634 -1.302228 -0.46849576 -0.7331182 -1.4866717 -1.227921 0.6681242 -0.98506016
-1.0373936 -0.035079762 0.12833044 1.5026085 0.92560136 -1.5236886 0.7586112 -1.2244167
1.1209668 1.3552914 0.3820555 0.2769811 -0.5307109 -1.1730542 -1.5746083 -1.3468287
1.5856534 -0.15759352 1.2830626 0.027419819 0.07949451 -0.3692284 -0.07722525 -1.4398675
-1.4403646 0.77317005 0.11255774 1.2078497 -1.6528475 1.7026713 0.27853647 0.40318197
1.3636132 1.3795772 -0.9693728 -1.0894517 0.9012516 -0.7180567 -0.52280986 -1.677613
0.6061258 -0.65782803 -1.3716406 -1.0587157 1.032252 -0.5232859 -0.33602974 -0.6418916
0.5530363 -0.6885745 0.4769345 -0.66756785 0.28211853 -1.500491 -0.68251467 1.0370513
-0.47292063 -0.5788579 0.3797 -1.0744599 -1.6759745 -0.44675064 -1.657432 0.3278816
1.2494106 0.41433424 0.71310186 -0.8501522 0.7859426 0.81613183 -1.6466681 1.0404644
-0.6786409 -0.6988565 -0.54138905 -1.7202843 0.35084388 1.0280709 -1.0807317 -0.8737854
0.87625617 1.4995198 -0.1797411 0.54381317 -0.5713237 -1.4453099 -0.9615141 0.04025361
-1.2537555 0.538124 -0.3973776 -0.012729081 -1.0608836 0.37804425 1.7365327 -0.21175651
-0.29730815 -0.49586207 1.2998546 -0.76727235 -1.2378447 -1.417427 -1.6920906 -1.6628841
-1.0662526 0.92252696 1.2563815 0.6657853 -1.0808021 -0.38836265 -1.4562446 -0.5919855
-0.0014624993 -1.4944191 0.6918095 -1.6548529 1.4983091 1.1278088 1.1507609 1.0666429
-0.23151019 1.3696148 -1.1676168 -1.7078024 -1.6665689 1.5034418 1.2864076 0.9508091
-1.232477 1.3949054 0.13666104 -1.5636376 0.15968174 1.6278812 1.4453989 1.404063
-0.03339856 -0.8658641 0.75490755 -1.0452064 -1.2451125 -0.63128215 1.6580268 -1.1658574
-1.100251 0.18632936 1.2052745 0.53054434 -1.1742235 -1.3470486 1.2762773 -1.0833035
0.75460815 0.4077398 1.2356709 0.92321104 -0.45785952 0.75287235 1.0163324 -0.58866394
0.25651702 -0.11874555 -1.642789 -0.015325275 1.0657606 -1.0271351 -0.61452913 -0.8852084
-0.41712183 1.4163432 -1.1117584 0.3006774 -0.36957604 -1.3502735 0.8042805 1.6851888
1.2220454 1.2748702 -0.25714123 0.8082623 -0.9235454 -1.2548556 -0.4135388 -1.3670099

model.model.scalar_embed_mlp.mlp_module.mlp.2.weight f4 [32, 32]
00000000: c28b 9dbf e689 c03f 3011 fd3e ff30 adbe
00000010: 0ca1 91bf eabe 06bf e821 3abc 896f 653f
00000020: 2610 81bc b898 b6bf 3171 cb3f ead6 d7bf
00000030: bce2 833f 6b59 953f c3fa b73f 5e8a 97bf
00000040: cf2c 91bf da47 77bf 0188 75bd cbc1 ddbf
00000050: 7f04 243f a80e b8bf f449 d5bf 591f ed3d
00000060: 52f2 b23f 4d83 a13e b1fe b83f 4081 a4bf
00000070: bd2d cb3f ecce 313e c259 12bf 59fc 99bf
00000080: 40ef 0fbe 5a08 b8bf bc70 f33c 10ff 083f
00000090: 134c 74be b630 a9be 7ba8 bf3e a3ba 763f
000000a0: 590a d53f 3a2b 08be abb8 5ebf 5e9b a9bf
000000b0: bad1 a8bf 43fc 173f 2f40 c3bf 3292 bfbf
000000c0: 5a13 97bf c2ec 93bf 6a68 15be c03f ca3e
000000d0: b207 b53f 5513 533e 06ca c1bf 10ea 86be
000000e0: 8510 23be 0fd1 b83f 85d6 223f b638 c6bf
000000f0: d74a 773f 29e4 94bf 19b6 5a3f b2b0 793f
00000100: ba07 903f b6b6 3e3f d524 7f3f dd88 2ebf
00000110: 5486 b8bf f787 c3bf 5497 913f b801 68bf
00000120: 1208 49bf 3dd3 873f 44b0 ccbe 955e ad3f
00000130: d622 c2bf 84d2 473f b24e cf3f cdd4 933e
00000140: 5b05 c73f 9269 4cbe c132 cfbf c249 d5bf
00000150: c32a 7f3f 52e5 8c3d 4d88 b3bf 6102 5dbf
00000160: 1e8f 203f 1ad1 f1be 5c4b 2abf ff5e 6ebe
00000170: ee84 a2bf c1e9 17bf 0d91 493f c764 293e
00000180: 2576 8a3f 4a10 a3be c289 643f 5683 623f
00000190: a8df d1bf 4958 d1bf f38a a03f bb0b 8abe
000001a0: 3d37 85bf dc15 4c3f fe53 363f bd31 a03d
000001b0: 524f a9bf f023 5f3f 223c 8d3f ef3a b13f
000001c0: ad44 643f 4aba a03f 0675 753f d786 c93f
000001d0: f7d4 86bf 2cee 073f 684d 0b3e b599 91bf
000001e0: 0525 c7bf 1981 e23d afbd c33f e815 75bf
000001f0: 8021 6cbf 016f dbbf 83fc b73d 4502 523f
00000200: d17e a73f 626f 3ebf e0c4 9fbf c8ab ad3f
00000210: 9dcc cabf 82be 8abf 2c58 cf3f aa55 983f
00000220: 4800 463f a27d 86bf a9d2 953f f1ba d3bf
00000230: bf73 2cbe 20d5 923f c2cb bc3f 0ac7 64be
00000240: 58b9 5b3e b2c9 23bf 9fe6 293f 48fe a9bf
00000250: b80e 46be e126 963f 6ff5 53bd 25f8 7a3e
00000260: 58f4 b53f ee48 b13f 712d dd3f 42d5 ce3f
00000270: 5ad0 e1be c818 fd3c e360 5a3d 70a0 bb3f
00000280: 6a9b 763f cc34 bdbe 5652 c0bf 4f3f 403f
00000290: c159 92bf c138 40bf 422e d53f a926 c1bf
000002a0: 53bb 90bf 39f8 673f 06c7 20bf a784 2d3d
000002b0: f1d1 ca3f c1af 623f 9f4e a0bf 4132 c63f
000002c0: 05e6 9f3f 2850 c0be 06ab 053f 49e2 a4bf
000002d0: 87c3 773f 2a34 d93f a519 213f e393 12be
000002e0: d1a6 3abe 5869 003f e3aa e13e 24cf 153f
000002f0: f5de d5bf 6c7d b2be 792f 5abf 2193 6bbf
00000300: 1365 dabf 5789 693d 25e2 aabf c9d5 773f
00000310: 21a2 a4ba 8a1a ad3e 4760 afbf 0fd3 a5bf
00000320: 7bcb 74bf 3849 983f 742e afbf 7ba1 26bf
00000330: 7af6 8fbe 6130 5c3f 87f3 9cbf 7d93 de3f
00000340: f3b0 5d3f 9f93 fcbe 3b29 4d3e 059e d63f
00000350: 251e d03e 39e0 c8bf 9753 cdbe b857 d7bf
00000360: 8f0c 6d3f b51a c23f f41f ab3f 9c71 b9bf
00000370: 913e 403f 29f0 0cbf ce20 afbf 697e c93e
00000380: 2a8d 2e3f 310f 98bf 4220 5bbf 434f 0cbf
00000390: ccbf 42bf cc3b 9a3f 4421 65bf b607 6fbf
000003a0: 163a ab3f 1784 153f 7179 b3bf 5870 ff3c
000003b0: 9129 a23f 6469 d33e 147e a5bf f4dc b5bf
000003c0: a286 343f 0f4a fa3e 9d66 bf3f 6b3b 15bf
000003d0: 64b2 55bf c469 d5be 4295 b53f fb24 5dbf
000003e0: c7f1 5f3f e969 b03e b1c0 803f 9d7d 9fbf
000003f0: b4e1 4c3f 580f 4b3e 2d28 2cbf da69 2dbf
-1.2308276 1.5042083 0.49427176 -0.33826444 -1.1377273 -0.5263506 -0.011360623 0.89623314
-0.01575477 -1.4265356 1.5893918 -1.6862462 1.0303569 1.1667913 1.4373401 -1.1839101
-1.13418 -0.9659401 -0.059944157 -1.7324766 0.6406936 -1.4379473 -1.6663194 0.11578245
1.39802 0.31545487 1.4452726 -1.2851944 1.5873333 0.1736409 -0.5716821 -1.2030135
-0.1405611 -1.4377549 0.029716842 0.53514194 -0.23857145 -0.33044976 0.37433228 0.96378535
1.6643783 -0.1329774 -0.8700053 -1.3250539 -1.3189003 0.59369296 -1.5253962 -1.496649
-1.1802781 -1.1556628 -0.14590612 0.39501762 1.4142973 0.20612843 -1.5139778 -0.2635045
-0.1592427 1.44388 0.6360858 -1.5486057 0.9659857 -1.1632129 0.8543411 0.9753524
1.1252358 0.74497545 0.99665576 -0.68177587 -1.4415994 -1.5275868 1.1374307 -0.9062762
-0.7852794 1.061134 -0.3997823 1.3544489 -1.5166881 0.78055596 1.6195891 0.28873292
1.5548509 -0.19962147 -1.6187364 -1.6663134 0.99674624 0.06879677 -1.4025971 -0.86331755
0.6271838 -0.47229844 -0.6652124 -0.23278426 -1.2696817 -0.59341055 0.78736955 0.1654235
1.0817305 -0.31848365 0.892727 0.8848165 -1.639638 -1.6355067 1.2542404 -0.26962075
-1.0407482 0.79720855 0.7122191 0.07821987 -1.3227332 0.8716421 1.1033976 1.384611
0.8916729 1.2556851 0.9588169 1.5744275 -1.0533742 0.53097796 0.13603747 -1.1375033
-1.5558172 0.1105978 1.5292262 -0.9573655 -0.92238617 -1.7143251 0.0898371 0.82034713
1.3085576 -0.74388707 -1.2481956 1.3568048 -1.5843693 -1.0839388 1.6198783 1.1901143
0.7734418 -1.050709 1.1704913 -1.6541425 -0.16841029 1.147129 1.4749682 -0.22341552
0.21457422 -0.6397964 0.66367525 -1.3280725 -0.19341552 1.1730615 -0.051747736 0.24508722
1.4215193 1.3850381 1.7279493 1.6158831 -0.44104272 0.030895606 0.053315055 1.4658337
0.96330893 -0.36954343 -1.5025127 0.750966 -1.1433641 -0.750866 1.6654742 -1.5089923
-1.1307167 0.9061313 -0.62803686 0.042362835 1.5845319 0.8854943 -1.2523993 1.5484086
1.2492071 -0.37561154 0.52214086 -1.2881557 0.96782726 1.6969044 0.62929755 -0.14314227
-0.18227698 0.5016074 0.4407569 0.58519197 -1.6708666 -0.34861314 -0.8522869 -0.92021376
-1.7062095 0.057015743 -1.3350264 0.96810585 -0.0012560525 0.3380931 -1.3701257 -1.2955035
-0.95622987 1.1897345 -1.3686051 -0.6509015 -0.28117734 0.8601132 -1.2261819 1.738876
0.8659813 -0.49331376 0.2003526 1.6766974 0.40647998 -1.5693427 -0.40102836 -1.6823645
0.9259729 1.51644 1.3369126 -1.4487796 0.7509547 -0.55053955 -1.3681886 0.39354256
0.6818415 -1.1879636 -0.85596097 -0.54808444 -0.7607391 1.2049499 -0.89503884 -0.9337114
1.3377101 0.5840468 -1.4021436 0.0311815 1.2668935 0.41291344 -1.2929101 -1.4208055
0.70517933 0.48884627 1.495319 -0.5829379 -0.8347533 -0.41682255 1.4186175 -0.8638455
0.874783 0.34455803 1.0058805 -1.2460209 0.80031896 0.19830072 -0.67248803 -0.6773964

model.model.tensor_embed.env_embed_linear.mlp.0.weight f4 [32, 16]
00000000: 7101 c93e 88e0 bb3f 9fc5 503d e730 9b3f
00000010: a1a9 82be 5041 cf3f 2909 c43f 8013 32be
00000020: e6e2 9e3f 6f4e b1bf 4c5a 7dbf dd1a 3b3f
00000030: 3555 9fbf c705 c8bf 9241 efbe 3861 82bf
00000040: 187b b53f 2ae4 d83f f41b e23e 27ed 843f
00000050: 5663 b8bc d1ae 9bbf 266a 13be c355 bd3f
00000060: 0cc8 92be 35cd b6bf 18f2 953f 2495 0bbf
00000070: 2fa0 b83f 7f06 1dbf 0639 c93e 8c97 dc3f
00000080: 11dd 773e 2366 963f 4220 8b3f f021 8bbf
00000090: 8204 2f3e cfd9 c3bf 2250 3d3f 31db c43f
000000a0: e0da 3fbf b5b7 80be f673 c4bf 5f10 b4bf
000000b0: f8c3 8d3f 960b 853f 5ccd d1be 9b9f 8a3f
000000c0: b908 c4bb 9009 94bf f4ad 023f 8125 20bf
000000d0: 3a6b 5bbf a91f 30bf 31d4 b83f 3428 89be
000000e0: 910f d7bf 3ab2 b1be 0503 7e3f 3784 c8bf
000000f0: 980f 5fb9 ef89 22bf 8355 95bf 60b6 98bf
00000100: 0aea d2bf 5dc7 a8bf ec44 d43f 6e4f 2e3f
00000110: 07c0 a1be 9daa 8f3f 49dc 9d3f b937 bebf
00000120: 8534 5e3f 4efa 8ebe cf69 873f 0e29 d13f
00000130: 3cd0 d6bf 4434 cd3f a026 873f 52be 473d
00000140: 2679 57bf c0eb b93f be81 333c 29f0 c03f
00000150: 6382 4dbf 029b 7c3e c1c6 c4bf b9a7 adbd
00000160: cfae 783f 473f a93e a24e c53f 06c0 77be
00000170: bf13 a4bf 8682 fe3e 4102 d4bf 1386 08bf
00000180: da72 0cbb 43f0 31bf cd07 93bf 741e bebd
00000190: a580 333f d0ce 56bf fb39 9a3e ee3e 5d3f
000001a0: bbb0 3b3e a090 9f3f 08d3 1abf 4c04 cbbe
000001b0: 4006 aa3e 9c6a 05be 1682 803d 9f46 a93c
000001c0: d352 82bf cd22 4ebf 4d39 0fbf 00cd 47bf
000001d0: 98bb 613f d84f d8bf b6a9 bd3e b166 853f
000001e0: 6dbb bfbf 6f6e 44be cc36 553f b22d 63bf
000001f0: 336b cd3e ac44 cc3f 1453 903e 2c67 853e
00000200: 07b6 d93f 2e6c 3d3e e2e4 bf3f 71de 613c
00000210: b81a 9cbd a111 b03f c1bb 8d3e fb5d b63f
00000220: 4732 9e3f 821d 393c c2e1 22bf 1a66 bdbf
00000230: 2dde 7ebf 3c04 563e 0591 b73f affb dc3f
00000240: 0c04 993f d432 a33e 681d 9dbf 079e 813e
00000250: cc27 b93f dab1 503f 7ead b7bf 5b8c b73e
00000260: 38b1 db3f 285c 94bf 3144 83bf fafb a3bf
00000270: 445a 153f 0a93 cd3f 1674 d1bf 279e 883f
00000280: d2a5 78bf a3d7 b3bf 19d2 16bf 2afe ca3e
00000290: 1db1 173f 39f0 5dbf 2037 d0bf f409 903f
000002a0: c01d 5dbf a749 0e3f 02bd ffbe 26a0 80bf
000002b0: 7d8a b93f 15c8 163f 471c 1a3f ade0 cdbf
000002c0: 31d5 923f 20a3 233f f896 b9bf 3806 b8bf
000002d0: 8a69 a7bf 5292 ad3f f196 a1bf f304 47bf
000002e0: 7e53 483d fa19 aabf 193e 743f 880e a53d
000002f0: 9dc9 343e 3170 b43f f8da cabf 2704 b0bf
00000300: 0a4d 9d3f 8c5c abbf cee7 58bc 597f 1abf
00000310: 50e0 93be a30b bbbf 413f 083f d51b 23bf
00000320: 1d05 c53f 7475 9ebf 154c 2bbf 2ffe cdbf
00000330: 985e 00bf 295b 3ebf 76d6 363f b453 133f
00000340: 14a8 45bd 022d 9fbf b351 9cbe b546 563f
00000350: 3e40 863f e44c 023f 6361 d23f 5ae2 a2bf
00000360: 046c 313c f7b5 9fbf 0288 98be 55e2 7cbf
00000370: 018b c63f 673a 1e3f 7d0a 69bf 7103 3bbf
00000380: 0b17 833f e333 40bf 06da 35bf 9121 6dbf
00000390: 55c3 ac3f ad9f 7dbe 09e7 99bf b124 6abf
000003a0: 1440 d63e 358f b0bf 02c5 d03f 7635 dabf
000003b0: 9410 803f 2884 883e f6d6 cbbf 31e9 ccbf
000003c0: 3a0a d2bf 58c9 923d 5c1c 4b3f 629f 16bf
000003d0: 50c0 c9bd 02c6 c13f fcbb 9fbf 61e8 a83f
000003e0: de09 973e ccd4 8e3e 33e7 b1bf fa99 0fbf
000003f0: ddc3 bfbf f535 b33e 6bc4 cc3f ee82 8a3f
0.39258912 1.4677896 0.050969716 1.2124299 -0.25520042 1.6191807 1.5315295 -0.17390251
1.2412994 -1.3852061 -0.9896591 0.73087865 -1.2447878 -1.5626763 -0.46729714 -1.0185919
1.417819 1.694463 0.44161952 1.0384873 -0.022508305 -1.2162725 -0.14395961 1.4791797
-0.2866825 -1.4281374 1.1714506 -0.54524446 1.4423884 -0.6133804 0.39301318 1.7233748
0.24205424 1.174992 1.0869219 -1.0869732 0.17091563 -1.5300845 0.739504 1.5379392
-0.7494335 -0.25140157 -1.5347888 -1.4067496 1.107543 1.0394161 -0.4097699 1.0829958
-0.005982485 -1.1565418 0.5104668 -0.62557226 -0.8571049 -0.6879831 1.4439756 -0.26788485
-1.6801625 -0.3470629 0.9922336 -1.5665349 -0.00021272746 -0.6349172 -1.1666721 -1.1930656
-1.6477673 -1.3185841 1.6583533 0.6808995 -0.31591818 1.1223942 1.2332851 -1.4860755
0.8679889 -0.27925342 1.0579165 1.6340654 -1.6782298 1.6031575 1.0558662 0.048765488
-0.8416923 1.452507 0.010956226 1.5073291 -0.8027708 0.24668506 -1.5373155 -0.08479256
0.97141737 0.3305609 1.5414622 -0.24194345 -1.2818526 0.49708956 -1.6563188 -0.5332958
-0.0021430762 -0.69507235 -1.1486756 -0.09283152 0.7011817 -0.8390932 0.3012236 0.8642415
0.18329136 1.2466011 -0.6047826 -0.39651716 0.33207893 -0.1302895 0.06274812 0.020663558
-1.0181526 -0.8052185 -0.5594681 -0.7804718 0.8817687 -1.6899366 0.37043542 1.0421964
-1.4979073 -0.19182752 0.8328674 -0.887416 0.4012085 1.5958457 0.28188384 0.26055276
1.7008675 0.18498299 1.4991724 0.013785944 -0.07622284 1.375538 0.27682307 1.424743
1.2359093 0.011298539 -0.6362573 -1.4796784 -0.99557763 0.20900053 1.4341131 1.7264308
1.195436 0.31874716 -1.2274599 0.25315878 1.446527 0.8152138 -1.4349821 0.3584927
1.7163458 -1.1590624 -1.0255185 -1.2811272 0.5834086 1.6060498 -1.6363552 1.0673264
-0.9712802 -1.4050182 -0.58914334 0.39647037 0.5925463 -0.86694676 -1.6266823 1.1253037
-0.8637352 0.55581135 -0.4994889 -1.0048873 1.4495388 0.5889905 0.601994 -1.6084191
1.1471311 0.63920784 -1.4499197 -1.4376898 -1.3079083 1.3560278 -1.2624189 -0.77741927
0.04890775 -1.3289177 0.95407254 0.08059412 0.17655034 1.4096738 -1.5848074 -1.3751267
1.2289135 -1.3387618 -0.01323886 -0.6035057 -0.28882074 -1.4612926 0.5322152 -0.63714343
1.5392185 -1.2379594 -0.66912967 -1.6093196 -0.5014434 -0.7435785 0.7142099 0.57549596
-0.048255995 -1.243561 -0.30531082 0.8370164 1.0488355 0.50898576 1.643597 -1.2725327
0.010828976 -1.2477406 -0.29791266 -0.98782855 1.5511171 0.61807865 -0.9103163 -0.73052126
1.0241407 -0.7507917 -0.710358 -0.92629343 1.3497111 -0.24767943 -1.2023631 -0.91462237
0.41845763 -1.3793703 1.6310122 -1.7047565 1.0005059 0.26663327 -1.5924976 -1.6008664
-1.6409371 0.071673095 0.7934015 -0.5883695 -0.09851134 1.5138552 -1.2479243 1.3195916
0.29499716 0.27896726 -1.3898681 -0.56094325 -1.4981648 0.35002103 1.5997442 1.0821207

model.model.allegro.first_layer_env_embed_projection.mlp.0.weight f4 [32, 48]
00000000: 6f5e b7be 76e2 84be 16c5 c7bf e417 663f
00000010: ec67 a2bf 1e0e 9b3f e5f2 5fbf 21f4 503f
00000020: 62d6 44bf 2eef 19bf c28c 893f 4180 be3f
00000030: 5689 cebf d565 c53f 7c1d 5d3f ab73 193f
00000040: f7fd c0bf 3e70 8e3f 97e4 733f adc4 843f
00000050: 62a6 a53f db2d 64be 86ab db3b 253d 93bf
00000060: f5ba b23e 20c0 943e 4f2f 5b3f b300 5f3e
00000070: 7e18 af3d 4c99 62bf 0448 433f ac2e ce3e
00000080: ee01 673f 0b84 9abf 1145 a6bf 3687 e63e
00000090: 9998 943e 3b0e a9bf 1431 f63e 116a d2be
000000a0: e263 843e 2b17 ba3e d9ab c23f 2b7c 823f
000000b0: bbc3 823f c4f8 8f3f f947 d6bf 35b6 c4bd
000000c0: 31f2 bdbf 6d48 b6bf 1bce cd3f 82ae b7bf
000000d0: 9039 813e 57c3 253f 73b7 5c3f d1a9 babf
000000e0: f442 fdbd 5465 d83f e7df 35be a4e6 023e
000000f0: 8041 c03f 0cef 583f f8b7 903f c2ae a43e
00000100: f295 813e c38e 07bf 8981 a43f 7196 59bf
00000110: b9b8 093f 8922 5f3f 8ca1 873f 04ce bdbf
00000120: fea6 b33f 2bb0 1c3f 8752 07bf c341 9e3f
00000130: 6319 5abf 07cc 273f 0df6 ba3f 2ee0 bd3f
00000140: 45de 863e aec5 a4bf 695c ecbd 5853 ccbf
00000150: 835a 773f cdf3 3a3e 17a7 67bf 59c1 adbf
00000160: c268 ad3f e440 943e 4690 95bf 23f3 14bf
00000170: 3aa5 d6bf 9455 b93f c301 fd3e f8be 25bd
00000180: 4388 7b3f 7efd b5be df36 4dbf 440f e3be
00000190: 6233 3e3f b93b 893f 7843 1b3e c34f 3e3e
000001a0: 7a9c 9b3e f5eb 66bd e8cd 58be ba43 2cbf
000001b0: 9f1a 16bf b791 43bf 3f56 973f 6978 da3f
000001c0: d83c 493e faed 0ebf f360 ba3f 2bc3 d63f
000001d0: 5752 a6bf 17af 823f 8492 da3f 81d2 1dbf
000001e0: b7ee f73e 6192 d03f 9b96 bd3f 3e2d 2bbf
000001f0: 25c7 c23f debb 49bf ba68 4ebf 44e1 ddbd
00000200: 5401 243f da4a 213e 00fa 85bf cdc2 cebf
00000210: 6719 33be 35d1 763f 8020 693e 492c 5f3d
00000220: 7abd bcbd 203f d6bf f7a1 2c3f e3cb ad3d
00000230: f552 9cbf 12f2 41bf 95a7 00bf a932 e8be
00000240: b1c4 9ebf 7f22 dc3f 4087 e13e ef14 5bbe
00000250: 77ec 86bf aecc 65bf de66 25bf 1828 93bf
00000260: 1537 5e3f 3cf2 d53f 845b 653f be81 8b3f
00000270: abbf adbf 5e9e b3bf fbb8 8abe 6360 e7be
00000280: 9990 41bf bbd6 473f ade2 843d 9970 17bf
00000290: 062a a2bf 0b44 9b3f f7f2 a43f c18f b8bf
000002a0: c406 513f 3424 72be 1210 9b3e 032c d8bf
000002b0: 5282 4a3d fdeb ab3d 2ef6 40bf 2c5a 98bf
000002c0: e122 3dbf de2b febe 7138 5c3f 40f8 91bf
000002d0: 0a1e acbf cbf5 8d3f 7193 2cbd cbdf 3c3f
000002e0: 6228 cbbf 5f3e 63bf 6202 cb3f f167 c63f
000002f0: a5fe db3f 4004 7ebf 4d0e 80bf 22ba c7be
00000300: 502c a13f 3b46 debf b64d a7be 8f67 ce3d
00000310: 993b e5be 73ea 723f 6fc6 053f 76ce a93f
00000320: 09fa 8f3f 6c24 073f 9f68 333e 2f88 6d3f
00000330: 8005 b43f cca5 40bf 4af1 b9bf d2c1 babf
00000340: 6fe2 a23f 5fa0 55bf 4c3d 7bbd ffdd c6bf
00000350: f8e8 753f 64f2 aa3e ce14 c43f 7d29 3dbf
00000360: a237 d3bf 33d4 8d3f 8c61 c83f 588f a3bf
00000370: c583 8cbf a7e0 97bf 33b3 243e 946d c8be
00000380: fa7b f4be 9678 05be 34d5 d93f 3f13 953f
00000390: 35df 8abf 6c5d cd3f d21b a23e f112 1c3d
000003a0: a5fb b0bf 772c f33c bb57 4c3f eabe b2bf
000003b0: ac1b 023e 66a9 dabf 5275 d83f 9b2c 313f
000003c0: 460e cbbf d6b6 8b3f 5e5b ccbf 192a b23f
000003d0: 96a4 3cbf 57b9 a8bd e10a cd3f 5b73 24bf
000003e0: 8061 bf3f 4eac b13f b3ad 923f 99ca 523f
000003f0: 61d8 693f 747f ef3e f401 97bf a703 29bf
-0.35814235 -0.25954026 -1.5607021 0.89880204 -1.2687964 1.2113683 -0.8748 0.8162251
-0.7688962 -0.60130584 1.0746081 1.488289 -1.6135662 1.5421702 0.86373115 0.5994212
-1.5077504 1.1128004 0.95270675 1.0372521 1.2941401 -0.22283117 0.006703797 -1.1503035
0.34908262 0.2905283 0.8561906 0.2177761 0.085495934 -0.8851516 0.7628176 0.40269983
0.9023732 -1.2071546 -1.2989827 0.45025033 0.29022673 -1.3207468 0.4808432 -0.41096547
0.25857455 0.363458 1.5208694 1.0194143 1.0215982 1.1247792 -1.6740714 -0.09605066
-1.4839536 -1.4240853 1.6078523 -1.435013 0.2523923 0.6475119 0.8621742 -1.4583074
-0.12366286 1.6905923 -0.17761193 0.12783295 1.5019989 0.84739757 1.1306143 0.3216458
0.25309712 -0.5295221 1.2852031 -0.8499518 0.5379749 0.8716207 1.0596175 -1.4828496
1.4035337 0.6120631 -0.528603 1.2363819 -0.8519499 0.65545696 1.4606339 1.4834039
0.26341453 -1.2872827 -0.11541063 -1.5962934 0.96622485 0.18257065 -0.90489334 -1.357463
1.3547595 0.28955758 -1.1684654 -0.581835 -1.6769173 1.4479241 0.49415407 -0.040465325
0.98254794 -0.35544962 -0.8016185 -0.44347584 0.74297154 1.0721351 0.15162456 0.18585114
0.3039282 -0.05637737 -0.21172297 -0.6729084 -0.5863437 -0.7639422 1.1823195 1.7067996
0.19652116 -0.55831873 1.4560837 1.677831 -1.2993878 1.0209683 1.7075963 -0.6164933
0.48424312 1.6294671 1.4811586 -0.6686591 1.5217024 -0.7880229 -0.8062855 -0.10833982
0.64064527 0.1575121 -1.0466919 -1.6153198 -0.17490159 0.96412975 0.22766304 0.054485593
-0.09215827 -1.6738014 0.6743464 0.08486154 -1.2212816 -0.75759995 -0.5025571 -0.4535115
-1.2403775 1.7198027 0.440485 -0.21394704 -1.0540913 -0.8976544 -0.6461009 -1.1496611
0.868028 1.6714549 0.89592767 1.0898969 -1.3574117 -1.4032705 -0.27094254 -0.45190725
-0.75611264 0.7806203 0.064885475 -0.59156185 -1.2669075 1.213014 1.2886647 -1.441887
0.8165095 -0.23646623 0.30285698 -1.6888431 0.04944069 0.083946206 -0.7537564 -1.1902518
-0.73881346 -0.49642843 0.8602362 -1.1403885 -1.3446667 1.1090635 -0.0421328 0.7377898
-1.5871699 -0.88767046 1.5860102 1.550047 1.7187086 -0.99225235 -1.0004364 -0.39009196
1.2591648 -1.7365183 -0.32676476 0.10078346 -0.44772032 0.9488899 0.5225591 1.3266132
1.124818 0.5278995 0.17520379 0.92785925 1.4064178 -0.75252986 -1.452676 -1.4590399
1.2725352 -0.8344783 -0.061337754 -1.5536498 0.9605861 0.33388054 1.5318849 -0.7389143
-1.6501353 1.1080383 1.5654769 -1.277812 -1.0977713 -1.1865433 0.16083984 -0.391461
-0.47750837 -0.13034281 1.701819 1.1646498 -1.0849367 1.6044135 0.3166185 0.038104
-1.3826796 0.029684288 0.79821366 -1.3964512 0.12705868 -1.7082946 1.6910803 0.6920869
-1.5863731 1.0915172 -1.5965383 1.3919097 -0.7368864 -0.08238476 1.6018945 -0.6423852
1.495163 1.3880708 1.1459259 0.8234039 0.91345793 0.46776927 -1.1797471 -0.660212

model.model.allegro.latents.0.mlp.0.weight f4 [40, 16]
00000000: 05fb 3d3f b1de cf3f e915 c63f 2113 aa3f
00000010: 6029 ae3f 5d0d 88bf 7957 723e 5d7d 13bf
00000020: d4d5 0dbf fb65 1f3f 233b 68bf 6ab9 183f
00000030: ccd7 e13e c0e7 9abf 0d9a 0abf 52c1 34bf
00000040: 07a4 873f b944 dfbf cf93 b63f 197c a6be
00000050: f9d5 06bf 27ff 943f 9792 e33e 4384 d7bf
00000060: f4de cf3f 0cf9 74bf d0e5 36bf 4bea bdbf
00000070: 71d9 a8bf 325a babf d79f c83f 7235 c9bf
00000080: 4ca5 993f 9e87 253e 5c53 b93f 26d1 383d
00000090: adfd c7be c1e6 3d3f 1021 d1bf 5ac9 01be
000000a0: 9063 34bf fb13 d73f ce73 f93e 4aae 383f
000000b0: 08f1 4f3e 72a1 183f 34e1 2b3f cc9a 973f
000000c0: 2f3a 403f 2271 aebf e044 d13f c7b6 e13e
000000d0: 53fe f03c 575c 69bf 493b 423f 5595 623f
000000e0: 473e cbbf d984 cfbf 2606 7cbf 77ab a1be
000000f0: dc12 813f 6a6a db3f 5f71 113f 31f3 c2bf
00000100: a908 e93e 104e 753f 768b bb3f b1f5 b5bf
00000110: 39f1 eebe 3c19 50bf 8a80 4c3e 2a7e 18bf
00000120: 9faa e93e d0da 9d3f 59b6 afbe 160f 04bf
00000130: 1cad 9cbf a29b 4c3f 4573 8c3f 4a70 103f
00000140: ab82 423f 6d46 ae3f a2fc ecbe 1c5c 91bf
00000150: 3770 6d3f 30ac 563d 06f4 523f 6634 a33f
00000160: ab04 103e 6ba2 a9be 319c 85bf a6fa b5bf
00000170: bb21 b33e 2325 243f 8ab4 c13e 79f2 f83d
00000180: 81db fdbe a2e5 2a3e a83b 1b3f e48a 1e3f
00000190: 9aad 8a3e 4cb2 203e b11e 9bbf 5f63 afbf
000001a0: 8128 b83e 8daf da3f e3f7 3ebf 29da abbc
000001b0: 1e25 b9bf a1bb bbbf 25bf c1bf 1c1b cabf
000001c0: 4e05 34bf 48c7 303f 572d d43e 1d80 3d3d
000001d0: ed3c 923f 2de2 e63e 0cd4 86be 12ca 273e
000001e0: ef40 c5bf 9923 5bbf 5e5d ca3f a850 953f
000001f0: 72f3 a73e d549 923f 4a13 93bf ef82 bf3f
00000200: 6942 d6bf e4a5 c6bf 15e4 cd3e a3b5 76bf
00000210: 6c96 2dbf be97 b5bf d121 b43f 2224 583f
00000220: adaa 023f 7d13 853f 502d 55bf eab9 5bbf
00000230: 2039 a1be 65e4 a1bf d635 343f aad3 a03f
00000240: f693 2e3f 7483 89be 47aa abbf d5c4 3bbf
00000250: 48f2 c2bf e07d 28bf 686f 5fbe 5882 93bf
00000260: 34fd c8bf b59a a13f 9d35 58be 2e8e 84bf
00000270: c0a9 39bf d497 923f a55b c5bf 25ae e7be
00000280: 2390 273f 848b 01bf 56da 73bc 0c29 6f3e
00000290: 8c03 b43f 7b53 883e 020b 8b3f f896 a33f
000002a0: cd53 9e3f 3d2d 6a3f f45c da3f 3c96 b1bf
000002b0: db8c 093e e3a0 bbbf 2e4d 133f dc4b 10bf
000002c0: f502 fdbe 9994 bdbf 228b 7a3f 9cf8 c1bf
000002d0: 2ebb 0dbf 70e2 60bf ddcf cd3e c3f8 da3f
000002e0: 1a85 ebbe aa87 bfbf d6a0 93bf f079 2b3f
000002f0: a685 a8bf 1021 68bf d7bf 423e de14 713f
00000300: 618d c3bf 847a 173f 2588 7dbd 2fd1 4c3e
00000310: f229 dbbe 69a6 313f 5602 853b b6a0 b83f
00000320: 3574 9a3f cc16 d73f 074e 053f 1c0b b1be
00000330: 093d 433f 0b62 b63d fdf4 7d3f 87ce 903f
00000340: 8928 e43e 1554 5a3f 430c cdbf 91b3 ef3e
00000350: bcbb 983e cb14 7ebf d873 483f 99c7 0cbf
00000360: 8920 ddbf 9c48 bb3e dbf3 463f a62d 78bf
00000370: 182b f0bd 39d7 acbf 4e0d 613f 54ed c23f
00000380: ef3f a7bf b90c 8bbe d4ca ce3f f3b8 a03f
00000390: 7d4b 01bf 23ec 75bc 9a30 86bf 23a7 c33e
000003a0: 282e d63e 7a0c ca3f ecad 24bf bf4b b8bf
000003b0: d0a6 6cbf 6c22 7ebf fa46 dcbf 35bf d53f
000003c0: 70ce a2be 740a 21bf c917 7cbf 621b fabe
000003d0: 1408 0c3f 0711 3abf a82c 8bbf 139e 103f
000003e0: 3589 4d3f 911a 46bf bb87 d5bf 4e98 603f
000003f0: 0c58 f0bd 12dd 3b3d dd3d a2bf b324 753f
0.7421115 1.6239835 1.5475436 1.3287088 1.3606377 -1.0629078 0.2366618 -0.57613164
-0.554044 0.62264985 -0.90715235 0.5965792 0.44109952 -1.2101974 -0.5414131 -0.70607483
1.0596932 -1.7442847 1.4263858 -0.32516554 -0.52670246 1.1640366 0.44447777 -1.6837238
1.6239915 -0.95692515 -0.71444416 -1.4837126 -1.3191358 -1.4558775 1.5673779 -1.5719435
1.200357 0.16165015 1.4478564 0.045121334 -0.39060727 0.7418023 -1.6338215 -0.12674466
-0.7046442 1.6802973 0.48721164 0.72140944 0.2030679 0.59621346 0.6714051 1.1844115
0.7508878 -1.3628275 1.6349144 0.4408476 0.029418146 -0.91156524 0.7587171 0.8850911
-1.587838 -1.6212417 -0.9844688 -0.3157613 1.008388 1.714185 0.56813616 -1.5230466
0.4551442 0.9582224 1.4651935 -1.4215604 -0.46668413 -0.81288505 0.19970909 -0.5956751
0.45637986 1.2332401 -0.34318808 -0.5158552 -1.2240329 0.79924977 1.0972677 0.5642134
0.75980633 1.3615242 -0.46286494 -1.1356235 0.9274935 0.052410305 0.824036 1.2750366
0.1406428 -0.33131728 -1.0438291 -1.4217117 0.34986672 0.64119166 0.37833053 0.12155623
-0.4958153 0.1668916 0.60637903 0.6193068 0.27085572 0.15693015 -1.2118741 -1.3702201
0.35968402 1.7084824 -0.74596995 -0.02097805 -1.4464452 -1.4666635 -1.5136458 -1.5789523
-0.70320594 0.6905408 0.41440842 0.046264756 1.1424843 0.45094433 -0.26333654 0.16385677
-1.5410441 -0.8560119 1.5809743 1.1665239 0.32802922 1.1428782 -1.1490262 1.4961833
-1.6739017 -1.5519376 0.40213075 -0.96370906 -0.6780765 -1.4186933 1.407282 0.84430134
0.5104168 1.0396572 -0.83272266 -0.8583056 -0.31488895 -1.2647825 0.7039465 1.2564595
0.6819452 -0.26858103 -1.341134 -0.73347217 -1.5230188 -0.6581707 -0.21819842 -1.1524153
-1.5702271 1.2625338 -0.21114202 -1.035589 -0.7252464 1.1452584 -1.5418593 -0.4525005
0.6545431 -0.5060351 -0.014883598 0.23355502 1.4063582 0.2662619 1.0862734 1.2780447
1.2369324 0.9147528 1.7059617 -1.3873973 0.13432638 -1.4658474 0.5753964 -0.5636575
-0.4941632 -1.4810973 0.9786855 -1.5153995 -0.5536374 -0.87845516 0.4019765 1.7107166
-0.45999986 -1.4963276 -1.1533458 0.66982937 -1.3165786 -0.9067545 0.19018494 0.94172466
-1.527752 0.5917132 -0.061897416 0.20001672 -0.4280544 0.69394547 0.0040591164 1.4424045
1.2066714 1.6803832 0.52072185 -0.34578788 0.7626501 0.08905419 0.9920195 1.1313027
0.44562176 0.8528455 -1.6019367 0.46816686 0.2983073 -0.9925048 0.78301764 -0.5499206
-1.7275554 0.36578834 0.77715844 -0.96944654 -0.117269695 -1.3503181 0.87910926 1.5228677
-1.3066386 -0.27158144 1.6155648 1.2556442 -0.5050581 -0.015009913 -1.0483582 0.38213453
0.4183209 1.5785058 -0.64327884 -1.4398116 -0.92442036 -0.99271274 -1.720916 1.6698977
-0.31798124 -0.62906575 -0.98473793 -0.48849016 0.54699826 -0.7268223 -1.0873003 0.564912
0.80287486 -0.7738429 -1.6682047 0.877324 -0.117355436 0.045865126 -1.2675129 0.95759124

model.model.allegro.latents.0.mlp.2.weight f4 [16, 32]
00000000: 08fa 383e be92 8c3f 87b4 d23f 8cfa 99bf
00000010: 318f 48bf 4212 89bf 2ddb cebf 52c0 de3f
00000020: 046c 76be fe82 d2bf f3ba bebd 4110 cfbe
00000030: 19b3 babe 6d7b 7ebe 5c4c a53f 6905 f43e
00000040: 61bc 1c3f a1f9 093f e82e 093e 1758 d73f
00000050: d621 943f 05a2 183e 2dda 04bf 6df1 b13d
00000060: 9921 d2bf 5730 08bf ccec bbbe 2890 ca3f
00000070: 893d 83bf 2e6a bfbf 4d6a 7b3f 9603 003f
00000080: c0ad 7abe 8a61 48be b725 dc3e 92d6 b43f
00000090: 0cf5 973f f611 b53e e98a 54bf d136 7d3e
000000a0: 1a99 66bf 2033 38bf e7cb 3ebf 7a07 93bf
000000b0: 8676 babf 0c47 bd3b 7567 393f 0517 b5bf
000000c0: 7d49 1cbe ddab ad3f 746f fa3c 085e b7bf
000000d0: 2ef4 b7bf 2391 59bf a2e5 47bf e5e4 e33e
000000e0: 848f 6bbf 2b21 49be 5fe1 4cbf 76ba 61bf
000000f0: c6a8 55bf 9b85 9e3f 1d93 41bf ab22 353f
00000100: 529d 54bf 2cd7 f6be 9e81 e8be d2fc 5cbf
00000110: 217d 543f 4ce1 d1bf f84c a7bf 0cdd 52bf
00000120: 4d2a 5fbf 5349 813d d1bc b63e a6da 1f3f
00000130: a918 96bf c75e 463f 5625 903f 1efe dbbe
00000140: b3b3 85bf 1c65 24bf 15f4 b13f 301c 36bd
00000150: 159d 1bbd 8670 2f3f bedd e43e fa4c debe
00000160: 6340 a73f a3b2 5dbf cfb5 943d 8444 da3f
00000170: 61a0 bd3f fc31 403f 9f57 5bbf 5c38 21bf
00000180: 50b7 1d3f 586c 1abf 721c 8cbc 8da4 36be
00000190: d9b9 c0bf c311 da3e 2eeb ee3e 3535 f0be
000001a0: ff24 713e 574f 843f 6d24 013f f681 66bf
000001b0: c156 a23f 2e5a 0f3d 83ab cc3f f249 763e
000001c0: 2ac3 cf3e 7245 93bf 68d1 d1be 1dab ba3f
000001d0: e676 91bf 90f3 723f e293 813f 1242 d03f
000001e0: edc4 30bf a233 123f d30c abbf 04ed d8bf
000001f0: 2987 413e cd19 b8be a587 283f e807 f2b9
00000200: 8999 17bf f414 8c3e 2e06 90bf 5614 763e
00000210: e771 edbe 36c7 5a3e 9856 b93d 7516 96bf
00000220: c048 61bf 99ff c53f 7a07 c0bf e628 8cbf
00000230: 48b1 98bf 6212 653e 9df1 c13f 8f24 f53e
00000240: be70 96bf 8f9b d83f 2da4 0dbf 032d bc3f
00000250: a04a 08bf 863e b1be c01e 2bbe 76d9 57bf
00000260: 5fa3 2fbf aa12 123f b54b c73f 4f6a 86bf
00000270: 55df 1f3f b68c 563e 544b 7abf 4b42 1c3e
00000280: 6d6a a93e fff2 403f 77dd 693f 08ff 5abf
00000290: 8879 7cbf b929 5dbf 040b 79bd 1361 c33f
000002a0: 58fe e0be a547 ca3f e05b b3bf d5d3 d23f
000002b0: 051e 633f f95e 7c3f 3ab5 8e3f 48b5 b93f
000002c0: daa6 883f 5425 cb3f 62bb 75bf 2b40 83bf
000002d0: 9302 38bf 68d4 78bf 9fa3 ce3f 05e7 5c3f
000002e0: f88b f0be 29e3 293f d452 b2bf 9e93 e53d
000002f0: 0022 97bf 5829 b23f d8b6 a23e f3e0 6ebf
00000300: 879f aa3f 6d24 1b3f 0d37 ba3f 3afe 92be
00000310: 0e15 623f 67eb 5d3f 6078 3cbf 22b1 ba3f
00000320: e190 e63e f3fd 1e3e 8f60 203f 4351 bf3f
00000330: 805c 2dbf efe9 84bf 0016 d2bf d4fe 163e
00000340: d779 803f 1b5f 91be 1998 c7bf f9d8 a33f
00000350: 8178 823f 77b1 ee3e 8f1f ee3e f728 cfbf
00000360: b2dc 42bd a340 da3f 5254 853e e4d2 94bf
00000370: acf7 d83f dbb9 7d3e 1050 a33e 8dc2 b9bf
00000380: e1f4 c8bf 0b0f 78bf 67f2 e73c 5a6c 8cbf
00000390: abdb c8bf 38bf 96bd ff6f 323e 8467 c03e
000003a0: 2478 b73f fb7d d23f def6 033f e551 b33f
000003b0: 15f9 94bf 55a5 81bf c143 f7bc 2f4b ce3f
000003c0: 422b c93c f0b7 ee3e f8bc acbf 3e2b 0c3f
000003d0: 3177 253f 7d21 18bd bb86 af3f ea60 073f
000003e0: 8d69 7a3f b2b4 2f3f 5619 61be 4a52 7f3d
000003f0: a2c8 04bf ee9a 8e3f e0f8 ef3e 1003 713f
0.1806413 1.0982282 1.6461343 -1.2029586 -0.7834349 -1.0708697 -1.6160637 1.7402442
-0.24064642 -1.6446226 -0.093130015 -0.40442088 -0.36464766 -0.2485177 1.2913928 0.47660378
0.61224943 0.5389653 0.133968 1.6823758 1.1572826 0.14905556 -0.5189541 0.086886264
-1.6416503 -0.5319876 -0.367041 1.5825243 -1.0253154 -1.4954278 0.9820908 0.5000547
-0.24480343 -0.19568458 0.42997524 1.4127982 1.1871657 0.35365266 -0.8302446 0.24727942
-0.90077364 -0.7195301 -0.7452988 -1.1486657 -1.456742 0.0057762917 0.7242349 -1.414765
-0.15262409 1.3568074 0.030570723 -1.4325571 -1.4371393 -0.84987086 -0.78084767 0.4451057
-0.9201586 -0.19641559 -0.8003139 -0.8817514 -0.8346065 1.2384523 -0.756151 0.70756024
-0.8305255 -0.48211038 -0.4541139 -0.86323273 0.8300343 -1.639688 -1.3070364 -0.8236854
-0.8717392 0.063128136 0.3569093 0.62443006 -1.1726276 0.7748837 1.1261394 -0.42967314
-1.0445465 -0.6421678 1.3902613 -0.044460475 -0.037991602 0.6853107 0.44700426 -0.43418103
1.3066524 -0.86600703 0.0726124 1.7052159 1.4814569 0.7507627 -0.85680574 -0.6297662
0.6160784 -0.6032157 -0.017103408 -0.17836209 -1.5056716 0.42591676 0.46663803 -0.46915594
0.23549269 1.0336713 0.50446206 -0.90042055 1.2682725 0.03499811 1.5989841 0.24051645
0.40578586 -1.1505568 -0.40980077 1.458347 -1.136441 0.94902897 1.0123255 1.6270163
-0.69050485 0.57110035 -1.3363289 -1.6947331 0.18899216 -0.35957184 0.6583198 -0.00046163728
-0.5921865 0.27359736 -1.1251886 0.24031195 -0.46375963 0.21365055 0.090497196 -1.1725603
-0.8800163 1.5468627 -1.5002282 -1.0949981 -1.1929102 0.22370294 1.515186 0.47879454
-1.1753156 1.6922473 -0.5532864 1.4701236 -0.5323887 -0.34618014 -0.16710949 -0.84316194
-0.6860866 0.5705973 1.5569979 -1.0501193 0.6245015 0.20952114 -0.9777119 0.15259664
0.3308901 0.7537078 0.91353554 -0.85545397 -0.9862294 -0.8639179 -0.06080152 1.5264
-0.4394405 1.5803114 -1.4012413 1.6470896 0.8871768 0.98582417 1.1149056 1.4508448
1.0675919 1.5870767 -0.9598905 -1.0253958 -0.7187893 -0.97199106 1.6143683 0.8629001
-0.46981788 0.66362244 -1.3931527 0.11209796 -1.1807251 1.3918867 0.31780124 -0.93311995
1.3329934 0.60602456 1.454805 -0.28709584 0.88313377 0.8668732 -0.7362118 1.4585307
0.4503241 0.15526561 0.62647337 1.4946674 -0.6771927 -1.0383891 -1.6412964 0.14745647
1.0037183 -0.28392872 -1.5593292 1.280059 1.0193025 0.4661977 0.46508452 -1.6184376
-0.047573753 1.7050976 0.26040894 -1.1626859 1.6950583 0.2477793 0.3189702 -1.4512497
-1.5699731 -0.96897954 0.028313829 -1.0970566 -1.5692037 -0.07360691 0.17425536 0.37578976
1.4333539 1.6444696 0.51548564 1.4009367 -1.1638514 -1.012858 -0.030183675 1.6116694
0.02455676 0.46624708 -1.3495169 0.5475348 0.64634997 -0.037141312 1.3712991 0.52882254
0.9781731 0.68635094 -0.21982321 0.062334336 -0.5186864 1.1141031 0.46869564 0.941453

model.model.allegro.tps.0.weights f4 [8, 2]
00000000: d6ff 693f ed0a 303e 4d11 433f f5ae 2abf
00000010: f2ec a33f ebc3 903d c2c3 233f 76d2 b3bf
00000020: 8e80 123f 410d ba3e 4b17 a53f 1751 d5bf
00000030: c6b7 e6be 746e cebf 8a9c a43f d24f 373f
0.91406 0.17191668 0.76198274 -0.66673213 1.2806685 0.070686184 0.6397058 -1.4048603
0.5722741 0.36338237 1.2897733 -1.6665372 -0.45062083 -1.6127458 1.2860272 0.7160617

model.model.allegro.tps.0.w3j f4 [2, 4, 1]
00000000: 0000 803f 0000 0000 0000 0000 0000 0000
00000010: 0000 0000 3acd 133f 3acd 133f 3acd 133f
1.0 0.0 0.0 0.0 0.0 0.57735026 0.57735026 0.57735026

model.model.edge_readout.mlp_module.mlp.0.weight f4 [64, 16]
00000000: 9085 db3f ec43 803f e244 783f f259 c2bd
00000010: 1112 10bf 6eee d03f 10ee afbf 7feb 8bbe
00000020: 20e4 04bd 5d15 36bf 8c4f b1bf ca8e 083e
00000030: 9d4a b0be 48b7 253f 7c98 543f fb6b a63f
00000040: bf0b 1d3f 453b a23f 42e5 7c3f ba7b c43f
00000050: 5688 ecbe 724e c0bf 6168 87be fc95 d33c
00000060: cfd1 de3f 92c6 c8bf 7256 d6be 24b5 bbbf
00000070: 1a6a 8a3f eba1 87bd 879b 42bf 654d c33f
00000080: 9a81 92bd aac2 95be 7620 94bf 00ad 88bf
00000090: 5b6a a5bf 014c d7be 4649 093f 2e69 95bf
000000a0: 39a8 1c3e 6cbd 3b3f 0ecf b63e 6672 d83e
000000b0: c049 983f 1846 88bf ac12 aa3f a25b 65bf
000000c0: 9dbe ecbe aa0a 87bf 2f49 ba3f 8ceb aebf
000000d0: 326c 423e f54b 0f3e 598a 29bf 6d7a 963f
000000e0: f2b9 783f 1309 8dbf fdb2 28bf 8a52 823e
000000f0: 540a 21bf b164 e9be 05bf 23bf 5b6a c4bd
00000100: 26b1 5abf ad50 9d3f 74a8 853f de05 1d3f
00000110: 705f c13f 20ec 92bf 422f c6bf dffd adbf
00000120: 9f97 c83f 245a 69bf 99c1 96bf 58ff f93c
00000130: 3911 343f 2620 cfbe 8805 aebb 5d8e a7bf
00000140: 3468 52be fd06 16bf dc29 18be ff03 a0bf
00000150: e0f4 79bf 90c7 c03f 253a 8bbf 581e 84bf
00000160: 67af c83f aaae 493f b4a2 98be a7bb 8dbf
00000170: 591f 89bf 13e6 8abf 4590 c63f 8114 46bf
00000180: 8328 de3e 76c1 2a3f a415 c6bf 94eb 00bf
00000190: 02bb 13bf 864c abbf ce28 36bf 3520 a53f
000001a0: 8cdd 9abf 8f9f a73f f8c6 1bbf e1ff 94bf
000001b0: cd77 41be d240 7e3f f566 97bf b36a 4bbf
000001c0: 50d0 c8be fe38 16bf 327b 93bf fc42 9f3f
000001d0: 2427 d83f ad7c af3e 4ecc 223e 78ca 7fbf
000001e0: 83ee 323f d8aa a63f 3b00 8b3f 921a f6be
000001f0: 45d5 a83f ca46 b33f bef7 d63f 2736 aebd
00000200: 8428 513f 0543 a63f d9f5 a83f 1466 45bf
00000210: 1800 db3f b3bc acbd b6cf 3bbf 8b01 df3e
00000220: 0038 483f 010b 663f 339b bcbf 91af 8f3d
00000230: 511a 423f bfba 223f 0a7f c7bf 5530 c8bf
00000240: 03c4 9e3f 974e 223f cbe3 763e 59d0 29bf
00000250: 6d8a 4a3f 39ef 723e 9293 c33e d1c7 b9be
00000260: 340a b83f f012 08bf 1596 b63f 3df7 1fbf
00000270: ae34 14bd b7d7 b5bf 3439 76be 7c6c 1bbd
00000280: 0290 d1bf 3717 893f 5b79 ce3f 6468 ac3f
00000290: a2ea c0bf 706f c83f 1a3c 443f 41e8 d03f
000002a0: 0729 b43f a78f 5a3e 9c4a a1bf 8661 c23f
000002b0: 149b c0bf 08e2 cabd 3819 5c3f 95e9 98bf
000002c0: 2cb4 cfbf 960d afbf 5384 9c3f 2fe6 8dbf
000002d0: c206 563f 47ac 3e3f f673 613f cc0a 89bf
000002e0: 5c4e 733e be2e 9ebf fbf6 d1be dcc3 8ebf
000002f0: 330f d1bf b410 22bf aeaf 563f 3b3d 753e
00000300: a370 95ba 6426 49bf 1703 583f 6d65 893f
00000310: 039e a9bf 229f 713f 05cf aabe c346 ccbf
00000320: 31e4 adbf 3602 b33e a113 cdbf 4ffa 533f
00000330: 55a0 663f d025 383f e1d0 833f db24 353e
00000340: b024 92bf 2a27 92bf 48e3 cdbf 1f86 bb3f
00000350: cd06 d43f 2477 a93f d364 a83f 6720 da3f
00000360: 1be9 bf3f 343e c0bf 45cb 91be fbcd b2bf
00000370: 7542 a8bd 1f5a 4e3e 158a 503e b47e b7be
00000380: 2158 aa3f 16d0 ae3d 4828 d73f bcee 74bf
00000390: f9a4 8cbe 073a 80bf 276c 8abe e04e d3bd
000003a0: f2a6 a03f f8a9 8abe 9445 7b3e c702 c63f
000003b0: 5429 563f 4765 fabe dffe 19bf a2b4 cfbf
000003c0: de39 593f 497e b2bf 40f1 653f 37ff 3e3f
000003d0: c736 41bf b4b4 b83e 0992 f33e ad25 973f
000003e0: 8060 773f e1cc bbbf 510c 7cbf 899d ae3e
000003f0: 3bb7 d13f 251b d8bd aa7f d5bf cb26 d4bb
1.7150135 1.0020728 0.96980107 -0.09489812 -0.5627757 1.6322763 -1.3744526 -0.27328107
-0.03244412 -0.7112635 -1.3852401 0.1333572 -0.34431925 0.6473279 0.8304517 1.3001703
0.6134605 1.2674338 0.9878732 1.5350258 -0.46197766 -1.502394 -0.26446822 0.025828354
1.7407779 -1.5685599 -0.41862828 -1.4664655 1.081363 -0.0662268 -0.76018566 1.5257994
-0.07153626 -0.2925008 -1.1572406 -1.0677795 -1.2923082 -0.42050174 0.5362743 -1.1672723
0.15298547 0.7333591 0.35704845 0.4227478 1.1897507 -1.0646391 1.3286948 -0.89592946
-0.46239176 -1.055013 1.4553584 -1.3665633 0.18986586 0.13993819 -0.66226727 1.1756111
0.9715873 -1.1018394 -0.65898114 0.25453597 -0.62906384 -0.45584634 -0.6396335 -0.09590598
-0.8542656 1.2290245 1.0442033 0.6133708 1.510725 -1.147831 -1.5483172 -1.35931
1.5671271 -0.9115317 -1.1777831 0.030517265 0.7033878 -0.40454215 -0.005310718 -1.3090321
-0.20547563 -0.58604413 -0.14859718 -1.250122 -0.97639275 1.5060902 -1.0877119 -1.032176
1.5678529 0.7878214 -0.29811633 -1.1072892 -1.0712692 -1.0851463 1.5512778 -0.77375036
0.43390283 0.6670145 -1.5475354 -0.50359464 -0.57707226 -1.3382728 -0.71156013 1.2900454
-1.2098861 1.3095568 -0.6085048 -1.1640588 -0.18893357 0.9931766 -1.1828295 -0.79459685
-0.3922143 -0.58680713 -1.1521971 1.2442317 1.6886945 0.34274808 0.15898249 -0.9991832
0.6989519 1.3020887 1.0859445 -0.48067147 1.3190085 1.4005978 1.6794355 -0.085064225
0.81702447 1.2989203 1.3200027 -0.77108884 1.7109404 -0.08434429 -0.73363817 0.43555865
0.7821045 0.8986054 -1.4734863 0.070159085 0.75821406 0.635662 -1.5585644 -1.563975
1.2403568 0.6340117 0.24110334 -0.6633354 0.7911747 0.23724069 0.38198525 -0.3628526
1.4378114 -0.53153896 1.4264551 -0.6248663 -0.03618305 -1.4206456 -0.24045259 -0.037945256
-1.6372073 1.071021 1.6130785 1.3469357 -1.5071604 1.5659008 0.7665421 1.6320878
1.407502 0.21343862 -1.2600894 1.5186012 -1.5047326 -0.09906393 0.8597598 -1.1946284
-1.6226859 -1.3676021 1.2227882 -1.1085871 0.8360406 0.74481624 0.8806757 -1.070642
0.2376036 -1.2358015 -0.41008744 -1.1153522 -1.6332763 -0.63306737 0.83861816 0.23949139
-0.0011401366 -0.78574204 0.84379715 1.0734078 -1.3251346 0.9438344 -0.33361068 -1.5959095
-1.3585263 0.34962624 -1.6021615 0.82803816 0.900884 0.719327 1.029812 0.1768984
-1.1417446 -1.1418202 -1.6084986 1.4650306 1.6564575 1.3239484 1.3155769 1.7041138
1.4993013 -1.5018983 -0.28475395 -1.396911 -0.08215801 0.20151566 0.20365174 -0.35838854
1.3308145 0.08535783 1.6809168 -0.9567678 -0.27469614 -1.0017709 -0.2703564 -0.103177786
1.2550948 -0.270828 0.2453826 1.5469598 0.8365681 -0.48905393 -0.6015453 -1.6227
0.84853923 -1.3944789 0.89821243 0.74608177 -0.7547421 0.36075366 0.47572353 1.1808373
0.9663162 -1.4671899 -0.98456293 0.34104565 1.6384043 -0.105520524 -1.6679585 -0.006474351
