tests/continuity/training_ckpts/mace_train.ckpt (torch, 193952 bytes, 60 tensors)

model.model.node_embedding.linear.weight f4 [384]
00000000: 471e 8a3f cec9 783f d280 96bd a7da 9d3f
00000010: 792c 973a e048 043f 3510 f0be 01c8 82be
00000020: 35c2 c8bf 97c4 3fbf b647 9dbf 255d eabf
00000030: e654 fe3d aaf4 bfbf b53a ca3f 4e9a 79bf
00000040: b0f7 02be ae76 9d3f d81e 94bf 992f e63f
00000050: b3c1 e13e 64e9 9cbf ca82 6c3e da12 7a3f
00000060: a404 bb3f 3434 a4bd 69ba 8a3e 50c1 0340
00000070: c866 1d3d d32a 77bf 57b5 7f3e c6fa 11be
00000080: fc7c 53bf 8b5c 59bf 7e88 893f 6461 d43e
00000090: 5b75 f8bd 8b13 b7bf 37a6 5640 3213 afbf
000000a0: 09c8 f9bf 7e1a 783f 50ae b43f 636d 1540
000000b0: 6b02 b63d 7de9 d5be 3d46 2bbc bc70 453e
000000c0: 966c 88be ea33 84bf 5b16 603f a070 963c
000000d0: bd7b 26bf 0a21 153f a864 ec3f 58c5 aabe
000000e0: 0e53 4abe 9e50 a0bd 6085 553f 5b10 bebe
000000f0: 6cd2 873f 7cf0 973f 541e 863f 2729 71bc
00000100: 8d8c 3c3f 3e02 b5bf 3b50 81bf a04f 1440
00000110: e885 3a3f 2fda 83bd 5257 0fbf 6a6f b1bc
00000120: b8c8 753f 1dc0 893f 7b27 1cc0 bf50 19c0
00000130: 6e21 66bf 3179 033f 9ce6 f5bf 1783 843f
00000140: 09f8 6c3d 1f29 eb3d 1fe3 3cbe c268 263e
00000150: bb2f 2a3f 5867 12bf 953d e43e 8e94 e8bf
00000160: 4eee 593e 00ff 9b3f 8456 65bf bca1 de3f
00000170: 5187 8bbf a5a5 66bf 8768 7cbe 13be 8abf
00000180: 2e19 6ebf 6bdd cfbf c3ae f8be 04ce a2bd
00000190: 692d 19bf 9c2f 31be d9cc a93f 31ab 863e
000001a0: 32fb 5b3e c180 823f 6e4c d73f 8d3c adbf
000001b0: 74f7 7c3d cda6 bebe 6c46 883f 634a 73bf
000001c0: f987 593f 715a ab3e 6233 ddbc deca 0c3f
000001d0: 391b 96bd 2fcb 4fbd bf6d d63e c31f 8cbe
000001e0: b064 d8be 00ed 8f3f eea5 26bf e304 ecbf
000001f0: e2ed c8bd 391b fa3d 2b62 3e3f e089 bd3f
00000200: cb73 1bc0 3c1c 31bf 1594 553f 4d16 3840
00000210: 13a0 c5be 0c15 d7be bc92 8eba 3ebf e73e
00000220: fce9 33bf 490a 033f cebd c0be 764e 55bf
00000230: 91a1 94bf 6ea3 a4bf 8b99 0240 b981 8e3e
00000240: cb05 e9bf d572 19bf 57a5 18c0 e272 0240
00000250: 7faa 91bf ebf9 0e3f 8c76 373f 42a5 4d3f
00000260: 6b0a 8bbd 42e3 0dc0 9957 9a3e 764b 923e
00000270: 3a82 0ebd fe1d b7be 7eaa 38be fcd9 893e
00000280: 151b 2d3f f10e 06c0 1de5 213d f162 b13f
00000290: 7f06 f33e 3110 47bf d79f 8bbf 5116 bbbe
000002a0: 71af dcbe 7a77 b93f c6fe a2bf ca8c 83bf
000002b0: 3b0a b2be f190 793f a994 13bf 2dec 43bf
000002c0: 425a 0dbf 6655 de3f 324e 033f 4705 6ebf
000002d0: 3808 babe cc7e e33f fd43 0f3f b373 a73f
000002e0: 8493 a23e 9ce1 513e f5c3 3a3f 8d19 a53f
000002f0: 6932 68be 7676 e3be 0dfe 0dbf f4db b13f
00000300: b8f4 98bf f323 2f40 faef c73e a3b9 55bf
00000310: 5f2f e53e 1ea4 44bf 0198 653f 69a9 783f
00000320: dd9d 9cbe a51d 16bf 3ac9 cebe fddc acbf
00000330: dd03 933d a365 1a3d 682e 033f 1d4c c43e
00000340: d7f8 3dbf 2e1c 7dbf c615 a5bd ed68 05bf
00000350: fbc8 b7be 48c7 213f a8ff b2bf 7720 a63f
00000360: 62ca 11be 61f9 fb3e 187a c1bf bff9 693f
00000370: 876a fcbe addc e8bf b7c5 8b3f 0aac 65bf
00000380: e652 17be 3d80 213e 1d30 7e3d 18db d63f
00000390: 2a41 373f 93e2 9cbf ea7b 5c3f 4041 ca3f
000003a0: fd8e 44bd 0b4c 813e 41fa 603e ccb9 6bbf
000003b0: d214 e73e 5e03 e7be 95b0 46bf 79de cf3f
000003c0: 5645 8cbf fc97 82bf 4314 9fbf ae64 c03f
000003d0: 7b58 30c0 9d75 3d3f e908 f13d 2e30 5cbd
000003e0: 5f55 29bf 83e9 423f 2d5c 3440 67e3 ecbf
000003f0: 49c1 2e3f 1869 08bf a2df 13bf a48a 1b3f
1.079049 0.9718293 -0.07348789 1.2332352 0.001153364 0.516737 -0.46887365 -0.25543216
-1.5684267 -0.7490935 -1.228751 -1.8309675 0.12418537 -1.499654 1.5799166 -0.97501075
-0.12789798 1.2301843 -1.1571913 1.7983276 0.44093093 -1.2258725 0.23096767 0.97685015
1.4610791 -0.080177695 0.27095345 2.0586739 0.038428098 -0.9654972 0.2497152 -0.14255819
-0.82612586 -0.84906834 1.0744779 0.41480553 -0.12131759 -1.4302839 3.353895 -1.3677733
-1.9514171 0.96915424 1.4115696 2.3348014 0.0888718 -0.417797 -0.010453758 0.19281286
-0.26645344 -1.0328343 0.8753411 0.01836425 -0.6503256 0.5825354 1.8468218 -0.33353686
-0.19758245 -0.078278765 0.8340664 -0.37121853 1.0611091 1.1870265 1.0478005 -0.014719284
0.73651963 -1.4141309 -1.0102609 2.31736 0.72860575 -0.064380996 -0.55992615 -0.021659572
0.960094 1.0761753 -2.4399097 -2.3955534 -0.8989476 0.513568 -1.9211001 1.0352505
0.057853732 0.114824526 -0.18446015 0.162509 0.6647908 -0.5718894 0.44578233 -1.8170335
0.21282312 1.2187195 -0.8958514 1.7393107 -1.090067 -0.90096503 -0.24649249 -1.0839256
-0.9300717 -1.6239446 -0.48570833 -0.079494506 -0.59834915 -0.17303318 1.326564 0.26302484
0.21482542 1.0195543 1.68202 -1.3534104 0.061759427 -0.37236634 1.0646491 -0.9503538
0.849731 0.3346744 -0.02700204 0.5499705 -0.07329411 -0.05073088 0.41880605 -0.27367982
-0.42264318 1.1244202 -0.6509694 -1.8438991 -0.098109975 0.122122236 0.7436854 1.4807701
-2.4289424 -0.6918371 0.8342908 2.8763611 -0.3859869 -0.42008245 -0.001087747 0.45263094
-0.70278907 0.5118757 -0.3764481 -0.83322847 -1.1611806 -1.2862375 2.0406215 0.27833346
-1.8204893 -0.59940845 -2.3850915 2.038262 -1.1380156 0.55850095 0.71665263 0.8033029
-0.067890964 -2.2169957 0.30144957 0.28573197 -0.034792162 -0.3576507 -0.18033788 0.2692412
0.6761945 -2.094662 0.03952514 1.385832 0.47465894 -0.7775908 -1.0908154 -0.36540464
-0.431026 1.4489586 -1.2734001 -1.027734 -0.3477343 0.9748679 -0.5764871 -0.7653225
-0.5521585 1.7369812 0.5129119 -0.929768 -0.36334395 1.777307 0.55963117 1.3082184
0.3175317 0.2049622 0.72955257 1.2898422 -0.2267548 -0.44426316 -0.55465776 1.3895249
-1.1949682 2.7365692 0.39050275 -0.83486384 0.44762704 -0.7681292 0.89685065 0.971335
-0.3058919 -0.58638984 -0.403879 -1.350494 0.07178471 0.037694585 0.51242685 0.3833932
-0.74207824 -0.98871124 -0.080607936 -0.5211323 -0.35895523 0.63194704 -1.398427 1.2978657
-0.14237359 0.49213699 -1.5115385 0.9139671 -0.49300024 -1.8192345 1.0919713 -0.89715636
-0.14777717 0.15771575 0.062057603 1.6785612 0.7158381 -1.2256645 0.8612658 1.5801163
-0.047987927 0.2525333 0.21970464 -0.9208038 0.45133072 -0.45119756 -0.7761319 1.6239768
-1.095866 -1.0202632 -1.2428058 1.5030725 -2.7554004 0.7400759 0.117692776 -0.053756885
-0.6614589 0.7613756 2.818126 -1.8506898 0.6826368 -0.5328536 -0.5776311 0.60758424

model.model.node_embedding.linear.output_mask f4 [16]
00000000: 0000 803f 0000 803f 0000 803f 0000 803f
00000010: 0000 803f 0000 803f 0000 803f 0000 803f
00000020: 0000 803f 0000 803f 0000 803f 0000 803f
00000030: 0000 803f 0000 803f 0000 803f 0000 803f
1.0 1.0 1.0 1.0 1.0 1.0 1.0 1.0
1.0 1.0 1.0 1.0 1.0 1.0 1.0 1.0

model.model.radial_embedding.bessel_fn.bessel_weights f4 [8]
00000000: 5077 d63d 5077 563e 7cd9 a03e 5077 d63e
00000010: 920a 063f 7cd9 203f 66a8 3b3f 5077 563f
0.10471976 0.20943952 0.31415927 0.41887903 0.5235988 0.62831855 0.7330383 0.83775806

model.model.interactions.0.linear_up.weight f4 [256]
00000000: 5721 01bf c10c fd3d acf8 893e d145 6b3f
00000010: 3bdd f63c 8fb5 aabe 56f1 803f 8d43 80bf
00000020: 65bb 95be 9a2a 9b3e 419e 353f aea2 6dbe
00000030: 9f6d 76bf 56de bb3f f179 9b3e 51d2 863e
00000040: eccf bdbf 7cd9 6f3f d16c babe d9c5 b2be
00000050: 1c46 0a3f 7ec9 1b3f 5ca4 3dbf bfb0 a13e
00000060: 1c50 70be 2756 613f 6b8f de3e edf6 ca3f
00000070: e318 763e 635d 403f cf14 f8bf d28f d13f
00000080: daac 9d3e ad85 693f 03cb 70bf 7c38 02c0
00000090: d556 72bf 80cd 403e b175 c33f 99d2 d73e
000000a0: b1b3 15bf c8ad 34bf 4f9b 52bf 20b2 97bf
000000b0: 2571 b73f 5f07 913e eace d73e 43c3 bd3e
000000c0: 3a3b 0f40 5725 22be 8209 febf feee 353f
000000d0: 90d0 983f 17b4 803f a812 7dbf 57d6 9fbe
000000e0: 3c9c 9d3f 222f 8cbf 6b79 ecbe 142c 72bf
000000f0: 1556 503e 0a44 f7bc 4a1e 14bf 7769 87be
00000100: 3ca3 80bf 2194 41bf 1d6a 103f 2908 6e3e
00000110: 9dbe 093f 0d66 00bf 239a 44bf b078 69bd
00000120: c12d edbf 274d 0140 0f54 d13e 4f08 173f
00000130: 67c0 cbbf 5b09 2a3f fcb0 013f d384 103e
00000140: 9bd8 79bf 4cd0 e2be 62b7 8abf 3a3c ac3e
00000150: 0b59 a93f 3d97 77be e62f 563f b1ef bbbf
00000160: bb0b 8b3f de80 3a3f b9bc 69bf 9b61 4b3f
00000170: 318d d03d 7336 893e 3ad7 0a3e 0dfc 85bf
00000180: 4efb 30bf 3ec8 cebe 9baa 66bf 8021 423f
00000190: 2147 a9bf b2ba 023f 1971 943d 5f5c 97bc
000001a0: d14d ec3f a533 ab3f c827 a53f 8d54 b73c
000001b0: 3ea1 6fbf 9a93 c7bf 7a5a 433e 6627 e73f
000001c0: cc52 8f3f a3ad aebf 9d8a 4ebf 4428 babf
000001d0: 23b6 aa3e 7177 a4be c6e7 333f 0fcf 8ebf
000001e0: 3dbe a03f e807 f5bf e541 3e3f 317c 8f3d
000001f0: 0109 563f 2b39 8dbe 94fd 18bc f0b1 d53e
00000200: 7a0e b13e 16d0 9b3d e4a9 af3f ecca 89be
00000210: 4aa9 613e f5a1 a3be d05f d83d e7cf b8bd
00000220: 7200 7b3f 1b0c 6ebf 9ad9 c3bf 470a 45bf
00000230: 3f5b 003f 6343 903e 887c 7c3d 3224 203e
00000240: fb51 89bf 82dd 973e dfe1 533f 6a21 643e
00000250: 0315 1440 26bc d93f a72e a73f 60b2 9e3e
00000260: a472 fe3e fc89 5dbe 3a7e a93f b249 8a3b
00000270: 3c90 603e dd4e 4dbf 9fa6 acbf d87d e3bf
00000280: a73c 10bf f8a2 533d c777 65be 1cef cf3d
00000290: 379f 533f 7b8c 86bf 647f 0f40 bc35 8b3f
000002a0: b877 483d 893e 0b40 80dd 9dbf e9e1 913e
000002b0: 00ae 743f a1ae 1b40 6573 7bbe cc54 f33f
000002c0: 050f 13be 77c8 6bbf d7ee 9e3f d9df f03d
000002d0: 7bb1 c4be 12c0 e2bd 1699 003f 936d a4be
000002e0: a5e4 1fbf e915 62bf 2667 bebf faa4 b8bf
000002f0: 7bfe e13e c1ff f6be 0ac6 fbbf 3137 0d3f
00000300: fa1c 6cbf ce68 733f d6e3 ad3d 787e 82bf
00000310: 1b6c babf 4df4 053f 04dc 9abd 2308 3d3f
00000320: 9a73 6a3f 7172 14bf 9b6e 433e bd9b 16bf
00000330: 572b 8d3f 2c29 d43e 0644 5fbf 4f89 87bd
00000340: 10ff 953f fb0f e93f ad57 22bf 2e55 acbf
00000350: fbd5 ab3e 8795 99be 991d 7bbf f2ba a13c
00000360: 787d ca3f e8cb 5abf d63a 56bf 1f50 653f
00000370: 34ce 233f 9e08 e53e 598a 87bb 2426 ecbe
00000380: 6b9d 133f f1e3 af3d 2acf 22c0 6aef 3d3e
00000390: c485 29bf 4a30 d53f f5d5 0e40 dbd0 11bf
000003a0: 0e19 833f d78d d23e f1bf b03e b2d8 8b3b
000003b0: b8c7 d2bf 37db 6c3f 4630 593e 2020 d7bd
000003c0: 3c9d 05c0 9d60 963f ac3b 0dc0 1c88 a0be
000003d0: f136 12c0 8303 84bf 8cc4 2ebf f748 f23d
000003e0: 6d23 fb3e 3f30 273f b5e1 33be 6a1b debe
000003f0: 55e0 8f3f e1b2 3e3f 2a93 14bf 6d72 12bf
-0.504415 0.12355948 0.26947534 0.91903406 0.030134788 -0.33341643 1.007365 -1.0020615
-0.29244533 0.3030594 0.709446 -0.23206589 -0.9626102 1.4677227 0.3036647 0.26332334
-1.4829078 0.9369123 -0.36411145 -0.3491657 0.5401323 0.6085433 -0.7407892 0.3158016
-0.2346806 0.88022083 0.43468794 1.5856606 0.24032931 0.75142497 -1.938135 1.6372015
0.30795938 0.912196 -0.9405977 -2.0346975 -0.94663745 0.18828392 1.5270292 0.4215286
-0.5847731 -0.7057767 -0.8226823 -1.1851234 1.4331404 0.28325936 0.4215005 0.37063035
2.23799 -0.15834557 -1.9846652 0.710678 1.1938648 1.0054959 -0.9885659 -0.31218216
1.2313304 -1.0951884 -0.46186385 -0.9459851 0.20345338 -0.03018381 -0.5785872 -0.2644765
-1.0049815 -0.7561665 0.56411916 0.232453 0.5380648 -0.5015572 -0.76797694 -0.056999862
-1.8529588 2.020334 0.40884444 0.5899705 -1.5918092 0.66420525 0.5066068 0.14113168
-0.9759614 -0.44299543 -1.0837214 0.336397 1.3230299 -0.24178787 0.8366684 -1.4682523
1.0862955 0.72852886 -0.9130359 0.7944581 0.1018318 0.26799354 0.13558665 -1.0467545
-0.6913346 -0.40387148 -0.90104073 0.75832367 -1.3224832 0.51066124 0.07248134 -0.018476663
1.8461248 1.3375136 1.2902765 0.022379184 -0.9360541 -1.559192 0.19077483 1.8058898
1.1197143 -1.364674 -0.8068026 -1.4543538 0.33342084 -0.32122377 0.70275533 -1.1156939
1.2558056 -1.9143038 0.743193 0.070061095 0.8360749 -0.27582678 -0.0093378015 0.41737318
0.34581357 0.076080486 1.3723722 -0.2691263 0.22037235 -0.319595 0.1056515 -0.09024029
0.98047554 -0.9298722 -1.5300782 -0.76968807 0.5013923 0.28176412 0.0616422 0.15638807
-1.0728143 0.29661185 0.82766527 0.22278371 2.3137825 1.7010543 1.3061112 0.30995464
0.4969684 -0.21634668 1.3241646 0.004220211 0.21930021 -0.8019846 -1.3488349 -1.777278
-0.5634255 0.05166909 -0.22408973 0.10153028 0.8266482 -1.0511621 2.2421503 1.0875773
0.048942298 2.1756918 -1.2333221 0.28492668 0.95578 2.4325335 -0.24555738 1.9010253
-0.14361198 -0.9210276 1.2416638 0.117614456 -0.38416657 -0.11071791 0.5023359 -0.32114848
-0.6245826 -0.8831468 -1.4875228 -1.4425347 0.44139466 -0.48242 -1.9669812 0.5516234
-0.92231715 0.95081794 0.08490722 -1.0194845 -1.4564241 0.523259 -0.07561496 0.7384054
0.91582644 -0.57987124 0.19085161 -0.5883139 1.1028851 0.41437662 -0.8721317 -0.066179864
1.1718464 1.8208002 -0.6341503 -1.3463495 0.33561692 -0.29996893 -0.9809204 0.019742463
1.581954 -0.85467386 -0.83683527 0.8957538 0.63986516 0.44733137 -0.0041363654 -0.4612285
0.57662076 0.08588398 -2.5438943 0.1854836 -0.66219735 1.6655362 2.231809 -0.56959313
1.0242021 0.4112384 0.3452144 0.0042677755 -1.6467199 0.92521995 0.21209821 -0.10504174
-2.0877218 1.1748234 -2.206767 -0.31353843 -2.2846034 -1.0313572 -0.68268657 0.11830323
0.49050465 0.6530799 -0.17566569 -0.4338029 1.1240336 0.744917 -0.58037055 -0.5720585

model.model.interactions.0.linear_up.output_mask f4 [16]
00000000: 0000 803f 0000 803f 0000 803f 0000 803f
00000010: 0000 803f 0000 803f 0000 803f 0000 803f
00000020: 0000 803f 0000 803f 0000 803f 0000 803f
00000030: 0000 803f 0000 803f 0000 803f 0000 803f
1.0 1.0 1.0 1.0 1.0 1.0 1.0 1.0
1.0 1.0 1.0 1.0 1.0 1.0 1.0 1.0

model.model.interactions.0.conv_tp.output_mask f4 [64]
00000000: 0000 803f 0000 803f 0000 803f 0000 803f
00000010: 0000 803f 0000 803f 0000 803f 0000 803f
00000020: 0000 803f 0000 803f 0000 803f 0000 803f
00000030: 0000 803f 0000 803f 0000 803f 0000 803f
00000040: 0000 803f 0000 803f 0000 803f 0000 803f
00000050: 0000 803f 0000 803f 0000 803f 0000 803f
00000060: 0000 803f 0000 803f 0000 803f 0000 803f
00000070: 0000 803f 0000 803f 0000 803f 0000 803f
00000080: 0000 803f 0000 803f 0000 803f 0000 803f
00000090: 0000 803f 0000 803f 0000 803f 0000 803f
000000a0: 0000 803f 0000 803f 0000 803f 0000 803f
000000b0: 0000 803f 0000 803f 0000 803f 0000 803f
000000c0: 0000 803f 0000 803f 0000 803f 0000 803f
000000d0: 0000 803f 0000 803f 0000 803f 0000 803f
000000e0: 0000 803f 0000 803f 0000 803f 0000 803f
000000f0: 0000 803f 0000 803f 0000 803f 0000 803f
1.0 1.0 1.0 1.0 1.0 1.0 1.0 1.0
1.0 1.0 1.0 1.0 1.0 1.0 1.0 1.0
1.0 1.0 1.0 1.0 1.0 1.0 1.0 1.0
1.0 1.0 1.0 1.0 1.0 1.0 1.0 1.0
1.0 1.0 1.0 1.0 1.0 1.0 1.0 1.0
1.0 1.0 1.0 1.0 1.0 1.0 1.0 1.0
1.0 1.0 1.0 1.0 1.0 1.0 1.0 1.0
1.0 1.0 1.0 1.0 1.0 1.0 1.0 1.0

model.model.interactions.0.conv_tp_weights.layer0.weight f4 [8, 16]
00000000: 695c c83f 08fa 153f ea8e 3bbf c749 c0be
00000010: 3a46 d73e 268d b2bf 0ff5 a83e 0f3d acbe
00000020: 0c80 1340 f84e 743f c896 5e3e 01d9 afbe
00000030: 7929 85be 0a53 01bf 661d 163e ec6a 3e3e
00000040: c1b1 063f 219d 0bbf 632b ca3e 8a1b c8bd
00000050: 8b87 c13f 8a26 123f 4330 533f d8ab a93d
00000060: 81ba 79bf b7da 0bc0 a1b3 bcbf f47c 9a3e
00000070: 6391 543f 4930 533e 1989 b9bf 7f82 e03f
00000080: 825d 423f 1826 d8bf 6088 793f e1b1 0540
00000090: de7f b53d 2989 cbbf 0c9d 0a40 40ec d93c
000000a0: 63d8 8cbe 0881 303f b54a 343e 3107 9c3e
000000b0: b8cf abbe dc25 21be 29e2 c63f ee92 a83f
000000c0: 77a8 1d3f 3811 4abf 5312 803d 3978 1c3c
000000d0: 1917 053f 5bce 633f 377a 8a3f a725 91bf
000000e0: 8dfc b1bf 3fbd 0a3f fdd5 5cbf c3e0 88bf
000000f0: 918d 973d 58f9 093e c4b9 9abf b665 113f
00000100: 5e60 753c 5441 833f bf54 623e 1a80 953f
00000110: 63b9 1b3e 7bbb 6cbf 8411 e5bf f1e3 883f
00000120: f126 29bf b1d1 a1bf f237 c5bf 97b4 9ebe
00000130: da39 f03e 7625 b0bf 40fd ffbe 66c2 f03f
00000140: 9fd7 7d3e 4354 80be 0c21 c63f 590a 093f
00000150: 8428 333f 7513 663d bdf2 9a3f dc0c 723f
00000160: df37 6abe 5943 9b3f 6e9b ec3f 3f5f e9be
00000170: 2505 313e c2f0 fe3d 5024 5ebe dccb abbf
00000180: 4aab bebf 88f3 7fbe 81fd 3abf 8820 263e
00000190: 14d5 81bf a47a 733f 4d77 12c0 635f 7bbf
000001a0: 7f81 11bf d89d 1e3f fb93 e3bf 0807 1f3e
000001b0: f083 cc3e dd93 cebf 165d 873e bbd9 dfbe
000001c0: e153 e33e fec0 d3bf 86b1 6340 8a0f 1dbf
000001d0: 5ffe f63e d4ea 5ebe 926a 9a3f f31a 0540
000001e0: b318 0bc0 da75 b03f 531d d73f 9044 25c0
000001f0: d827 543f 9720 973f aac3 e8bd b259 743f
1.5653201 0.5858464 -0.73264945 -0.37556288 0.42045766 -1.3949325 0.32999465 -0.33640334
2.3046904 0.95432997 0.21737206 -0.34345248 -0.26008204 -0.5051733 0.14659652 0.18595475
0.5261498 -0.54536635 0.39486226 -0.09770878 1.511949 0.57090056 0.82495517 0.0828473
-0.9755021 -2.1852243 -1.4742318 0.30173457 0.8303434 0.20623888 -1.4494964 1.7539824
0.7592393 -1.6886625 0.97473717 2.0889819 0.08862279 -1.5901233 2.1658354 0.02660191
-0.2750884 0.68946886 0.17606623 0.30474237 -0.33556914 -0.15737098 1.5537769 1.3169839
0.6158518 -0.78932524 0.06253495 0.009550148 0.5198837 0.8898675 1.0818547 -1.1339616
-1.3905197 0.54195017 -0.8626402 -1.0693592 0.074000485 0.13474023 -1.2087941 0.56795824
0.014976589 1.0254312 0.2210264 1.1679718 0.15207438 -0.9247357 -1.789597 1.0694562
-0.66075045 -1.2642118 -1.5407698 -0.30997154 0.46919137 -1.3761432 -0.49997902 1.8809326
0.24789284 -0.25064287 1.5478835 0.53531414 0.69983697 0.0561709 1.2105328 0.9455087
-0.22872876 1.2129928 1.8484933 -0.4558048 0.17287119 0.12448265 -0.2169354 -1.3421588
-1.4896023 -0.24995244 -0.73043066 0.16223347 -1.0143151 0.9510901 -2.2885315 -0.98192424
-0.5683822 0.619596 -1.7779535 0.15530026 0.3994441 -1.6138874 0.26438206 -0.43720803
0.44399932 -1.6543272 3.5577102 -0.61351836 0.48240945 -0.21769267 1.2063773 2.0797698
-2.1733825 1.3785965 1.6805824 -2.5823097 0.82873297 1.1806821 -0.11365445 0.95449364

model.model.interactions.0.conv_tp_weights.layer1.weight f4 [16, 16]
00000000: 6816 c23e 14b9 a5bf 4b38 07bf 8c09 4e3f
00000010: c00a 043f e753 d53f d82a 5fbe 12e2 16c0
00000020: 9f26 f4be 559c 8d3f bf32 32bf c279 613f
00000030: c13c 1bc0 d9a5 d9bd 7988 02bf eae4 303f
00000040: 86f8 8b3f c394 b8bf b2c7 843f f3d1 9d3e
00000050: 170e 2abe 1d7c 58bf 46d1 193f 1bb5 073f
00000060: 70ef 9b3d 40fd e4bd 523d 753f 8fed b8bf
00000070: 1852 32bb 9ef9 0fbf d4d4 f83e e801 043f
00000080: a7d2 7abc 8fd3 95bf 2908 e7be 8ac9 5e3f
00000090: f40a 40bf e4ff cb3f 0dc6 ddbe ae47 6040
000000a0: b0f1 37bf 881f c43f 2b5d 22be 83ff 87bd
000000b0: 2623 38bf 2082 e03e c08c be3e 47e8 653e
000000c0: 377a 04bf c189 a33f 2b15 b8bd 07d5 56be
000000d0: 7400 86be 29dc 003f c6de 4d3c 9090 073e
000000e0: d3d6 cebf 51fa 0040 df40 0440 2b11 af3e
000000f0: d3ea c83f 4360 41bf e6b5 ec3e 54fb ae3f
00000100: b628 25bf 5904 79bf 5aa6 c93e 664f 1bbf
00000110: 0f84 fcbd 7574 83bf 0bc3 e23e e194 063c
00000120: 9a60 fbbf 9714 91bf 4e8a 46be 903b 823f
00000130: bc06 fe3f 696a 6c3f af94 88be 1069 e33e
00000140: 5b91 97bf 0134 b1bd 031b 53be 2cb1 f9be
00000150: e4c8 c73f c760 6c3f f0dd c8be ed80 41bf
00000160: e5e9 98bf eecb adbf 9047 e23f 700f 703e
00000170: 7ba6 cebe 8919 64bf c323 44bf 8a47 cf3e
00000180: ba45 77bf 2ade 2540 1fe5 b73f 447f 823f
00000190: dc66 513f aa0a 163e 40d5 c6bd b283 a73f
000001a0: d334 c63f cba5 a1bf cf04 45bc 172d 5ebf
000001b0: ae39 d93d 5adf ffbd 6ed4 0ebf 5d67 583f
000001c0: 05f6 dcbe 609e 1dbf 4a7f 1dc0 22bb 163f
000001d0: 9d29 70bf 007b b7be c78a 933e 7f4b 493f
000001e0: b339 b33f 7e93 79bf b287 523f 59e7 a93e
000001f0: 859f 093f 88c4 72be 0041 aabf 114b 49bf
00000200: f596 07c0 2ffc b73f c27c d9bf 6e95 d03f
00000210: bfb1 31bf 2b57 3e3e 84a5 c63f 8b0c 913f
00000220: e6ee abbf ac9b 933e 0f96 1540 8b8f 923f
00000230: 4a60 123f 3606 78b9 c16f f93c 2379 bb3f
00000240: b59f babf f5db 16bf eb2b bbbf 70e7 cabe
00000250: 01aa 21bf bbf2 3340 7f33 163f 4e25 8bbe
00000260: 306c e93e 8291 7dbf 07f1 36bf ef84 943e
00000270: 5419 a43f 4660 0dc0 0bef ed3e 41ab cf3e
00000280: 21e4 aebe 24d8 433e abfb cc3f 0fe7 37bf
00000290: e78b 2d3f 2822 bbbe f164 443d 0450 863f
000002a0: 2f90 723f 202d 8c3e 6839 eb3f 8599 bc3f
000002b0: c40b 49bf 52ab 6dbf 4def 81bf fb96 f63d
000002c0: fc4b a5be 02ff d13f 9852 3f3f 4165 ad3e
000002d0: 09b5 f3be ded6 cfbf 0d8b 6fbf ed9a 883e
000002e0: 46b7 0cbf bb1d 68bf a382 013f 9586 143f
000002f0: 83a9 e3bf e399 603e 0f8b ef3e 6aeb bfbe
00000300: e11a f73d 78b7 013f 99ce ca3e a70c 85bf
00000310: abe4 fa3e d7a2 4e3e 8635 07c0 b421 77bd
00000320: b6b5 85bf 2ad6 65bf 3fef 0ebd f792 fa3e
00000330: cf9d da3f 5798 bdbe f9c4 bb3f 2045 90bf
00000340: 6914 6c3b 3613 f0be 674e b33e 9061 263e
00000350: 1ff3 073f f3d3 4abf b962 90bf 219f 00bf
00000360: 1bd2 51be e037 b4bd 6bd5 31bf adb4 d7bf
00000370: ef05 23be 1dbb ab3e f4a7 c0be a70c 88bf
00000380: d2f8 303f c571 d6be 958c 51bf cf33 2cbf
00000390: a58a 8e3f 3145 3fbf 1158 6b3f 0a01 debd
000003a0: f900 55bf 38f1 df3d e5d9 783f 9b90 a4bf
000003b0: aa5e 8d3e 7141 1e3f cb9b db3e adbb 2b3e
000003c0: 598d 2a3e a54b a33f fdba 013f 0779 b53f
000003d0: 6271 abbe a20f 2d3f 981a 1fbe 6725 03c0
000003e0: 0d6b fabe 9064 3bbf eca4 94be f94e cabe
000003f0: 4074 b23f 9eee 1b3f 5360 bd3e 0684 153f
0.3790772 -1.2947106 -0.5282027 0.8048332 0.51578903 1.666623 -0.21793687 -2.3575482
-0.47685716 1.1063334 -0.6960868 0.8807641 -2.4255831 -0.10627336 -0.5098949 0.69099295
1.0935218 -1.4420398 1.0373442 0.3082424 -0.16606937 -0.8456438 0.6008495 0.5301072
0.076140285 -0.11181116 0.9579669 -1.4447497 -0.0027209576 -0.5624026 0.48599875 0.5156541
-0.0153090125 -1.1705188 -0.45123413 0.87026274 -0.75016713 1.5937467 -0.43315163 3.504375
-0.7185316 1.5322123 -0.15855853 -0.06640532 -0.7192863 0.43849277 0.3721676 0.22451888
-0.51748985 1.2776414 -0.089884125 -0.20979701 -0.2617222 0.5033594 0.01256532 0.1323874
-1.6159309 2.015278 2.0664594 0.34192786 1.5696663 -0.7553751 0.46232527 1.3670449
-0.64515245 -0.9727226 0.3938473 -0.6066803 -0.12329876 -1.0269915 0.4428943 0.008214206
-1.9638855 -1.1334409 -0.19388697 1.0174427 1.9845805 0.9234987 -0.26675937 0.44416094
-1.1841234 -0.08652497 -0.20615773 -0.48767984 1.5608182 0.9233517 -0.39231825 -0.7558735
-1.1946379 -1.3577859 1.7678089 0.23443389 -0.4036139 -0.89101464 -0.7661707 0.40484267
-0.9659077 2.5916848 1.4366797 1.0195088 0.81797576 0.14652506 -0.09708643 1.3087065
1.5484871 -1.2628721 -0.012025072 -0.8678755 0.10606705 -0.12493773 -0.5579289 0.8453272
-0.43156448 -0.61569786 -2.460894 0.5887929 -0.93813497 -0.3583603 0.28816816 0.7863082
1.4001983 -0.9749068 0.82238305 0.33184317 0.5375903 -0.23707783 -1.3301086 -0.7863017
-2.1185887 1.4373835 -1.6991198 1.6295602 -0.69411844 0.1858794 1.5519261 1.1331953
-1.3432281 0.28829706 2.3372838 1.1450056 0.57178175 -0.00023653437 0.030448796 1.4646343
-1.4579989 -0.5892938 -1.4622778 -0.39629698 -0.6315003 2.81169 0.58672327 -0.271769
0.45590353 -0.9905015 -0.7146153 0.2900767 1.282023 -2.209001 0.46471438 0.40560344
-0.34158424 0.1912542 1.6014303 -0.7183694 0.677916 -0.36549497 0.047947828 1.0493169
0.94751257 0.27378178 1.8376894 1.473435 -0.7853358 -0.9283954 -1.0151154 0.12040516
-0.32284534 1.6405947 0.74735403 0.33866313 -0.47599056 -1.6237447 -0.9357155 0.266807
-0.54967153 -0.90670365 0.5058996 0.58017856 -1.7786106 0.21933703 0.4678578 -0.37484294
0.120656736 0.50670576 0.39610747 -1.0394486 0.49002585 0.20179306 -2.1126418 -0.060334876
-1.0446079 -0.89779913 -0.03489613 0.4894025 1.7079409 -0.3703029 1.4669486 -1.1271095
0.0036022908 -0.46889657 0.35020754 0.16248155 0.5310535 -0.7922966 -1.1280128 -0.5024281
-0.20490305 -0.0879972 -0.69466275 -1.6852013 -0.15920232 0.33541194 -0.37628138 -1.0628861
0.6912967 -0.41883674 -0.81855136 -0.67266554 1.1136061 -0.7471495 0.91931254 -0.10840042
-0.8320461 0.10934681 0.9720748 -1.285663 0.27611285 0.61818606 0.42892298 0.16770811
0.16655482 1.275746 0.50675946 1.417756 -0.33484942 0.6760198 -0.15537488 -2.0491579
-0.48909798 -0.7320032 -0.29032075 -0.39513376 1.3941727 0.60910976 0.36987552 0.58404577

model.model.interactions.0.conv_tp_weights.layer2.weight f4 [16, 32]
00000000: c3c1 0a40 fa74 3a3f f40b 86be 1d08 f03f
00000010: b134 2a3e ed76 d3bf 71a6 8c3f f8d2 9d3f
00000020: 755e a33d ed9f a8bf 8dc6 6abf be79 44bf
00000030: a34d f2bc 5e16 9e3f 180d 913e ee98 26bf
00000040: 3970 3c3f 3745 d63e 06ec f33d 169f 8fbf
00000050: 517f 91be 6e8b e9bf cb9c 0340 f4b4 a43f
00000060: 8962 c63d 12e5 1b3f d121 883e aff7 1abf
00000070: cef1 b5be 9cb7 5bbf c2d6 3dbe 3a57 f33e
00000080: 1996 923e 5c2e 3cbf d2b9 663f 571c 5ebf
00000090: dff9 c7bd 5a67 fc3e 5c86 c5bd faf0 ec3e
000000a0: 06f2 493f 5416 0cbf 2c4c 1ebe b22d 2d3f
000000b0: fbf1 fcbe e2d3 0340 fede a83f 5a79 3d3f
000000c0: f53b b5be 369b e5bf a6fc 803f 5a26 f7bf
000000d0: 9b11 33bb 2c16 fdbe 81b0 9bbe 6fef d83f
000000e0: 316c 2dbf d147 ba3f a696 7bbf 65e8 02bf
000000f0: 2bb9 31bf 3948 2f40 d69b b8bd ddd9 813f
00000100: 9ef5 5c3e 5bf1 82be 74ae 94bf 48ee ddbe
00000110: 62d0 943f 5b10 8cbe 9e9b 54bd 0c04 32bf
00000120: 8996 c8be 5f21 5e3f b8f8 913f 8c63 e1bf
00000130: 8c05 e93e 020b dc3d 0899 f1be 7918 8e3f
00000140: c994 69bf 41ec c43f 55a0 4cbf 5ea2 ad3f
00000150: de30 7abf 8d2b d6bf 57da 1d3f 3d3a b13e
00000160: 945a 5fbe c4a5 5cbf 27ca 88bf 675c 6bbe
00000170: abc1 893e 963c a6bf d917 3d3d 8fe7 55bf
00000180: 505e e0bf 6b66 21c0 2548 083e 6ad1 eb3e
00000190: f2fb 28be 4aaa c5bf 58fb a8bf 4309 0740
000001a0: 6ebd 053f 0bfc 9fbf 8a4f f03f 8589 0ac0
000001b0: 9260 373f 94af 08c0 d5e3 553f b408 7cbf
000001c0: 384d ae3f 70d1 803f 224f 08c0 d419 b5be
000001d0: af7d 353d 453f b8be 4cc8 c73d 10a9 ecbc
000001e0: 649b abbf 337c 9bbf 03fa dd3e 5782 2e40
000001f0: ac75 bbbf acf7 40bf a115 c53f 5f7b 3bbf
00000200: b8d9 8b3f f499 433f 9664 5fbf ac11 7abf
00000210: 0b0a 973e 0497 16be 4757 cc3e 8fed b93f
00000220: 096a cb3f 60da 2c3f 3b49 d5bd 9f4b 93bf
00000230: ef61 0a40 5710 9c3e f2e2 9d3e 4fe1 633f
00000240: db9c eb3f fc16 653f 241f 473f 7881 90bc
00000250: a319 85bf 30d5 b1be 5a30 9f3e 34d2 7f3f
00000260: 8b6c a7bf 3fcd c33f 5518 2f3f f1cc d1bf
00000270: 757b e5bd a82e 43bf 3d38 073f 3f22 dc3e
00000280: 77ec 3fbf 78e0 07c0 7a8e 7cbf 38c3 23bf
00000290: 9e1a e4be 232e 283f b9e2 913f 15be d4bf
000002a0: 30be 4cbe bd88 b03d 071d 9e3f ffa9 6b3f
000002b0: 3a6d f83e 6dbc 2e3d cd4c 373b 9961 bfbf
000002c0: 3b21 ef3d c0e7 5cbf e657 34bf f867 163e
000002d0: bef1 733f fa94 7abf 819f 8cbe 8e69 f9bb
000002e0: 5dab e53e e655 94be e21e b5bd a6af 71bf
000002f0: 45d2 c43e 96f5 6bbe 4530 9d3e 1d6e 913e
00000300: 3491 853f bb12 543e 3a8b b03f cd59 e53f
00000310: 32b7 5d3f ca4f bdbd 20bb 61bf 53e0 5fbf
00000320: 24bf d6bd 9238 3ebf ed9e 61be d6f3 b43f
00000330: a961 533e 000d cabf ddea cf3e 0224 143f
00000340: 0628 c13e 1779 19bf 8b0f 85bd bc6f 763f
00000350: e969 3ebf 4283 aa3e f192 10bf d2dd 2dbe
00000360: dd25 3dbf d973 42bf 4512 ef3e 32ad efbf
00000370: 0851 0d3f d158 c43e 396a a2bf 1e28 9cbe
00000380: ecdb a53f 9b87 c23f 87d3 7bbf 0e70 38bf
00000390: 54ef 363f e055 2a40 d5d7 62bf f379 87be
000003a0: 8dd1 d5bf b435 523f a65e 18bf 5b76 8e3d
000003b0: bdb1 8abf 3e49 55bf 8043 58be 3395 463f
000003c0: 293a 97bf c9ca d6bf 807b 3c3f 7011 d93e
000003d0: 4ecc 253e c7cb b9bf d6b5 383f 53a5 89bf
000003e0: 85ab 7fbf afd3 7dbf a322 f23f 3b5b 223c
000003f0: 8814 593e 82e7 edbe 410b 53bf b203 3f3f
2.1680763 0.7283474 -0.26180995 1.8752476 0.16621663 -1.6520668 1.0988294 1.2330008
0.079770006 -1.3173805 -0.91709214 -0.76748264 -0.029578036 1.2350576 0.28330302 -0.650771
0.7360874 0.41849682 0.11910252 -1.1220424 -0.28417447 -1.8245676 2.056445 1.2867723
0.09686763 0.6089641 0.265883 -0.60534185 -0.35536045 -0.8582704 -0.18538955 0.47527486
0.2863014 -0.7350824 0.9012729 -0.86761993 -0.09764456 0.492976 -0.09644768 0.462776
0.78884923 -0.5472157 -0.15458745 0.6764785 -0.49403366 2.0598073 1.3193052 0.7401329
-0.35397306 -1.7937992 1.0077102 -1.9308579 -0.0027323726 -0.49430978 -0.304081 1.6948069
-0.6774321 1.4553167 -0.98276746 -0.51135856 -0.6942317 2.7387831 -0.09014098 1.0144612
0.2157807 -0.25574765 -1.1615739 -0.43345857 1.1626093 -0.27356228 -0.05190622 -0.69537425
-0.3917735 0.8676967 1.1404028 -1.7608504 0.45512044 0.10744287 -0.47187066 1.1101218
-0.91242653 1.5384599 -0.7993215 1.3565176 -0.97730815 -1.6732041 0.61661285 0.34614745
-0.21811897 -0.8619044 -1.0686692 -0.22984467 0.2690557 -1.2987239 0.04616532 -0.83556455
-1.7528782 -2.521876 0.13308771 0.46058208 -0.1650236 -1.5442593 -1.3201704 2.1099403
0.5224217 -1.2498792 1.8774273 -2.1646435 0.7163173 -2.1357164 0.8355077 -0.9845078
1.3617315 1.0063915 -2.12983 -0.35371268 0.044309314 -0.3598577 0.097550005 -0.028889209
-1.3406796 -1.2147278 0.43354806 2.7267053 -1.4645286 -0.7537792 1.5397226 -0.73235124
1.0925817 0.7640679 -0.87262857 -0.97683215 0.2949985 -0.14706045 0.39910337 1.4525622
1.5891734 0.67520714 -0.10414358 -1.1507453 2.1622274 0.30481216 0.30837208 0.8901567
1.8407243 0.89488196 0.7778189 -0.01763986 -1.0398449 -0.34732962 0.31091577 0.9993012
-1.308 1.5297011 0.683965 -1.6390668 -0.11205188 -0.76243067 0.5282019 0.42994878
-0.7497019 -2.1230755 -0.986549 -0.63969755 -0.44551557 0.656954 1.1397315 -1.6620508
-0.19994426 0.08619831 1.2352608 0.9205627 0.48520833 0.042660166 0.002796936 -1.495166
0.1167626 -0.8629112 -0.7044662 0.14688098 0.95290744 -0.9788357 -0.27465442 -0.00761146
0.44857302 -0.28971785 -0.08843781 -0.94408643 0.38441673 -0.23042902 0.3070089 0.28404322
1.0434937 0.2071027 1.3792489 1.791803 0.8660766 -0.09243734 -0.88176155 -0.87451667
-0.10485676 -0.7430507 -0.22033282 1.4136913 0.20642723 -1.5785217 0.40608874 0.57867444
0.37725848 -0.59950393 -0.06497105 0.96264243 -0.74380356 0.33303267 -0.56474215 -0.16979149
-0.738859 -0.7595802 0.46693626 -1.872473 0.5520177 0.38349012 -1.2688667 -0.30499357
1.295774 1.5197634 -0.9836964 -0.7204598 0.71458936 2.6614914 -0.88610584 -0.26460227
-1.6704575 0.82113194 -0.5951942 0.06956168 -1.0835491 -0.83314884 -0.21119499 0.7757141
-1.1814624 -1.6780635 0.73625946 0.42396116 0.16191217 -1.4515313 0.7215246 -1.0753578
-0.99871093 -0.9915113 1.891682 0.009909446 0.21199238 -0.4646569 -0.8243905 0.74615014

model.model.interactions.0.linear.weight f4 [512]
00000000: f166 90bf 2a93 443f b6c7 fb3e ed1e b03f
00000010: 901c 1ebf 8779 8cbf cccf c9be 7602 6cbe
00000020: 9fb5 273d 6da3 69bf 12dc ef3f 5c45 febf
00000030: a7ac b9be 9d14 1dbf 5b12 a33d 0491 02bf
00000040: 23d6 473f 69c5 83bf 8643 463f 5f12 103f
00000050: 0a84 873e 57e7 69bf c0be 38bf a846 8b3f
00000060: cd84 7cbe 187f e43e 8813 893f 5104 a0be
00000070: 0c13 c5bf 34c6 1e3f 47ec 223f ee6e 0f3e
00000080: 94db e3bf 7ab3 dcbe 4d8e a7bf 6673 23bf
00000090: 1cf7 a43e c7e1 21bf e69d 233f c400 ad3f
000000a0: 7da9 55be c533 443f dfc9 f53f cc72 7fbf
000000b0: 9673 32be 060b c5be ea50 0e3f e8de 5d3f
000000c0: 1162 cbbe 0f66 71bf 5db7 b1be 5e41 58bf
000000d0: 5fe6 a83e e166 193f c9b5 8cbf e0ac b13f
000000e0: 66a1 c9bf 1e89 38bd b013 e1bd 497c a1bd
000000f0: f6ec 803f 8625 8f3f 0c5e 11bf 4210 24bf
00000100: 26a2 d73e dcf2 413e fd9e a53f 81e3 8ebf
00000110: d2db 33bf 4856 84be 037c 893e 7cd4 5cbf
00000120: ef5e 193e 4e82 adbe cb71 ca3f 98f0 9dbf
00000130: 72ad 1fbf dd98 4bbf 692f b63e 65db 0640
00000140: a9a6 b4bf 2706 733f cf1c 77be beee a03f
00000150: 117f a6bf 9dfc 933f 57e8 c43f 7b11 8fbf
00000160: d046 a4bf 5b4d f6be 1fbc 8fbc aa05 d2bf
00000170: effb 1b3f dcd8 8abe 1a06 0bbf 9a49 ab3e
00000180: 79fa d93f 9851 e73e f745 f3be 7626 063f
00000190: db95 0abf 30fb 413e 7c37 6fbf a7dc 193f
000001a0: 21ed 83bf 075d a5bc d112 04bf f278 bfbf
000001b0: 7d56 0b3d 854e 7c3e 351f 653e 1a3e 9dbe
000001c0: ee33 72bf c126 793e c72f 4b3f 867c ab3e
000001d0: 121b 0ac0 d7b6 543f cc90 8fbe 3dc8 3f40
000001e0: 75a9 d5be e575 babe 1b30 e0bf e366 593f
000001f0: 552f 22bf 64fc a03e d5e8 abbf 299f 8abf
00000200: 294d 50bf 9d0e 0e3f 14c9 5ebe 4677 47be
00000210: a7d7 9fbd 6a45 07bf 32a6 5a3f e40b d1bf
00000220: 8cc8 33bb 278b 673f c3b4 8cbe e46a c73e
00000230: 8125 ee3f 56f6 dc3f ba67 f1be 4d81 4f3f
00000240: 4935 433e 8d9a 373f f56e e03f c1fb ecbd
00000250: d0d4 77bf b35b d13e 7e10 ba3e faff 093f
00000260: e705 043d 3574 333f a15b 41be e9b5 9bbe
00000270: 947f 283f 1550 43bf 0954 f8be df4f 753e
00000280: 6893 e8bd a503 6b3f a3ef e5bf 6c4a 1840
00000290: 1f79 96bc 5cea 10c0 6da3 d93f 6e84 96bf
000002a0: 0801 d63f fadb f6be c67e a4bd 618d 8cbf
000002b0: e6d7 493e d836 94bf 60ab 143f c168 593e
000002c0: 1581 ddbf a241 c2be 16ed 9b3f ff5e 85bf
000002d0: cbd5 13be 8e94 0dbd 1b09 24be 2132 b33c
000002e0: 5ff4 213d 9451 a63f e7b0 0240 8359 1a3e
000002f0: d5bd 03bf a3dc b83f bb7b d0bd 767f 6abf
00000300: 167a a03e 83b8 85be d8bd f4be ebb1 37be
00000310: f6e9 923d 551c 8f3f 467a 6ebf d54b ce3e
00000320: 0160 9c3f f605 fd3f df14 413f 297b 7a3f
00000330: a548 abbf af00 653d 6ee2 47bf ffb5 8fbf
00000340: 3107 ba3e 4930 83bf 6420 c23f 0903 40bf
00000350: dacf b0bf 5e9a 0140 6e23 91bf d60d 903f
00000360: c26b f7bc d637 bebe 2634 28bf 97ff 18bd
00000370: 063b 213e e23d cebf bc7d 29bf d833 29bf
00000380: 1bd2 893f aa3a 80bf e76f 0d3f ac3e b4be
00000390: 871a 1d3f 58e8 19be b58a ee3f e4e1 32c0
000003a0: f2ad d5bf cdc0 23bf be83 2e3f 9e14 3ebe
000003b0: 244b aabe 53f5 a3bf 6c3a 943f 4c36 0fc0
000003c0: 6cd2 253f 1d08 fb3e f82f 9dbe 99c5 d2be
000003d0: c8aa 2bbf 0e2f 813d ac2f 593e 701e 5e3f
000003e0: 3211 7740 087d ac3e 867e 173f 43c6 afbe
000003f0: 9c9e a8bf c4ff 2140 b0f7 413d a7eb ccbf
-1.1281415 0.76787055 0.49175805 1.3759438 -0.6176233 -1.0974587 -0.3941635 -0.23047814
0.04094469 -0.9126499 1.8739035 -1.9864917 -0.36264536 -0.6135958 0.079624854 -0.51002526
0.7806112 -1.029462 0.7744678 0.5627803 0.26467925 -0.9136862 -0.7216606 1.0880938
-0.24660034 0.44628215 1.0709085 -0.31253293 -1.5396438 0.62021184 0.6364178 0.1400716
-1.7801385 -0.4310568 -1.3090302 -0.6384796 0.3221978 -0.63235134 0.6391281 1.3515859
-0.20865436 0.76641494 1.9202231 -0.9978454 -0.17426905 -0.38484973 0.55592215 0.8666825
-0.39723256 -0.94296354 -0.34710208 -0.8447474 0.3298826 0.59922606 -1.0992976 1.3880882
-1.575238 -0.04505264 -0.10990083 -0.07885034 1.0072315 1.1183326 -0.5678413 -0.6408731
0.42115897 0.189403 1.2939144 -1.1163179 -0.70257294 -0.25847077 0.26852426 -0.86261725
0.1497762 -0.33888477 1.5815977 -1.2339048 -0.6237403 -0.79530126 0.35583046 2.1071408
-1.4113361 0.9493126 -0.24132083 1.2572858 -1.3007528 1.1561466 1.5383404 -1.117721
-1.283411 -0.48105893 -0.017545758 -1.6407979 0.60931295 -0.27118576 -0.54306185 0.3345459
1.7029563 0.4517944 -0.47514316 0.52402437 -0.5413491 0.18943477 -0.9344404 0.60102314
-1.0306741 -0.02018596 -0.5159121 -1.4958785 0.03401803 0.24639328 0.22375186 -0.30711442
-0.9461049 0.2433119 0.7936978 0.3349344 -2.1579022 0.8309149 -0.2804016 2.9965966
-0.41730848 -0.3641807 -1.7514681 0.8492262 -0.6335347 0.3144256 -1.343043 -1.0829822
-0.8136774 0.5549105 -0.21756393 -0.19479093 -0.07804804 -0.5284029 0.85409844 -1.6331754
-0.0027432768 0.90446705 -0.2748166 0.3894874 1.8605195 1.7262676 -0.4714945 0.8105667
0.19063295 0.717202 1.7533861 -0.11571456 -0.968091 0.40890273 0.36340708 0.53906214
0.03223219 0.7009919 -0.1888261 -0.30412224 0.6581967 -0.7629407 -0.48501614 0.2395625
-0.113562405 0.91802436 -1.7963756 2.3795424 -0.018368302 -2.2643042 1.7002999 -1.1759164
1.6719065 -0.48214704 -0.080319926 -1.0980645 0.19711265 -1.1579237 0.58074 0.21231367
-1.7305018 -0.379407 1.2181728 -1.0419616 -0.14437024 -0.0345655 -0.16019098 0.02187449
0.03953969 1.2993646 2.0420473 0.15073209 -0.51461536 1.4442333 -0.1017985 -0.9160074
0.31343144 -0.26117334 -0.4780109 -0.17938964 0.07173531 1.1180521 -0.93155324 0.4029223
1.2216798 1.9767444 0.7542247 0.9784418 -1.3381544 0.055908855 -0.7807988 -1.1227416
0.36333612 -1.024911 1.5166135 -0.7500463 -1.3813431 2.0250468 -1.1338937 1.1254222
-0.03020275 -0.37151974 -0.6570457 -0.037353124 0.15745172 -1.6112635 -0.6620748 -0.6609473
1.0767244 -1.0017903 0.55248874 -0.35204065 0.613686 -0.15030038 1.863608 -2.7950373
-1.6693709 -0.63966066 0.6816977 -0.18562552 -0.33260453 -1.2809242 1.1580329 -2.237689
0.64774203 0.49029627 -0.3070066 -0.4116638 -0.67057467 0.06307803 0.21209592 0.86765194
3.8604245 0.3368914 0.59177434 -0.3433095 -1.3173404 2.5312357 0.047355354 -1.6009415

model.model.interactions.0.linear.output_mask f4 [64]
00000000: 0000 803f 0000 803f 0000 803f 0000 803f
00000010: 0000 803f 0000 803f 0000 803f 0000 803f
00000020: 0000 803f 0000 803f 0000 803f 0000 803f
00000030: 0000 803f 0000 803f 0000 803f 0000 803f
00000040: 0000 803f 0000 803f 0000 803f 0000 803f
00000050: 0000 803f 0000 803f 0000 803f 0000 803f
00000060: 0000 803f 0000 803f 0000 803f 0000 803f
00000070: 0000 803f 0000 803f 0000 803f 0000 803f
00000080: 0000 803f 0000 803f 0000 803f 0000 803f
00000090: 0000 803f 0000 803f 0000 803f 0000 803f
000000a0: 0000 803f 0000 803f 0000 803f 0000 803f
000000b0: 0000 803f 0000 803f 0000 803f 0000 803f
000000c0: 0000 803f 0000 803f 0000 803f 0000 803f
000000d0: 0000 803f 0000 803f 0000 803f 0000 803f
000000e0: 0000 803f 0000 803f 0000 803f 0000 803f
000000f0: 0000 803f 0000 803f 0000 803f 0000 803f
1.0 1.0 1.0 1.0 1.0 1.0 1.0 1.0
1.0 1.0 1.0 1.0 1.0 1.0 1.0 1.0
1.0 1.0 1.0 1.0 1.0 1.0 1.0 1.0
1.0 1.0 1.0 1.0 1.0 1.0 1.0 1.0
1.0 1.0 1.0 1.0 1.0 1.0 1.0 1.0
1.0 1.0 1.0 1.0 1.0 1.0 1.0 1.0
1.0 1.0 1.0 1.0 1.0 1.0 1.0 1.0
1.0 1.0 1.0 1.0 1.0 1.0 1.0 1.0

model.model.interactions.0.skip_tp.weight f4 [6144]
00000000: 449a c43b 598f 83bf f6cf 693e 8807 71be
00000010: d230 44bf 1421 2a3f 84ac d4be 1fa0 473f
00000020: 486f 29be 9d11 23bf 2b39 ec3e c9fe f7be
00000030: 863b 403e c4b1 0cbf d2d4 0a3f 9b0c 013f
00000040: d815 253f d630 e9be f0ab cb3e 6ba8 7cbf
00000050: 20dd a33e b4db 123f 6c31 67bf d6a7 4e3f
00000060: 79d3 58bf 04d8 9c3f 8b58 83bf 7a86 1f3f
00000070: 74e9 e73f 4c8f 443e a2c7 0740 553d cfbe
00000080: 20e4 173f 7d78 a33f 3fa0 383f cec9 ddbf
00000090: e46e aabf 4ab8 263f cc95 45bf d64b 09bf
000000a0: 54d5 01be 2a79 f23f 9dcd 893f 9172 113f
000000b0: ad07 9c3e c0f5 d23f 0f3d 7dbe 4e0e 9a3f
000000c0: 7c48 063e 77c9 81be 9fcf 7b3f d802 413f
000000d0: a3ce 07bf 8d61 4fbf c5ed db3f 3740 433f
000000e0: 5af3 103f afe2 953f f70d b63e 7eb8 ccbf
000000f0: c692 4c3f f3ae 053f 40f1 d5be 0b61 d6be
00000100: 40ec 47bf f932 393e b72c 963f c3bd 723f
00000110: 1199 a73f 6342 363f b297 a8bf 7808 6a3f
00000120: 9f3b 61bf 116c 4a3f d6c1 5f3f 89ab ccbe
00000130: de6b f3bf 0227 653f d26a 1140 69ae 913f
00000140: 27b3 91bf 2125 77be 6444 ca3e 5805 b13d
00000150: fac7 1a3f 1395 043e 0f1a 743d 2a3a 2dbe
00000160: 891e 693f f5d5 053e 660c 0d3e b8f9 81bf
00000170: 6f30 243f 6aa7 2dbe aaad b73f 1dfb 26c0
00000180: fe29 3b3f c8da cb3e 95e4 733e a7a6 443f
00000190: 0e9c 473e b129 11c0 ebbf d3bf ec97 3f3f
000001a0: cfa0 a63e 0661 4dbf a3dd e5bf 58c6 0cc0
000001b0: e3b0 4bbe 2916 673f ddd0 ad3c e07b a43f
000001c0: 8762 673d ed35 463f 6eb6 9a3f 941b 66bf
000001d0: 1fa7 89bf fcfc 103f c872 86bf f269 85bf
000001e0: 8546 aebf 279e 8a3f 101d 933f aa19 69bf
000001f0: 39c3 16bf c626 003f d04b 98bf 3afc 693f
00000200: 42df 973f 4095 953f 4d38 1640 e6a2 c03f
00000210: d70c cebf 8729 2ebf 3c12 d7bb ee4b 7c3f
00000220: 6724 093f ed57 303f b6e1 f2be a2cd 733f
00000230: 641e 3ebf 9b1a e0bf 81b6 4fbe 2609 113f
00000240: a889 7bbf eaef ebbf aa78 3c3f ed34 8bbd
00000250: e18e a2bf 1314 753d 5b6f 183f 1fd9 973f
00000260: af7f 04bf bdac 2040 7896 50bf 3280 9f3f
00000270: 550a febf 209b d4bf b08f e1bf 4cc1 1c3f
00000280: 7c1e fcbf ae63 893f 212d 6abf 1f78 f13f
00000290: 8f67 f33d 48ae bbbf 1eda cd3d 2a7a dd3f
000002a0: 139a 75bf ce28 883f e23b 2f3e 3f38 063f
000002b0: a7c5 3fbf eed2 ecbe bcdc 0e40 0c56 bc3f
000002c0: b8ed fe3e 9b38 89bf a96b 63bd 5ba8 1cbf
000002d0: ede4 42bd 58bc 413f 490d b0bf 703b 8cbf
000002e0: bb20 04c0 c490 433f 1ddd 193f 9978 2a3f
000002f0: 4999 47be eb3c 05c0 f636 dabe adb1 b4be
00000300: 1c04 9fbf db01 20bf 0e52 763f 9f48 573f
00000310: 91a7 1d3f 21f5 4f3e 7841 f73f a383 b4bf
00000320: fd2c ffbe 2806 753f a71e fdbe 3253 d5bd
00000330: e88a 253f 37cf 46bf 4b94 41bd 22a0 4540
00000340: 6a34 08bf 2780 21c0 8d3b 2e3f c3b2 573f
00000350: 6c6c 0fc0 6be2 183e 4d8d 38bf bb3c 8ebf
00000360: 45ae a8bf 9ca1 2fbf d347 0b40 0207 3e3e
00000370: 7845 2c3f 28c1 46bf 9730 acbe eb92 f9bd
00000380: fcfa 3c3f dded 253e 921e 85bf 4a7f 92bf
00000390: ac1b 503e 6c56 d33c fd99 adbe 2353 e53e
000003a0: 9b25 5e3f e900 fcbb fff4 8fbf 1441 de3e
000003b0: 433d 083f 4a2e 4e3f afc0 5d3f 2e65 573f
000003c0: d1f5 9fbe d9c1 febe d0a7 d5bf 8e3e 6cbf
000003d0: c51e a23e 5362 8e3e 54ff 343f 62d3 503f
000003e0: 504e d03f f955 39c0 b987 1dbe 82f9 cc3f
000003f0: fcda bc3e 002f b9be 0632 45bf a009 fd3e
0.005999835 -1.0278121 0.22833237 -0.23538029 -0.76636994 0.66456723 -0.4153787 0.779787
-0.16546357 -0.6369875 0.46137366 -0.48436573 0.18772706 -0.5495875 0.5423099 0.5040986
0.64486456 -0.4554507 0.39779615 -0.98694485 0.32004642 0.5736649 -0.90309787 0.8072485
-0.8469768 1.2253423 -1.0261396 0.6231457 1.8118119 0.19195288 2.1215596 -0.4047648
0.59332466 1.2771145 0.72119516 -1.7327211 -1.3315091 0.6512495 -0.77181697 -0.5363134
-0.12679034 1.8943226 1.0765873 0.5681544 0.30474606 1.6481247 -0.24730323 1.2035615
0.13113588 -0.25349018 0.9836368 0.75394964 -0.5304968 -0.81008226 1.7181937 0.7626986
0.56621325 1.1709803 0.3555753 -1.5993803 0.7991146 0.52220076 -0.41785622 -0.41870913
-0.78094864 0.18085851 1.1732396 0.94820803 1.3093587 0.7119505 -1.3171294 0.9141917
-0.879816 0.79071146 0.87405145 -0.3997462 -1.9017293 0.89512646 2.2721448 1.1381351
-1.1382798 -0.24135257 0.39505303 0.08643597 0.6046139 0.12947492 0.059595164 -0.16916719
0.9106222 0.130699 0.13774261 -1.0154333 0.64136404 -0.16958395 1.4349873 -2.6090767
0.7311095 0.39815354 0.23817666 0.7681679 0.19493124 -2.2681696 -1.6542944 0.7484119
0.32544562 -0.8022617 -1.7958263 -2.199606 -0.19891696 0.9026819 0.021217758 1.2850304
0.056490447 0.77426034 1.2086923 -0.8988583 -1.0754126 0.56636024 -1.0503778 -1.0422957
-1.3615271 1.0829514 1.1493244 -0.91054785 -0.58891636 0.50059164 -1.1898136 0.9140049
1.1865008 1.1686172 2.3471863 1.5049713 -1.6097668 -0.68032116 -0.006563453 0.9855336
0.5357117 0.68884164 -0.4743783 0.95235646 -0.7426512 -1.7508119 -0.20284463 0.56654584
-0.9825692 -1.8432591 0.7362162 -0.06797204 -1.2699853 0.059833597 0.59544915 1.1863135
-0.5175733 2.510543 -0.814796 1.2460997 -1.9846903 -1.660984 -1.7621975 0.6123245
-1.9696803 1.0733545 -0.9147511 1.8864783 0.118849866 -1.4662561 0.10051368 1.7302907
-0.95938224 1.0637453 0.17112687 0.52429575 -0.7491097 -0.46254677 2.2322226 1.471376
0.4979074 -1.07204 -0.055522595 -0.6119439 -0.047581602 0.75678015 -1.3754054 -1.0955639
-2.0644977 0.7639277 0.6010302 0.6659027 -0.19492067 -2.0818431 -0.42620057 -0.35291806
-1.2423129 -0.6250283 0.96218956 0.84095186 0.6158381 0.20308353 1.9316854 -1.4102672
-0.4983901 0.9571252 -0.49437448 -0.10416259 0.6466508 -0.77659935 -0.047260564 3.0878987
-0.5320498 -2.5234468 0.6805962 0.84257144 -2.2409925 0.14930122 -0.7209061 -1.1112283
-1.3178183 -0.6860597 2.1762588 0.18557361 0.672935 -0.77638483 -0.3363082 -0.121862255
0.7382047 0.16204019 -1.0399954 -1.1445096 0.20323056 0.025798045 -0.33906546 0.4478999
0.8677613 -0.007690538 -1.1246642 0.43409026 0.5321848 0.8053938 0.86622137 0.8413876
-0.3124223 -0.4975727 -1.6691837 -0.9228295 0.316641 0.2780939 0.707021 0.81572545
1.6273899 -2.8958724 -0.15383805 1.6013644 0.36885822 -0.3616867 -0.77029455 0.49421406

model.model.interactions.0.skip_tp.output_mask f4 [64]
00000000: 0000 803f 0000 803f 0000 803f 0000 803f
00000010: 0000 803f 0000 803f 0000 803f 0000 803f
00000020: 0000 803f 0000 803f 0000 803f 0000 803f
00000030: 0000 803f 0000 803f 0000 803f 0000 803f
00000040: 0000 0000 0000 0000 0000 0000 0000 0000
00000050: 0000 0000 0000 0000 0000 0000 0000 0000
00000060: 0000 0000 0000 0000 0000 0000 0000 0000
00000070: 0000 0000 0000 0000 0000 0000 0000 0000
00000080: 0000 0000 0000 0000 0000 0000 0000 0000
00000090: 0000 0000 0000 0000 0000 0000 0000 0000
000000a0: 0000 0000 0000 0000 0000 0000 0000 0000
000000b0: 0000 0000 0000 0000 0000 0000 0000 0000
000000c0: 0000 0000 0000 0000 0000 0000 0000 0000
000000d0: 0000 0000 0000 0000 0000 0000 0000 0000
000000e0: 0000 0000 0000 0000 0000 0000 0000 0000
000000f0: 0000 0000 0000 0000 0000 0000 0000 0000
1.0 1.0 1.0 1.0 1.0 1.0 1.0 1.0
1.0 1.0 1.0 1.0 1.0 1.0 1.0 1.0
0.0 0.0 0.0 0.0 0.0 0.0 0.0 0.0
0.0 0.0 0.0 0.0 0.0 0.0 0.0 0.0
0.0 0.0 0.0 0.0 0.0 0.0 0.0 0.0
0.0 0.0 0.0 0.0 0.0 0.0 0.0 0.0
0.0 0.0 0.0 0.0 0.0 0.0 0.0 0.0
0.0 0.0 0.0 0.0 0.0 0.0 0.0 0.0

model.model.products.0.symmetric_contractions.contractions.0.weights_max f4 [24, 1, 16]
00000000: e703 66bf 2473 b4bf 32c8 20bf fd41 6ebe
00000010: 7adb bfbf e573 ed3e 84ea cbbe a39d 5f3e
00000020: 931b bdbe e413 20bf f4b4 fe3d 9369 86bd
00000030: 3139 103f 008f 83bf 6cb3 bcbe 45f6 0f3e
00000040: 5066 a2bf 92a3 1cbe 7a36 703f 162c 893e
00000050: 367a 303f e26e 45bf cd76 2bbe 150a 93bf
00000060: 671d 29be 2f0b 273e d577 c7bf d0db ad3d
00000070: 44b1 603f f9fa b53f 216b 123e bac8 4b3f
00000080: 9784 99bf be42 9dbd 51de 3bbf 07c3 b8bf
00000090: 0128 bfbe 5bd7 2b3e ce2b c2be 27ec 03c0
000000a0: 5b03 553e c72b 89be 8603 16be 0fd6 ad3e
000000b0: 0786 7bbe c3d2 95be e70c 9e3d 60de 453f
000000c0: f3aa 073f 1c1e a9bf e180 a13d 4cf7 acbf
000000d0: 2cef 21bf c775 d83e 3961 97be 1227 b23f
000000e0: bf44 71bf c962 563e 4e2a ac3e db75 1040
000000f0: eeb4 8cbe 3d9a f6be 9a4e 53bf 01fe 8e3d
00000100: 4ad5 f1be 74a1 99bf 901b 0ebf 600c 9abe
00000110: a13a 29bf 09ed 0a3e 0d22 533d dc48 b63e
00000120: 1077 9b3f f155 1e3f cdb9 dcbd 070a 16be
00000130: 5364 dabf 35cb 89bf a8d6 8abc 7ae9 eabf
00000140: b1cd d2be 1449 813f af3d e93d 4455 d5bf
00000150: 2f2b d93c f3dd 183f a0db 143f 922e 883f
00000160: 69d2 a0bf c70b 2640 2a30 c9bf 4bcf 24bf
00000170: 240e d83d 5493 ba3e e8a5 1f3f 0038 583f
00000180: 9cb1 72bf ed4f b7bf 2a9a d0be 2f4a 9dbf
00000190: 2b70 8d3f 7d54 1b40 37bc a63e 4f61 893f
000001a0: 64b7 873f bf08 4bbf a1e4 383f 9bd5 9e3f
000001b0: bca3 f8be fd14 1cbc 2d16 6bbd 2df8 1a3f
000001c0: bfaf e13f b7ec 8fbf 4a28 c5bf 6112 14bf
000001d0: af95 b3be f009 683e 57e8 213f be7c b93e
000001e0: 9bd6 b3be 736a 3dbd ccfe 07c0 f83e f93e
000001f0: a9c1 22c0 b342 c63d 59bd 253e 0128 c43e
00000200: 2dfc 73bf d9d7 38bf 6a09 9ebf 4605 7cbd
00000210: 950a 51bf c66e a0bf 6dd7 afbf 69cc bb3e
00000220: ce6d 9f3f f850 843c 28c8 953f ffbc e53e
00000230: 44fd 0bc0 9e4c c3bf f8d1 203f 765e c4bd
00000240: 3bdd a83f 42d7 1040 c20e 183f ce69 eabe
00000250: 4351 013f adf7 f53e 5591 b3bf 0a8c 4c3e
00000260: e5f3 33bf a001 0abf 602f 2bbf 28c6 f3be
00000270: e645 b7bf f3a8 663f 92cd 67be 6dcd f7bf
00000280: eb24 58be 18dd 32be 6605 93bf ef76 423d
00000290: 7160 5c3f 72ef 723f d021 363f 9211 24bf
000002a0: bcfc 6bbf 3e5e fb3f 9528 1cbf 1009 2a3e
000002b0: b13c 7e3f 3e79 37bf 0b3e bc3f 38f0 aa3c
000002c0: 0cfc b43f 516e 94be dc1a cc3f 6831 333f
000002d0: 2a02 1ec0 4285 9ebf 71f8 edbd 72c7 a4bf
000002e0: 5142 cdbe 8434 a23f 2c46 e73f 92c8 af3e
000002f0: b1d4 3cbe 1f27 dfbe 0b7b 8f3f f3bf 8dbf
00000300: d629 803f 023c 56bf c8e3 eabd 6a45 dd3e
00000310: d246 5140 d626 4fbe 615d a1bf 330a 21bf
00000320: e6bd db3e 42c1 143f 3e65 efbd f3dc b0bf
00000330: 3934 43be e16f f1be 86c6 e13f f6b6 81bf
00000340: c576 b23f 5c5e 52bf b491 b53f d2be d43d
00000350: ff4f ad3f be25 4d3f c715 38bf e659 8b3f
00000360: 6323 043f 869a 923f 0ae6 35bf 47cb 583f
00000370: 9b96 adbc 56a6 79bf b946 79bf 60e4 82bf
00000380: 79e2 6d3f f474 93ba e84a 60be a176 ff3f
00000390: 8a9e 03c0 023c b23e d2dd 0c3f 7ef3 01c0
000003a0: 79b7 d83f 962b 5cbf 788a f1bd fe34 113f
000003b0: 2a43 663f 6b32 8e3f da3e 2fbe ac0f 9f3f
000003c0: b0e5 ab3f c2d8 433f 3312 8ebd eb99 15c0
000003d0: 54fa 7dbf f594 4fbf 6367 e7bf a60f b83f
000003e0: 918f f23d ff5b 313f f4fb 5a3f cf91 d0bf
000003f0: 3f54 c4be c06a 51bf 06a1 5abf 0374 833f
-0.89849705 -1.4097638 -0.62805474 -0.2326736 -1.4988854 0.46377483 -0.3982736 0.21837477
-0.369351 -0.6253035 0.12436858 -0.065631054 0.5633727 -1.0278015 -0.36855638 0.14058788
-1.2687473 -0.15296772 0.93833125 0.26791447 0.6893648 -0.7712232 -0.16744538 -1.1487452
-0.16515122 0.1631286 -1.5583445 0.084891915 0.87770486 1.4217216 0.14298679 0.7960316
-1.1993588 -0.07678746 -0.733861 -1.4434518 -0.37335208 0.1678137 -0.37924045 -2.0612886
0.20802061 -0.26791212 -0.14649782 0.33952376 -0.24562846 -0.2926236 0.07717305 0.7729244
0.5299522 -1.3212314 0.0788591 -1.3512969 -0.6325557 0.42277357 -0.29566363 1.3918173
-0.94245523 0.20936121 0.33626026 2.2571933 -0.27481788 -0.4816455 -0.8254181 0.06982041
-0.4723304 -1.2002397 -0.5551081 -0.30087566 -0.66105086 0.13566984 0.051546145 0.35602462
1.214571 0.61849886 -0.10777626 -0.14652263 -1.7061867 -1.0765139 -0.01694806 -1.8352501
-0.41172555 1.0100427 0.11388718 -1.6666646 0.02650985 0.5971367 0.5814762 1.0639212
-1.2564212 2.5944688 -1.5717824 -0.64378804 0.10549572 0.36440527 0.6236253 0.8446045
-0.9480226 -1.4321266 -0.40742618 -1.2288264 1.1049856 2.4270318 0.32565472 1.0732821
1.0602841 -0.7931022 0.7222386 1.2408937 -0.4856242 -0.009526488 -0.057394195 0.60534936
1.7631758 -1.1244115 -1.540292 -0.57840544 -0.35075137 0.22660041 0.6324515 0.36227983
-0.35124668 -0.046244096 -2.1249266 0.48680854 -2.54307 0.096806906 0.16185512 0.3831177
-0.95306665 -0.7220436 -1.2346623 -0.061528467 -0.8165677 -1.2533805 -1.3737618 0.3667939
1.2455385 0.01615189 1.1701708 0.44870755 -2.187333 -1.5257757 0.62820387 -0.095883295
1.3192514 2.2631383 0.5939752 -0.45783848 0.5051462 0.48040524 -1.4028727 0.19975296
-0.7029403 -0.5390873 -0.66869164 -0.4761212 -1.4318206 0.90101546 -0.22637013 -1.9359566
-0.21107833 -0.17467153 -1.1486022 0.047476705 0.8608466 0.94896615 0.71145344 -0.6408931
-0.9218252 1.9638135 -0.60999423 0.1660502 0.9931136 -0.71669376 1.4706434 0.020866498
1.4139419 -0.28990415 1.5945697 0.6999726 -2.468882 -1.2384417 -0.11619652 -1.2873366
-0.40089658 1.2672276 1.806829 0.3433271 -0.1844051 -0.43584535 1.1209425 -1.1074203
1.0012767 -0.83685315 -0.11469227 0.4321702 3.2699475 -0.20229658 -1.2606622 -0.6290619
0.4291832 0.5810739 -0.11689232 -1.3817428 -0.1906289 -0.4715567 1.763871 -1.013396
1.3942496 -0.8217523 1.418509 0.103879586 1.3540038 0.80135715 -0.7190823 1.088681
0.51616496 1.1453407 -0.71054137 0.84685177 -0.021189978 -0.97519433 -0.9737354 -1.0225945
0.92923695 -0.0011250065 -0.21903574 1.9958078 -2.0565515 0.34811407 0.5502597 -2.0304866
1.6930991 -0.86004007 -0.11793989 0.56721485 0.89946234 1.1109136 -0.1711382 1.2426658
1.342947 0.7650262 -0.06937065 -2.3375194 -0.99210095 -0.81086665 -1.8078426 1.4379776
0.11843789 0.69281 0.855407 -1.6294497 -0.38345525 -0.8180351 -0.8540195 1.0269779

model.model.products.0.symmetric_contractions.contractions.0.U_matrix_1 f4 [4, 1]
00000000: 0000 803f 0000 0000 0000 0000 0000 0000
1.0 0.0 0.0 0.0
