tests/continuity/training_ckpts/painn_train.ckpt (torch, 250056 bytes, 72 tensors)

model.model.embedding_layer.weight f4 [25, 32]
000000 1c 25 a6 3e 76 ad 10 c0 65 dc 10 bd 2c 75 07 3e
       0.32450187 -2.2605872 -0.035366435 0.13228291
000010 0f d0 aa 3f e7 9d 1e c0 f9 e3 6a bf f9 a9 1f 3f
       1.3344744 -2.4783876 -0.9175411 0.6236873
000020 50 f0 70 be 2f 1a 1a 3f 5a b6 83 bf 73 f0 39 bc
       -0.23529172 0.60196203 -1.0290024 -0.0113488315
000030 2b b9 3a 3f 1c 48 32 3e e1 38 ff 3c 6b 23 b3 3d
       0.72938794 0.1741032 0.031155052 0.0874699
000040 b1 bf 41 3f de 4d 96 bf 47 fd 29 3f fd e1 b7 3f
       0.7568312 -1.1742513 0.66402096 1.4365841
000050 c8 cb 80 3d 15 96 3e 3f 12 8b 82 bf 86 00 b7 bf
       0.06288868 0.74447757 -1.0198691 -1.4297035
000060 0f a3 ac bf 76 3e 2c bd b9 7b 55 bf e1 01 53 bf
       -1.3487262 -0.042051755 -0.8339191 -0.8242474
000070 5e ec 9b be dd aa b1 be c0 46 ec 3e be 00 fc be
       -0.3045377 -0.3470067 0.46147728 -0.49219316
000080 5d 96 4d bf 58 4b 0b 3f 6a ab 40 3d fc 34 d0 bf
       -0.8030756 0.5441184 0.047038473 -1.626617
000090 a1 dc 72 3f 61 7b 8d 3e 41 62 8f bf cb 0b f4 bf
       0.94867903 0.27633193 -1.120186 -1.9066099
0000a0 94 75 b5 be 5b e7 5e bd f4 d2 12 bf b9 77 f4 3c
       -0.35441267 -0.054419857 -0.5735314 0.029842244
0000b0 32 c1 2a be ab bd 16 bf 15 62 a8 bf 00 58 60 3f
       -0.1667526 -0.5888316 -1.3154932 0.8763428
0000c0 58 b2 d5 3f 3c 41 08 bf 5e 09 15 bf 1c 5b f4 be
       1.6695051 -0.5322454 -0.5821742 -0.4772576
0000d0 f5 b9 eb 3e f1 b9 1b bf 61 c2 71 3f 87 64 69 be
       0.4604031 -0.608306 0.94437224 -0.22792254
0000e0 d6 bb 7b 3e cf cb c6 3d a1 0b 84 3f 1b 25 83 3e
       0.24583372 0.09706842 1.0316049 0.25614247
0000f0 52 e9 db be 0e 9d 58 bf 6f 66 ac bf 53 1d ad be
       -0.42951447 -0.84614646 -1.346876 -0.33811435
000100 b8 2b 90 3f 54 c8 d5 3e 54 89 15 c0 4f f4 fe 3e
       1.1263342 0.417544 -2.3365068 0.49795768
000110 af 92 d8 bf d8 bb d4 3f f1 fb f4 be 8a 07 ef bf
       -1.6919764 1.6619825 -0.47848466 -1.8674176
000120 9f 24 0c c0 89 76 25 c0 9d 2c ce 3f d9 ad da bf
       -2.1897352 -2.5853598 1.6107365 -1.7084304
000130 27 6b 9c bd 27 64 39 3f c9 5b 64 bf be 15 e5 3f
       -0.07637625 0.72418445 -0.89202553 1.789726
000140 1d 88 fe 3d 64 95 1e bf 79 b0 78 3e 29 06 f8 be
       0.12428305 -0.619467 0.24286069 -0.484422
000150 f8 8a a8 be 48 5f 09 bf 9f dd 25 3f b0 52 99 3e
       -0.32918525 -0.5366101 0.6479129 0.29945898
000160 14 b1 8f 3f 3e 39 f6 3c db 44 9d be 69 a5 68 bf
       1.1225915 0.030056592 -0.30716595 -0.90877396
000170 9e 0b 3f bf e7 82 cf be 5b 40 75 3f 5b 20 15 bf
       -0.746271 -0.40529558 0.95801324 -0.58252496
000180 d4 75 58 3f ec 48 32 3f 12 59 48 3f 17 40 d5 3e
       0.8455479 0.6964252 0.7826091 0.4165046
000190 66 50 88 bf 97 9d 73 3f ff 3d 52 3f 8b 64 30 bf
       -1.0649536 0.9516234 0.8212585 -0.68903416
0001a0 3c 7b 4a 3e 69 d8 6c 3e 58 d4 90 3f b5 f2 87 be
       0.19773573 0.23129429 1.1314802 -0.26552358
0001b0 b5 3b ad 3d c2 23 a9 3f 9b 0c 65 3f 53 f7 d6 be
       0.08458654 1.3214037 0.8947236 -0.41985568
0001c0 41 60 c1 3f 91 a9 88 be be 06 02 bf ca db 89 3f
       1.5107499 -0.2669187 -0.5079154 1.0770199
0001d0 fb 9e 9e 3f 37 72 40 3f 2f 0b 0d bf 07 d9 46 3f
       1.2392267 0.7517428 -0.5509519 0.7767491
0001e0 2a 70 1c 3e 38 89 8d 3f f0 9b 15 bf f9 1b 22 3f
       0.15277162 1.1057501 -0.58441067 0.6332393
0001f0 5a f9 91 3f ff 00 6e 3e ba c4 87 be 6c 55 da bf
       1.1404221 0.23242567 -0.26517278 -1.7057319
000200 c7 57 a0 3e 7d 14 6d bf c9 da 73 3c e5 37 e5 bf
       0.3131697 -0.9260939 0.014883705 -1.7907683
000210 f1 5a 33 3f 86 06 04 be 8d d4 a0 3f eb 55 56 bf
       0.7006064 -0.12893113 1.2564865 -0.8372485
000220 ea 2d 22 3f 13 4a 81 bf 66 af 2b bf d1 6d cf 3f
       0.6335131 -1.0100731 -0.6706451 1.6205388
000230 28 e0 9e 3e f6 d4 09 3f 87 c7 65 bf 01 49 f9 3e
       0.31030393 0.5384058 -0.8975758 0.4868851
000240 5e ee e5 bf c0 a6 b2 bf 71 2a c3 3d 9c 63 6e 3e
       -1.7963369 -1.3957138 0.095295794 0.23280185
000250 dc 7c 00 be f9 61 19 3d fb 15 e1 3f 60 53 a5 3d
       -0.1254763 0.03744695 1.7584833 0.08072543
000260 e0 dc 01 40 05 c1 f1 be 53 2e 1e 40 26 50 89 3f
       2.0291061 -0.47217575 2.4715774 1.0727584
000270 59 c5 85 3f 52 b2 8d 3f c8 5e 81 3f 01 3d bf bf
       1.0450851 1.1070044 1.010705 -1.4940492
000280 6b a5 81 be 72 52 82 be b2 f7 7b 3d 15 68 cb 3e
       -0.25321516 -0.25453526 0.061515518 0.39727846
000290 34 46 65 be d7 73 c1 be d3 e1 30 3f a4 28 62 be
       -0.22390062 -0.3778369 0.6909458 -0.22085816
0002a0 18 22 a6 3f 79 d5 ad 3f a7 2b e6 3f 77 b7 30 be
       1.2979155 1.3580772 1.7982072 -0.17257486
0002b0 b4 a3 d6 bd 1e b6 39 be 7f de 70 bf d7 ca 29 bf
       -0.10480443 -0.18135878 -0.940895 -0.66325134
0002c0 e8 61 60 bf cf bc 82 3f f3 34 a5 bd b9 ae 2d bf
       -0.87649393 1.021387 -0.0806674 -0.6784473
0002d0 f0 6a 06 bf 94 78 4d 3e 1f 71 18 3e ab 66 15 bf
       -0.52506924 0.20065528 0.14886902 -0.58359784
0002e0 00 41 35 c0 c8 4a a7 bf 45 8f de bf 37 d4 7f bf
       -2.8320923 -1.3069696 -1.7387472 -0.9993319
0002f0 39 aa 31 3f ca ec 8d 3f da 65 25 bf a7 ac 33 3f
       0.69400364 1.1087887 -0.6460854 0.7018532
000300 71 86 42 3f d6 9e 8e 3e 37 f5 e1 3e 5f fc 60 bc
       0.7598639 0.27855557 0.44132397 -0.013732045
000310 4f 24 10 40 88 b7 df bf e2 4c c1 bf 40 d4 8d be
       2.252216 -1.7477884 -1.5101588 -0.27700996
000320 24 1e fe 3e fb 59 58 bf a7 9d 5d bf d0 0c 43 bf
       0.4963237 -0.845123 -0.86568683 -0.76191425
000330 7b b6 48 3f e1 a5 e1 3e a5 b8 f5 bf f4 25 b6 bf
       0.78403443 0.44071868 -1.9196974 -1.4230332
000340 7c 7d a5 bf 05 0f b5 3d 33 34 0c bf ad 36 68 be
       -1.292892 0.088407554 -0.5476715 -0.22677107
000350 78 e0 e8 3f cc fb 11 be 53 4c 67 be b4 59 ca 3e
       1.8193502 -0.14256209 -0.22587709 0.39521563
000360 8c 2d a4 3f 40 a5 0d bf 0e af 70 bf 95 51 6d 3e
       1.28264 -0.55330276 -0.9401711 0.23175652
000370 cd 6c 53 3f fd 96 33 bf 12 cd a7 bf 3d dc 2e bf
       0.8258789 -0.70152265 -1.3109457 -0.68304807
000380 02 f4 29 3f d7 0c 93 3e 85 7b 80 bd c3 52 21 bd
       0.6638795 0.28720734 -0.062735595 -0.03938557
000390 f0 13 95 be c9 c4 e4 3d 33 fa d8 3f 0a fe 7e 3f
       -0.29116774 0.11170346 1.6951355 0.9960638
0003a0 41 6c b6 be b4 2c a8 be d5 ed 9c bf 7e ba 06 3f
       -0.35629466 -0.32846606 -1.226008 0.52628314
0003b0 3e 88 1d bf 71 59 0a bf 73 5d 96 be 96 2d 18 bf
       -0.61536014 -0.54042727 -0.2936817 -0.5944456
0003c0 83 e8 4f bf 9a eb cc bb 87 14 a8 3f 53 45 02 c0
       -0.8121416 -0.006253672 1.3131264 -2.0354812
0003d0 05 6a 19 c0 f4 99 40 be 32 b1 2f bf b1 35 2d 3f
       -2.397096 -0.18808728 -0.68629754 0.6766005
0003e0 61 df 44 3c fe 05 6e bf 4b c8 2d 3d 8e 93 5c 3f
       0.012016148 -0.92977893 0.042427342 0.8616265
0003f0 81 08 93 3f 03 cd 0d 3f 59 04 9d 3f 54 6d a4 bf
       1.148697 0.5539095 1.2266952 -1.2845864

model.model.interaction_blocks.0.interatomic_context_net.0.weight f4 [32, 32]
000000 15 da b2 bd ec f1 0c 3d 7c a5 9b 3e 13 ec 96 be
       -0.08733002 0.034410402 0.30399692 -0.29476985
000010 ad be e2 3d fc 7c 49 bd 48 d9 8e be 56 c5 cc 3d
       0.11071525 -0.04919146 -0.27900147 0.09998576
000020 02 63 5e 3e c0 4b 7c bd cd 6e 73 3d 7d c8 7a be
       0.21717456 -0.06159568 0.05943184 -0.24490543
000030 29 83 46 3e dc 2f e2 bd 82 5d 7a be d7 70 c8 bd
       0.19385971 -0.11044285 -0.24449733 -0.097871475
000040 f2 4e e0 bc 0e ad 64 be 3e da d3 3c 9a 79 9a bc
       -0.027381394 -0.2233164 0.025860902 -0.018856812
000050 a1 06 8b 3e 41 11 a7 3d 9e f5 57 3e 6c 30 5c bd
       0.27153495 0.08157588 0.2108979 -0.053757116
000060 6d c4 90 bc 80 98 09 be 06 74 0c 3e 71 c9 c6 bc
       -0.017671788 -0.1343708 0.13716134 -0.024265977
000070 6d ae ec 3c da 08 49 be 4d 86 1e be 04 96 40 bc
       0.028891766 -0.19632283 -0.15480919 -0.0117545165
000080 e0 40 b7 bd 20 87 3c be c2 73 11 be 96 47 71 3e
       -0.08947921 -0.18410921 -0.14204314 0.23562464
000090 94 b5 ad bd b1 3a 73 3d 1f 8d d2 3d 9e 66 44 3e
       -0.08481899 0.059382144 0.10280823 0.1917977
0000a0 38 ba 31 3e df 70 8e 3e dd 9e bc 3c 7e a0 44 3e
       0.17356193 0.2782049 0.02302497 0.19201848
0000b0 c7 d2 96 3e 4f 43 53 be 72 6a 7e be 96 db 9d bd
       0.29457685 -0.20631145 -0.24845293 -0.07707898
0000c0 cf 7a 91 be 7f f0 21 3e f9 8e 5d 3d 60 6a 35 be
       -0.28414008 0.15814398 0.054091427 -0.1771636
0000d0 69 8d 28 be 6d 6e f5 3d 4a 34 f2 3c b1 41 73 be
       -0.16460194 0.11983953 0.029565949 -0.23755528
0000e0 e7 1f e6 bd cb a0 35 3e 74 46 28 bd aa fb 20 bc
       -0.11236554 0.17737119 -0.041082814 -0.009825626
0000f0 52 db 11 be cb eb 92 be 4f 3b 96 3d 25 b0 e8 3d
       -0.1424382 -0.2869552 0.07335531 0.11361722
000100 be b0 c6 bb 57 10 59 3e 86 b6 57 3e b5 76 e6 3d
       -0.00606355 0.2119764 0.21065721 0.1125311
000110 98 64 44 3e fb b4 07 be 04 ff 58 3e 5b eb cd bc
       0.19178998 -0.13252632 0.2119103 -0.02513664
000120 2e 55 fc bd 39 b2 61 bd 3d 5d 90 be 17 9f 9e 3c
       -0.12320934 -0.055101607 -0.28196135 0.01936297
000130 21 57 15 be 0d 8f 90 be b5 ae 13 3e 03 fc 5a 3e
       -0.14584018 -0.2823414 0.14422114 0.21385197
000140 2e f5 5b be af 6c 72 3e 5b 76 9c 3d 10 0c b2 bd
       -0.21480247 0.23674272 0.07639762 -0.08693707
000150 10 8f 87 bd 98 d4 5a be e4 cb b0 3d 80 fb 6f be
       -0.06619084 -0.2137016 0.08632639 -0.23435783
000160 f6 9a 24 3e c7 1d 58 be cc f2 c7 bc 52 1c 5f be
       0.16074738 -0.21105109 -0.024407767 -0.21788147
000170 55 13 1c be 8e cd 1d bd 89 48 3c be 52 6d c4 3d
       -0.1524175 -0.03852611 -0.18387045 0.09591164
000180 13 d6 39 3e 81 d7 07 3e 16 30 2a be 93 55 3a 3d
       0.18148069 0.13265802 -0.16619906 0.045491766
000190 f5 1b 54 bd bc 78 88 3c 44 ee 11 bd fb f2 8d be
       -0.051784474 0.016659133 -0.03562762 -0.27724442
0001a0 43 18 2e 3e 0d 01 51 be 81 60 99 be 11 cd 85 3e
       0.17001443 -0.20410557 -0.2995644 0.26133016
0001b0 9e 20 0f be f1 2b 39 3e a8 95 99 be 15 fe 01 3d
       -0.13977286 0.18083169 -0.2999699 0.031736452
0001c0 90 27 6e 3e 75 bf 81 3e 2e a6 0e 3e f0 71 8a 3e
       0.2325728 0.25341383 0.1393058 0.27040052
0001d0 0b 03 4b be 5c e8 95 be 84 77 9a 3e 00 55 f2 3d
       -0.1982538 -0.2927884 0.30169308 0.11832619
0001e0 c0 f7 02 bc b6 3e a4 bd 8b 0a 99 3d 24 32 03 3d
       -0.0079936385 -0.08019774 0.07472714 0.03203024
0001f0 74 54 54 be 31 a5 40 be fe 42 d7 3c eb ac 93 be
       -0.20735341 -0.18813016 0.026277062 -0.28842863
000200 26 61 b5 3c e0 21 11 be 9d a6 3b be 80 cf 0a be
       0.02214105 -0.14173079 -0.18325277 -0.13555717
000210 43 8f e7 3b 93 8b 0d bd 6c 34 8b be b1 06 51 3e
       0.0070666387 -0.034556936 -0.27188432 0.20412709
000220 8b f4 a8 3d de 90 93 bc 5d d2 85 be 16 82 5e be
       0.08249768 -0.018013414 -0.26137057 -0.21729311
000230 72 e2 81 be 2e 82 89 3e 36 10 42 3e 79 df b4 bd
       -0.25368077 0.26857132 0.18951496 -0.088316865
000240 ed 09 97 3e e9 85 18 be 14 28 24 be 6d 32 39 be
       0.2949976 -0.14894833 -0.16030914 -0.18085642
000250 53 ec 9b be 79 43 ba bd 0b 08 d5 bc 81 76 f6 3d
       -0.3045374 -0.09094901 -0.026004812 0.120343216
000260 d4 87 f7 bd 2b 56 44 bd 37 b4 00 3d da 55 98 3d
       -0.12086454 -0.04793374 0.031421866 0.0743825
000270 df 32 27 be c3 1c 4e bd 0a 81 b3 bd a8 c1 de bd
       -0.16328 -0.050320398 -0.087648466 -0.10876781
000280 f4 2e 52 be 5f 3a a5 bd e0 f4 aa 3d a3 a9 1c 3e
       -0.20525724 -0.08067774 0.083474874 0.15299086
000290 6b 29 e3 3c 7b 6a 2c bd cf d3 3f be b4 aa 0f 3e
       0.02772971 -0.042093735 -0.18733142 0.14029962
0002a0 2d 9a 8b bd 4c 71 6e be 4c 50 de bc 19 b3 83 be
       -0.06816516 -0.23285407 -0.027137898 -0.25722578
0002b0 fd e4 0a 3a 3b 4c 6b 3e 08 27 1c be 57 29 50 be
       0.0005298404 0.22978298 -0.15249264 -0.2032827
0002c0 24 6a 17 bd d9 72 f7 3d 89 fd 0f 3e 77 d1 44 3e
       -0.036966458 0.12082452 0.1406156 0.1922053
0002d0 10 ec 45 3e 46 3e 3f 3e 37 62 98 be ac 6a 86 bd
       0.19328332 0.18676099 -0.29762432 -0.06563315
0002e0 a3 03 62 be f0 c2 81 3e 2a b2 9a be b1 de 1c be
       -0.220717 0.25344038 -0.30214053 -0.15319325
0002f0 a5 3e 8e be 77 d9 86 bd 89 58 14 3e 8a df 95 3e
       -0.2778217 -0.06584447 0.14486898 0.2927211
000300 fb 27 d6 bd 3c 4a 6c be c5 49 66 3e a4 14 19 3e
       -0.104568444 -0.23075193 0.22489078 0.1494928
000310 86 92 25 be 62 74 51 3e a4 b1 aa 3c 8a 91 99 3e
       -0.16169176 0.20454553 0.020836659 0.2999385
000320 22 ef fd 3d 96 29 f4 3c 9f e1 2a be 3e a8 ce bd
       0.123991266 0.029804986 -0.1668763 -0.100906834
000330 53 84 85 be 32 62 5a 3e eb bf 43 3e 63 b3 d5 bd
       -0.26077518 0.21326521 0.1911618 -0.10434606
000340 7d 2c 44 be f9 b7 d1 3d c8 f2 3b 3e 1a bd 92 be
       -0.19157596 0.10240168 0.18354332 -0.28659898
000350 49 9c 33 3d 46 a3 c5 3d b5 41 57 3e 50 c6 15 be
       0.043850217 0.096502826 0.21021159 -0.14626431
000360 be 68 19 be e7 54 fb 3c b4 a0 27 3d eb af 03 3e
       -0.14981362 0.030680133 0.040924743 0.12860076
000370 35 6b 99 bc e8 43 1e 3e 9c d5 76 be 85 a5 9c 3e
       -0.018727878 0.15455592 -0.24104923 0.3059503
000380 8a 2c 8a bd 6f 8a 58 be d0 99 93 bd 0f 70 3e 3e
       -0.067467764 -0.21146558 -0.07207072 0.18597434
000390 ed 3e 7b 3e c8 e2 47 be 10 6b 46 be 73 6a 71 be
       0.24535723 -0.19520104 -0.19376779 -0.23575763
0003a0 33 a5 fd bb 4c 1f a5 bd 57 83 0b bd db 6d d8 bc
       -0.0077406405 -0.0806261 -0.034060802 -0.02641957
0003b0 73 34 83 3d 19 dd 78 be 8c 60 82 3e 58 0e 9a be
       0.06406488 -0.24303092 0.25464284 -0.30089068
0003c0 f0 ea 99 bd 52 c8 7d 3e e3 08 8a be c0 86 f4 3c
       -0.07515514 0.24783447 -0.26959905 0.02984941
0003d0 ce 4e 7f 39 e7 24 91 3e aa 32 0f be 70 e7 6f 3e
       0.00024348052 0.28348467 -0.1398417 0.2342813
0003e0 de c8 8a 3e e3 e6 f0 3d 7d b8 5a 3e d3 0c 85 3d
       0.27106375 0.11762788 0.21359439 0.06496587
0003f0 1c f9 24 3e 6a 8b 99 3d 02 9f 12 3e e7 ca 7b 3d
       0.16110653 0.07497294 0.14318469 0.0614728

model.model.interaction_blocks.0.interatomic_context_net.0.bias f4 [32]
000000 6d 73 00 3a 99 ca 83 3a 3b 9a 9b 3a 6c de a5 ba
       0.0004900012 0.0010054886 0.0011871526 -0.0012654788
000010 81 fe 67 3a 86 c0 81 3a 6e de 80 ba 57 8f af ba
       0.0008849875 0.0009899295 -0.0009831914 -0.0013394159
000020 5b 53 af 3a b2 38 b2 ba 23 91 fb 39 b6 dc aa 39
       0.0013376282 -0.0013597219 0.00047982586 0.0003258937
000030 98 50 88 ba 7a 1c ba 39 41 69 a6 3a 9b 29 9f ba
       -0.0010399995 0.000354979 0.0012696163 -0.0012143137
000040 b1 6c 78 3a b6 4d 2e ba ae e3 aa ba 4d e1 b9 39
       0.00094766455 -0.0006649153 -0.0013037825 0.00035453812
000050 a6 8a a5 3a 5a c8 b2 ba f0 a5 33 ba 48 78 74 3a
       0.0012629821 -0.0013640032 -0.0006853035 0.00093257846
000060 35 6e ac 3a 87 ca 50 b9 4a c8 60 3a a4 d3 a1 3a
       0.0013155403 -0.00019911873 0.0008574767 0.0012346399
000070 75 fe a8 ba 2f 91 b0 3a 40 f3 ae 3a 2c f3 98 3a
       -0.0012893217 0.0013471002 0.0013347641 0.001166915

model.model.interaction_blocks.0.interatomic_context_net.2.weight f4 [96, 32]
000000 e2 c4 5b 3d 45 da ab 3d 8d 9b c5 3d 53 ae 56 be
       0.05365456 0.08391241 0.096488096 -0.20964937
000010 c2 f6 9b 3d 45 d7 19 3e e3 02 11 bd 9f 04 a5 bd
       0.07615425 0.15023525 -0.035403144 -0.08057522
000020 5a 24 38 3e 62 d9 14 be 52 ec 33 3e cc 6d c5 3b
       0.17982617 -0.1453605 0.17570618 0.0060250517
000030 ef 4b 03 be 4a 63 1a be 9a e0 23 3e 89 dc 49 be
       -0.12821935 -0.15076938 0.16003647 -0.19713034
000040 ee bc 05 be 97 dd b7 bd d4 43 05 be f2 d7 ed 3d
       -0.13060352 -0.08977812 -0.13014156 0.11613454
000050 56 e8 34 3e fd da 32 be f4 ec 2c 3e f2 23 87 3c
       0.17666754 -0.1746635 0.16887265 0.016496632
000060 ce d6 fd 3c 6d cf 85 3a 08 2e 47 3e 49 ef c6 bd
       0.030986216 0.0010208912 0.19451153 -0.09713609
000070 c2 cc 43 be d0 a3 4e 3d 94 bd 18 3e b7 cb c9 3c
       -0.19121078 0.050449193 0.14916068 0.024633272
000080 3a 56 bd 3d 8c 7d 81 3d 2a 8b 2d bd 44 9b 81 3b
       0.09244962 0.06322774 -0.042369045 0.0039552767
000090 4d ec 2e 3e d9 84 c7 bd f6 d4 38 be f9 ba 16 be
       0.17082329 -0.097421356 -0.18049988 -0.14719762
0000a0 02 c5 bc bb 56 bb 34 be e5 e0 b1 bd cf 95 2e be
       -0.00576079 -0.17649588 -0.08685473 -0.17049335
0000b0 4c f7 4c be bb 22 4d be 11 b8 af 3d 86 af 1b be
       -0.20016211 -0.2003278 0.0858003 -0.15203676
0000c0 16 a4 5b be 27 d5 84 3c 0a 6c 8b 3d 58 86 98 bd
       -0.21449313 0.01621492 0.06807716 -0.07447499
0000d0 98 90 e6 3c 60 ab 14 3e 2c f6 51 be 22 ed 45 bc
       0.02814512 0.145185 -0.20504063 -0.012080463
0000e0 9d e4 53 be 1b 7a fc bb b0 cc 08 3e 44 9c d2 bc
       -0.20692678 -0.007704986 0.13359332 -0.025709279
0000f0 d4 24 6b bd 8e cb 38 3e 13 5f 2e be d1 f0 7b 3c
       -0.05740817 0.180464 -0.17028455 0.015377239
000100 4d 60 29 be 5a 05 3a 3d 73 ed 3c 3e 71 37 34 3e
       -0.16540642 0.04541526 0.18449955 0.17599274
000110 5d 2d 1d 3e 17 e1 fa 3d 5c 7c 89 3d ec 78 17 3d
       0.15349336 0.12249964 0.06713173 0.036980554
000120 3c 94 26 be 4c cb 39 3d 03 8c 9e 3a 7f 37 be 3d
       -0.16267484 0.045359895 0.001209617 0.09287929
000130 b8 3f 9a 3d 63 6d 42 be 1d f8 cf bd 89 37 21 be
       0.07531685 -0.1898704 -0.10154746 -0.15743841
000140 0d 14 9d bd a2 0e d3 bd cd bf 0f 3e 38 f0 54 3e
       -0.0766984 -0.10305525 0.1403801 0.20794761
000150 86 3f c7 3c cf 33 ac 3d d5 fe 39 3d dd 04 ac bd
       0.024322283 0.08408319 0.045409042 -0.08399365
000160 7f 0d ae bd d2 b3 51 3e ff f1 78 bd b8 79 14 be
       -0.08498668 0.20478752 -0.06077766 -0.14499557
000170 b3 a4 01 3e 41 a3 3a be 54 8f 38 be c6 22 36 bd
       0.12660484 -0.18226339 -0.18023425 -0.044466756
000180 79 88 8b 3d d5 af 56 3e da 95 04 3d 10 66 c8 3d
       0.068131395 0.20965512 0.032369472 0.09785092
000190 f5 b0 3c 3e fa 9d 2e be 10 0c aa 3d fd 79 bf bd
       0.18426879 -0.17052451 0.08303082 -0.09349439
0001a0 e8 db 7c bd 40 5d cb 3d a5 38 4c be e3 bc 10 3d
       -0.061733156 0.099298954 -0.19943483 0.035336386
0001b0 19 2b bb bd c8 75 ca bd 0c 0e 74 bd 81 43 88 bd
       -0.091390796 -0.09885746 -0.05958371 -0.066535
0001c0 c6 a2 2e be ea 73 46 3e cc a3 8c bd 81 5d 16 be
       -0.1705428 0.19380155 -0.06867179 -0.14684106
0001d0 74 d2 0d b8 1b 75 d1 3d 27 a8 b0 3c 64 21 f9 bc
       -3.381302e-05 0.10227414 0.021564556 -0.03041143
0001e0 b9 c3 c3 bc 74 0d 3c bc 5e 4a a9 3c 87 8a 9e 3d
       -0.023897039 -0.011477817 0.020665344 0.07741266
0001f0 df bc 51 3e 9f 43 3e 3e 73 58 43 3e 39 3f 46 be
       0.20482205 0.18580483 0.1907671 -0.19360055
000200 ae 4c 21 be dd 8b ac 3d 6b 1d 1f be 46 70 09 3e
       -0.15751907 0.08425114 -0.15538566 0.13421735
000210 03 7f 13 be cf 07 d4 bc aa 13 bd bd df 24 1d be
       -0.1440392 -0.02588263 -0.09232266 -0.15346096
000220 81 aa 06 3e a4 31 ec bd 2a c3 0c be 9e 4c 0c be
       0.1315098 -0.11532906 -0.13746324 -0.13701102
000230 a4 be b9 3d 00 17 21 bd af 09 1b be 51 8a 0b be
       0.09069565 -0.039328575 -0.15140413 -0.13626982
000240 d1 58 2b be 01 a8 ca 3d 11 56 5a be d1 9f 58 bd
       -0.167331 0.098953255 -0.21321894 -0.052886788
000250 28 69 4d 3d 8e a0 d1 bd d0 04 5a 3e 9a a5 92 bd
       0.050149113 -0.102357015 0.21290898 -0.07160492
000260 f4 cc 06 3e 15 92 a3 bc 3e ab fd 3d 2a ad b9 3d
       0.13164121 -0.019967118 0.123861775 0.090662315
000270 a4 b7 2a 3e 0b 0c a7 bc 40 68 38 be 49 23 41 3e
       0.16671616 -0.020391485 -0.18008518 0.18861116
000280 f2 4f 89 bd a3 1b 01 3e 8b 4b 89 3d cd ae 38 be
       -0.067047015 0.12608199 0.06703862 -0.18035431
000290 5c bd 12 bb 86 f8 16 be 9a 77 34 be 8b b4 f9 bd
       -0.00223907 -0.14743242 -0.1762375 -0.12192639
0002a0 21 c0 3b be 36 53 23 bd 14 31 b6 3d bf 84 3e be
       -0.1833501 -0.039874278 0.0889608 -0.18605326
0002b0 ac b7 0b 3c cf a7 e0 3d 3d 37 9a bd ef cd 0f be
       0.0085276775 0.10969507 -0.07530067 -0.14043401
0002c0 0b d7 0d be 3e ae 36 3e 77 de 6c 3d 02 40 56 3e
       -0.13851564 0.17839906 0.057829347 0.20922855
0002d0 aa 60 c4 bd 1a 26 50 be cb 0a 3d bc 2b cb 6e bd
       -0.0958875 -0.20327035 -0.011538218 -0.058299225
0002e0 d1 6f 33 3d 32 17 50 be 01 3e b7 bc 6b 47 f5 3d
       0.04380781 -0.20321348 -0.022368433 0.119765125
0002f0 bd 22 4e be 9b 97 bc 3d 33 6e 15 be 59 96 a9 3d
       -0.20130439 0.09208604 -0.14592819 0.0828063
000300 c4 25 20 be a8 3a 24 be d9 08 8f bc 3f c2 29 be
       -0.15639406 -0.16038 -0.017460274 -0.16578005
000310 89 81 e4 3d 04 c9 16 3c fd a3 1a 3e 6c c0 cc 3d
       0.11157519 0.009203199 0.15101619 0.09997639
000320 31 47 a4 bc 2c 75 0c bd d5 d7 31 be c8 78 36 be
       -0.020053478 -0.03429143 -0.1736749 -0.17819512
000330 24 de a4 bd f4 9d c3 3d 2d f4 e0 bd 4d 29 aa bd
       -0.080501825 0.095516115 -0.10984073 -0.08308659
000340 1c 53 f0 bd 89 00 11 bd d1 d9 50 3c 29 1e eb 3c
       -0.11734602 -0.0354009 0.012747244 0.028700905
000350 05 39 22 3e 99 e1 0c 3d 66 fd 73 bd c7 ca 33 bd
       0.15842064 0.034394834 -0.05956783 -0.043894555
000360 84 7a 55 3d 32 c6 23 3e 10 66 45 be 13 fd 55 3d
       0.052118793 0.15993574 -0.19277215 0.052243304
000370 95 11 54 bd ca 1b 40 3d 4f a3 91 bc 06 dd 4a 3d
       -0.05177458 0.0469015 -0.017778067 0.04952719
000380 38 00 30 bb 2c 3c b2 37 e3 5b 95 3d 76 35 af bd
       -0.00268556 2.1247273e-05 0.072929166 -0.08555119
000390 af 77 90 bd 0f d5 17 be fc f5 48 3e 5c bc 45 3e
       -0.07054078 -0.14827369 0.19625086 0.19310135
0003a0 aa b5 d2 3d 3d 9c 18 3e 3c 37 43 3e d8 df 59 3e
       0.10288556 0.1490335 0.19064039 0.21276796
0003b0 48 88 5a be 49 6c 30 be ba 5d 43 3d 9f c2 e1 bd
       -0.2134105 -0.17228808 0.047696806 -0.11023449
0003c0 e3 f7 cf bd 0f c7 a5 3d 02 d8 18 3e 85 53 13 be
       -0.101547025 0.08094608 0.1492615 -0.14387329
0003d0 11 e7 62 ba ac 99 0b 3e c5 1e f9 bd 62 e7 8b bc
       -0.00086556474 0.1363284 -0.12164072 -0.017078105
0003e0 6a bf 8d 3d 05 ab 38 3c 55 af bf 3d 4f 2b 10 be
       0.06921275 0.011271243 0.09359614 -0.14079021
0003f0 2e 67 58 be 24 dc 2a be 91 48 1c be 8e 69 26 3d
       -0.2113311 -0.1668554 -0.15262057 0.04062801

model.model.interaction_blocks.0.interatomic_context_net.2.bias f4 [96]
000000 57 85 b3 3a d6 3e ad 3a 33 d6 a3 ba c9 2e 0d 3a
       0.0013696355 0.0013217579 -0.001249975 0.00053856947
000010 ae 79 67 3a 36 4d 9d 3a 1d 5a 11 39 ea 37 80 ba
       0.00088300824 0.001200116 0.00013861847 -0.0009782289
000020 ec e8 a9 3a 6f e1 8d ba 76 66 a2 ba 68 5f 6e 39
       0.0012963093 -0.0010824631 -0.0012390155 0.0002273299
000030 3d fd 75 ba 4b b1 09 3a a3 bc a5 ba 76 4c b1 ba
       -0.0009383744 0.0005252554 -0.0012644719 -0.0013526815
000040 53 53 01 39 63 34 ed b9 aa 89 a4 b8 2f 97 88 ba
       0.0001233344 -0.00045243194 -7.845771e-05 -0.0010421033
000050 0a 4b ab 3a 00 3f ab ba 60 a5 9a b8 85 11 55 3a
       0.0013068628 -0.001306504 -7.374096e-05 0.0008127916
000060 0a bf 79 39 1c e3 a3 3a f2 82 02 ba d7 64 51 3a
       0.00023817658 0.0012503597 -0.0004978619 0.00079877436
000070 fe 25 a4 ba fa 5e a1 3a 23 3d 82 3a 88 06 8f ba
       -0.001252353 0.001231163 0.0009936433 -0.0010911981
000080 09 29 a8 3a b6 2f 52 39 24 c5 8e 3a 8a ff 6a b9
       0.0012829612 0.00020044934 0.0010892493 -0.00022411175
000090 70 34 57 39 24 a7 a9 ba bb d6 44 3a 91 21 ae ba
       0.00020523532 -0.0012943489 0.0007508804 -0.001328515
0000a0 e7 30 8c ba 22 c8 86 ba 66 f0 b5 3a 49 c6 a0 3a
       -0.0010695726 -0.0010283033 0.0013880848 0.0012266125
0000b0 dd ea 6f 3a 1a 00 01 ba ba b6 2c b9 a4 8f b4 ba
       0.0009152124 -0.00049209746 -0.00016471269 -0.0013775718
0000c0 d8 f4 b6 3a ac 40 43 ba 1d 82 6b 3a a5 90 34 3a
       0.0013958467 -0.00074482965 0.0008983927 0.0006888009
0000d0 f2 3e b3 3a f0 de 81 3a 01 fa a9 ba 3e de 4a 3a
       0.0013675375 0.000990836 -0.0012968184 0.0007738805
0000e0 59 8a af 3a 1d 43 31 3a 1b db 91 ba 6c 63 15 39
       0.0013392671 0.0006762015 -0.0011127921 0.00014246785
0000f0 ce 77 9e ba 2e bf ff 38 11 03 50 3a fc e1 aa ba
       -0.0012090148 0.000121949575 0.0007935027 -0.0013037319
000100 00 00 00 00 00 00 00 00 00 00 00 00 00 00 00 00
       0.0 0.0 0.0 0.0
000110 00 00 00 00 00 00 00 00 00 00 00 00 00 00 00 00
       0.0 0.0 0.0 0.0
000120 00 00 00 00 00 00 00 00 00 00 00 00 00 00 00 00
       0.0 0.0 0.0 0.0
000130 00 00 00 00 00 00 00 00 00 00 00 00 00 00 00 00
       0.0 0.0 0.0 0.0
000140 00 00 00 00 00 00 00 00 00 00 00 00 00 00 00 00
       0.0 0.0 0.0 0.0
000150 00 00 00 00 00 00 00 00 00 00 00 00 00 00 00 00
       0.0 0.0 0.0 0.0
000160 00 00 00 00 00 00 00 00 00 00 00 00 00 00 00 00
       0.0 0.0 0.0 0.0
000170 00 00 00 00 00 00 00 00 00 00 00 00 00 00 00 00
       0.0 0.0 0.0 0.0

model.model.interaction_blocks.0.filter_network.weight f4 [96, 32]
000000 64 83 00 3d 99 89 ad bd c7 20 4e 3e e5 3b c4 3d
       0.031375304 -0.0847351 0.20129691 0.095817365
000010 8a f2 fb bb 93 d4 29 be 6b bb c4 bc ef d8 8b 3d
       -0.007688825 -0.16584997 -0.02401515 0.06828486
000020 37 6b 54 3e 47 40 50 3e ba 21 93 3d 12 57 dd 3d
       0.20744024 0.2033702 0.07184167 0.10807623
000030 19 6d 55 be 79 25 33 3e ac 60 2d 3d 72 56 d3 bc
       -0.20842399 0.17494763 0.04232852 -0.025798056
000040 76 83 21 be 27 f7 2e bd f9 b1 81 3d b1 53 e3 3c
       -0.15772805 -0.04271617 0.06332774 0.027749868
000050 7f 24 99 bc bb dc 2a 3e 32 4b 17 3e 27 7b 4c 3d
       -0.01869416 0.16685764 0.14774778 0.049922135
000060 c1 a4 54 be 00 3f ac bd bb 16 46 bd 48 5d 51 be
       -0.20765974 -0.08410454 -0.04836152 -0.2044574
000070 50 9f 13 3e 4f 76 1e 3e d3 31 55 3e 7e 52 82 3c
       0.14416242 0.15474819 0.20819788 0.015908476
000080 94 74 17 bc e8 09 05 bd ab c7 ea 3d 2b 0f 01 be
       -0.009244103 -0.03248015 0.11463865 -0.12603442
000090 c1 b9 aa 3d b8 22 40 bc 0f ee 3a 3d 72 0c 8f 3c
       0.08336211 -0.011727028 0.045637187 0.01746199
0000a0 ed 31 10 be 1b 15 bc 3d fa da 04 3e fc 34 1e be
       -0.14081545 0.09183713 0.12974158 -0.154499
0000b0 d6 16 50 3e 78 e0 5b be 82 41 58 3e f4 18 03 3e
       0.20321211 -0.21472347 0.21118739 0.12802488
0000c0 cf f0 37 be 97 44 89 bd 67 3d b6 3d 1e 62 b3 3d
       -0.17962955 -0.067025356 0.0889843 0.08758949
0000d0 10 e2 15 be cd 69 57 be ca 8e 34 3e 1e d4 ac 3d
       -0.14637017 -0.21036454 0.17632595 0.08438896
0000e0 d1 56 da 3d 5c 1b 28 3e 81 42 2b 3e 11 7e 49 be
       0.1066109 0.16416687 0.16724588 -0.19676997
0000f0 c4 97 0b be e7 24 34 3b 58 5d 04 3d 92 b0 2a be
       -0.13632113 0.0027487816 0.032315582 -0.16668919
000100 aa 46 c3 bd 3b 29 98 3d 9b a5 33 be 2b 7e 4d be
       -0.095349625 0.07429739 -0.17543642 -0.2006766
000110 fd 34 e5 bd 9b 50 27 bb 08 b4 5c be 39 eb 65 3d
       -0.11191747 -0.0025530222 -0.21553051 0.05613253
000120 08 6d 39 be 9e 15 2a bd 8f 7c a5 3d cc d9 ba 3c
       -0.18107998 -0.041524522 0.08080398 0.022808932
000130 ca a6 d3 3d 68 e9 12 3e 36 66 37 3e 5c 46 93 bc
       0.10334547 0.1434685 0.17910084 -0.017977886
000140 31 39 81 3d 24 fc 53 be 69 6c 7e bd 86 34 2c be
       0.063097365 -0.20701653 -0.062115107 -0.16816911
000150 fe 3f 2c be 29 1c 10 be cb 7b 28 3e 7f f0 b8 bd
       -0.16821286 -0.14073242 0.16453473 -0.09030246
000160 c7 57 a1 3d 05 81 48 be f3 d5 27 be d6 eb e9 3d
       0.0787807 -0.19580467 -0.16390209 0.11421935
000170 7f 70 91 3d 69 b3 8a 3b e6 eb 36 be c7 4f 10 bb
       0.07101535 0.004232813 -0.17863426 -0.0022020207
000180 af 59 c0 bb 3c 6f 35 3e 17 63 43 be de f2 a0 bb
       -0.005870066 0.17718214 -0.19080769 -0.0049117645
000190 34 e9 09 be 31 24 4d bd 19 33 9d bc bc ed 0c be
       -0.13467866 -0.050083343 -0.019189404 -0.13762563
0001a0 91 d5 8f 3d b8 2e af 3d b3 8e 78 bd e6 3d 14 3e
       0.070231564 0.08553833 -0.060682964 0.14476737
0001b0 17 72 17 3e 2e 35 20 be 54 62 e2 bd fc b5 ba bd
       0.14789616 -0.15645286 -0.11053911 -0.09116742
0001c0 96 fe 83 3d dd 0b 1a bd f4 f8 5f 3d 3b 10 ac 3c
       0.06445043 -0.03760897 0.05468078 0.021003833
0001d0 b9 b6 07 be c3 fb ae bd 91 29 fa 3d 3f d8 eb bd
       -0.13253297 -0.085441135 0.122149594 -0.11515855
0001e0 90 7c 4c 3e 05 f3 76 bd 1f df 26 3e 95 7d db 3d
       0.19969392 -0.060290355 0.16296051 0.10717312
0001f0 da 20 93 3d 1a e5 a5 ba 19 6c 25 3e 63 26 d9 3d
       0.07184 -0.0012656779 0.16154517 0.10603025
000200 04 47 c5 3c fa 15 5e be 58 4e f9 3d 0a 73 49 be
       0.024081714 -0.21688071 0.12173146 -0.1967279
000210 7c 08 22 be ce 0b 7d bc 2d e5 32 3e 8b c3 1b be
       -0.15823549 -0.015444709 0.17470236 -0.15211312
000220 f0 a4 b7 3d bb 3b 8e 3d 26 58 98 bb e4 0b b7 3d
       0.08967006 0.069449864 -0.00464918 0.08937815
000230 97 11 f5 bc 4c a0 d0 3d 9b 5a ee bc dc 9c 85 bd
       -0.029915614 0.10186824 -0.029095938 -0.06524059
000240 d1 e9 f9 bd ad ab 36 be c4 f0 1b 3e 76 91 04 be
       -0.122028 -0.17838927 0.15228564 -0.12946114
000250 e2 1a 4f 3e c9 f5 68 bc 3e 9c 1f 3e d2 25 d9 bb
       0.20225099 -0.014218756 0.15586945 -0.006626823
000260 48 65 61 3d c8 f4 4e 3b 49 7f 84 bc ee 5e 5b be
       0.05502823 0.0031579006 -0.016173976 -0.21422932
000270 95 d1 13 3e cf ad 50 3e 0b 1d 3a 3e 8b 06 9d 3d
       0.14435418 0.20378803 0.18175142 0.076672636
000280 ec 0d 9e 3c f8 10 04 be 21 30 8d bd 96 6d 72 ba
       0.019293748 -0.12897098 -0.068939455 -0.0009247897
000290 a2 27 a9 3d 64 2d f6 3d a8 d8 34 3d 9f 69 46 3e
       0.082595125 0.12020376 0.044151932 0.19376229
0002a0 d1 cb c8 bd 07 4d 82 bc 2f a8 c5 bc 06 5a f8 bd
       -0.098045 -0.01590587 -0.024128048 -0.121265456
0002b0 68 9a 0a 3e 44 c2 2b be 30 80 51 be 53 5e 01 3d
       0.13535464 -0.16773325 -0.20459056 0.031584095
0002c0 3c df f2 bd 14 ba 09 3c c1 ee fa 3d 62 83 08 3e
       -0.11858985 0.008406181 0.1225257 0.13331369
0002d0 db ee 3e be c8 40 c7 bd 5f e2 55 be f5 78 8d bd
       -0.18645804 -0.09729153 -0.20887135 -0.06907836
0002e0 49 8b 2f 3e eb 63 1d 3e b0 b2 f2 bd 90 d0 05 be
       0.17142977 0.15370147 -0.11850488 -0.13067842
0002f0 0f a3 45 3e 9d 00 5d be 31 d5 01 be 08 be 94 39
       0.19300483 -0.21582265 -0.12678982 0.00028370344
000300 c5 65 c7 3d f1 d6 43 3e 1b a9 2f bd 3c 3b fa 3d
       0.09736208 0.19124962 -0.04288588 0.12218329
000310 6a 3b 2f 3e 13 57 a1 3d 18 27 40 3e f0 49 32 3e
       0.17112508 0.07877936 0.18764913 0.17411017
000320 c2 51 bd bd ef 62 43 3e 28 f5 a2 bd 79 45 1b 3e
       -0.0924411 0.19080709 -0.07956916 0.1516322
000330 35 36 44 3d 40 41 a6 3c 5c bd 4a 3e c6 a4 52 be
       0.04790326 0.020294785 0.19798797 -0.20570669
000340 6c a4 43 3e b7 93 91 3d 3f ca b7 3c a0 2a 2c 3e
       0.1910569 0.071082525 0.022435306 0.16813135
000350 7a 90 2b be 9a 39 10 3e cb bd 5d be 4b b3 ae bd
       -0.16754332 0.14084473 -0.21654432 -0.08530291
000360 e4 1a e6 bc 42 56 5a be f7 fe 87 bd da b7 72 3c
       -0.028088994 -0.21321967 -0.066404276 0.014814341
000370 6a 5b 58 3d 47 b0 48 be 3e 49 3f be b0 85 f5 bd
       0.052821554 -0.19598494 -0.18680283 -0.119883895
000380 79 b8 ab bd 57 fc 2c be 5c ca c9 3d 5b 35 fb bc
       -0.08384795 -0.16893135 0.0985305 -0.03066509
000390 96 5d 3c 3e dc b0 9b bd 87 ca 6b bd 03 cb 9e bd
       0.18395075 -0.076020926 -0.057566192 -0.07753565
0003a0 a8 5a 69 bd 94 3b 1a 3c a8 d9 80 3d 5a 7c 0a 3e
       -0.056971222 0.009413619 0.06291515 0.13523999
0003b0 23 36 46 be ea 92 43 bd bf 55 80 bd ff b0 98 bd
       -0.19356589 -0.04774753 -0.06266355 -0.07455634
0003c0 ef e9 53 be 05 28 c6 bd 18 6c bc bc 5c bf 10 3c
       -0.20694707 -0.09675602 -0.023000762 0.008834686
0003d0 f0 de bc bd c4 53 ab bd 59 5c 2f 3e 49 c4 2f 3d
       -0.092222095 -0.083655864 0.17125072 0.0429118
0003e0 67 6e 05 be af c7 d5 bd 24 b3 6f 3d b3 2d 02 be
       -0.13030396 -0.10438477 0.05852045 -0.12712745
0003f0 cf b5 f2 bd 82 7a d9 bd 0c df 5e bd eb 4c 12 3d
       -0.118510835 -0.1061907 -0.054411933 0.035717886

model.model.interaction_blocks.0.filter_network.bias f4 [96]
000000 7a 1d 2e ba f5 0b d0 39 32 63 9f ba 9e 2c 7a 39
       -0.00066419656 0.0003968176 -0.00121603 0.00023858479
000010 b5 a6 af ba d1 a1 8b 3a f6 6d 18 ba 78 1f 6b ba
       -0.0013401123 0.0010653083 -0.00058147253 -0.0008969228
000020 9c af b4 39 33 8f 1c 3a e2 f1 aa 3a 6b 1e 56 ba
       0.00034463115 0.0005972266 0.0013042057 -0.0008167985
000030 02 31 14 3a 29 42 33 ba 25 fa 90 ba 88 a7 89 3a
       0.00056530547 -0.0006838167 -0.0011060877 0.0010502199
000040 d1 ff 75 3a e4 ec d5 b8 97 62 df 39 b4 9d 8f ba
       0.0009384128 -0.00010200756 0.0004260733 -0.0010957033
000050 eb 3b ac ba c9 96 53 3a cf fd a4 ba 16 16 e8 39
       -0.0013140416 0.000807148 -0.0012587848 0.00044266944
000060 6a f9 75 ba 0f 6f 4a ba f0 51 a7 3a ca e7 80 39
       -0.0009383174 -0.00077222375 0.0012765508 0.0002458676
000070 e8 ad 58 3a ee 32 b3 ba 2f f9 9d 3a e0 cd 40 3a
       0.000826566 -0.0013671794 0.0012052412 0.00073548965
000080 52 e0 b3 3a 23 14 c3 37 bb e9 23 3a 80 d0 66 3a
       0.0013723469 2.3255188e-05 0.0006252785 0.00088048726
000090 6a ff 3b ba 76 73 b0 ba 12 c8 18 3a 84 4b a7 ba
       -0.00071715435 -0.0013462144 0.00058281526 -0.0012763594
0000a0 01 86 0e ba c1 74 9f ba 1a e3 71 ba e4 c7 9e 3a
       -0.0005436838 -0.0012165533 -0.0009227261 0.0012114015
0000b0 e1 db a4 3a f8 57 20 ba 65 7c 2b ba 18 39 ab 3a
       0.0012577736 -0.0006116624 -0.00065416686 0.001306328
0000c0 4d 5c af b9 92 0a 33 39 05 30 18 b9 04 76 2a 3a
       -0.0003344737 0.00017074708 -0.00014513738 0.0006502571
0000d0 81 1e b2 ba d9 eb 8d b9 1a 22 07 3a ad a6 8a 3a
       -0.0013589413 -0.00027069336 0.0005154923 0.0010578238
0000e0 38 15 85 b8 c8 39 44 ba 82 cc 9d 3a f5 47 81 3a
       -6.3458865e-05 -0.0007485417 0.0012039097 0.0009863364
0000f0 a7 7f 96 3a ff 7d e2 b6 91 fe 92 ba fc f2 a3 3a
       0.0011482135 -6.7499927e-06 -0.0011214783 0.0012508328
000100 00 00 00 00 00 00 00 00 00 00 00 00 00 00 00 00
       0.0 0.0 0.0 0.0
000110 00 00 00 00 00 00 00 00 00 00 00 00 00 00 00 00
       0.0 0.0 0.0 0.0
000120 00 00 00 00 00 00 00 00 00 00 00 00 00 00 00 00
       0.0 0.0 0.0 0.0
000130 00 00 00 00 00 00 00 00 00 00 00 00 00 00 00 00
       0.0 0.0 0.0 0.0
000140 00 00 00 00 00 00 00 00 00 00 00 00 00 00 00 00
       0.0 0.0 0.0 0.0
000150 00 00 00 00 00 00 00 00 00 00 00 00 00 00 00 00
       0.0 0.0 0.0 0.0
000160 00 00 00 00 00 00 00 00 00 00 00 00 00 00 00 00
       0.0 0.0 0.0 0.0
000170 00 00 00 00 00 00 00 00 00 00 00 00 00 00 00 00
       0.0 0.0 0.0 0.0

model.model.mixing_blocks.0.intraatomic_context_net.0.weight f4 [32, 64]
000000 af f4 b6 bb b6 7b 73 bd 3a d6 3a be 72 95 2d be
       -0.005583368 -0.05944415 -0.18245783 -0.1695154
000010 dd c8 8f 3d fb 03 13 be 05 f8 b5 3d fc 85 6c 3e
       0.070207335 -0.14356987 0.088851966 0.23097986
000020 8b cd a2 3d b8 60 50 3e 2b e9 9d 3d 77 c1 2c 3e
       0.079493605 0.20349395 0.07710489 0.16870676
000030 3c bf 88 bd 3f f3 4f 3e ea 58 58 be dd d4 ab 3d
       -0.066771 0.20307635 -0.21127668 0.0839021
000040 95 3a 58 be 4a ee 38 be 71 d1 7c be 43 c5 43 bd
       -0.21116097 -0.1805965 -0.2468927 -0.047795545
000050 72 fa 1f 3e 15 af ee bd 4f 5a 2c 3e 7d e8 e6 3d
       0.15622881 -0.11654488 0.16831325 0.11274812
000060 5a f5 fd bd b6 c2 66 be 55 15 59 3d 47 04 38 3d
       -0.12400313 -0.22535214 0.05299886 0.044925954
000070 df ad 31 3d 39 53 23 3d cb 1c 56 3d 23 de 42 3e
       0.043378707 0.03987429 0.052273553 0.19030051
000080 ed 20 71 be 53 42 04 be b8 33 45 be a3 f7 22 3e
       -0.23547716 -0.12915926 -0.1925801 0.15914778
000090 72 a9 3a be 37 54 b6 3d d7 17 97 3d 0d 2c 2a 3e
       -0.18228701 0.089027815 0.07377594 0.16618367
0000a0 c6 12 64 3e 06 9a 3b bd 7e 3a 10 3e b9 46 0a 3e
       0.22272786 -0.045801185 0.14084813 0.13503541
0000b0 e1 f0 76 3c 42 e2 59 3d a3 82 6d bd 65 ae 3d be
       0.015072078 0.053194292 -0.057985913 -0.18523557
0000c0 20 c1 d1 3d ad 37 28 bd ca 06 3f 3e 53 81 18 be
       0.10241914 -0.04106872 0.18654934 -0.14893083
0000d0 d0 6a 1b 3e 68 a7 33 3e e6 51 6c bd 87 a3 cf 3d
       0.15177464 0.17544329 -0.057695292 0.10138612
0000e0 cd 31 0d bd 1b c0 09 be f3 1a 9c bc 6b b7 74 be
       -0.03447132 -0.13452189 -0.01905582 -0.23898093
0000f0 5c 51 ab 3d ab 9e 70 3e 1d ec 64 bd 78 74 19 3e
       0.083651274 0.23498027 -0.055889238 0.14985836
000100 cc ef f9 bd a0 0c 41 3e 0d 2a 73 3d 7d bb 5a 3d
       -0.12203941 0.18852472 0.059366275 0.05340146
000110 1a 40 0f be 3b 4c db bc 16 01 1c be db e2 13 be
       -0.13989297 -0.026769748 -0.15234789 -0.14442007
000120 f6 4a 8d bd 58 80 44 3e fc a2 04 be 33 c0 eb bc
       -0.06899063 0.19189584 -0.12952799 -0.028778171
000130 4e e6 6c be 91 cf 3c 3e 2e 84 11 3e bc 86 75 3d
       -0.2313473 0.18438555 0.14210579 0.059942946
000140 6a 3b 0d be 3e 32 46 bd 99 15 3a 3e 02 24 5f 3d
       -0.13792196 -0.04838776 0.18172301 0.0544777
000150 e7 e6 2c bd 39 e8 7d 3d 09 74 ff bd 6d 06 05 be
       -0.042212393 0.061989043 -0.12473304 -0.12990732
000160 1a fc 04 3c e0 a8 47 be 21 66 bc bd ab 06 51 3e
       0.008116746 -0.19498014 -0.09199167 0.204127
000170 23 a3 2a 3d cb e6 b4 3c 11 15 27 3b dc c6 4e 3d
       0.041659486 0.022082707 0.0025494734 0.050482616
000180 07 01 e1 3d e4 53 f1 3d 13 02 f0 3d 02 d7 23 3e
       0.10986524 0.11783579 0.117191456 0.15999988
000190 d0 0a d4 bd 3b c3 6d bd 9b 87 8d bd f4 d4 21 be
       -0.10353625 -0.058047514 -0.0691063 -0.15803891
0001a0 9c 7b 30 3a ca fa a0 ba b3 0c 89 3b 68 d1 cd 3c
       0.00067322864 -0.0012281772 0.004182422 0.025124267
0001b0 2a 57 51 3e 41 78 d3 bd 3d 0f e1 3d b0 62 62 bd
       0.20443407 -0.10325671 0.109892346 -0.055269897
0001c0 ec 7b 6b 3e fe 27 32 3e 4b 8a 10 be 9f 6f 26 3e
       0.22996491 0.17398068 -0.14115255 0.16253518
0001d0 41 20 3b 3e 94 0c 89 3d bf 3f 6e be 0b 25 bd bc
       0.18274023 0.06691852 -0.23266505 -0.023088953
0001e0 ae c8 b9 bd 74 1d e4 3d 8b 14 d9 bd 4a 3e a2 3c
       -0.0907148 0.1113843 -0.105996214 0.019805092
0001f0 ab 0a 22 3e 46 c6 f2 3d eb 8a 70 3d d0 3d 5f be
       0.15824382 0.11854224 0.058726232 -0.21800923
000200 5b 18 1c be 4b 16 3e be 61 86 43 be 3a 6d 55 be
       -0.15243666 -0.18563192 -0.1909423 -0.20842448
000210 c8 fe 23 be 90 ba 9a bd 25 d6 64 be 15 d6 b9 3d
       -0.1601516 -0.07555115 -0.22347315 0.09074036
000220 eb ca 78 3c a8 d4 25 be 4d ec 26 be 70 06 a1 bd
       0.015185098 -0.16194403 -0.16301079 -0.07862556
000230 0d 0b 37 be 27 20 5a be c8 8c 60 be ab 64 2f be
       -0.1787531 -0.21301328 -0.21928704 -0.17128246
000240 26 d6 96 bd e4 43 f8 bc 34 96 ec bc ba c0 42 be
       -0.07365064 -0.03030581 -0.028880216 -0.19018832
000250 a6 a8 4b be a2 51 94 bd b6 8d c9 3d 83 bd a2 3d
       -0.19888553 -0.07242133 0.09841482 0.07946303
000260 30 fd 7c be 7b ff 9f 3d 5d 4f 34 3e 65 c5 09 be
       -0.24705958 0.07812401 0.176084 -0.13454206
000270 c6 90 3b be a7 6f 29 3e 23 ac 77 be ae e8 69 3c
       -0.18316945 0.16546498 -0.24186759 0.014276667
000280 e9 3a 26 3e e5 dd 56 ba 13 d9 15 3e e3 89 dc 3d
       0.1623341 -0.0008196517 0.14633588 0.10768487
000290 66 d9 38 3d b9 9d 7d 3e 74 82 3c bc bf 36 e9 bd
       0.045129202 0.24767198 -0.011505712 -0.11387395
0002a0 79 cc 19 be 88 81 d0 3c 50 f6 64 be 6e a0 83 3d
       -0.15019406 0.02545239 -0.22359586 0.06427084
0002b0 49 9f 38 3d 91 f2 2c 3e 99 aa 31 3e e7 fb 18 3e
       0.04507378 0.16889407 0.17350234 0.14939843
0002c0 a1 fd 09 3e 31 92 56 3e 2e ac eb 3d 94 50 ad 3d
       0.13475658 0.20954205 0.1150745 0.08462635
0002d0 18 a1 ab 3d 33 c4 3b bd cd fe 4a be 63 80 32 3e
       0.083803356 -0.045841407 -0.19823761 0.17431788
0002e0 15 0c 18 3e 9d 4d f4 bb 1d 0c 0a bd ec 83 47 3e
       0.14848359 -0.0074555413 -0.03370296 0.19483918
0002f0 f2 26 62 3e 3a e7 4e 3e fb 26 87 3d a8 2f 5e 3e
       0.22085169 0.20205393 0.06599232 0.21697867
000300 dc 90 d9 3c 6d df 22 3e cc 8a 41 3e 46 fb 58 be
       0.026558332 0.15905543 0.18900603 -0.21189603
000310 77 29 2c be 54 6c 10 3e f5 7c 77 3e 65 e8 4f 3e
       -0.16812693 0.14103824 0.24168761 0.20303495
000320 a6 97 34 3e 71 58 33 be 4c 9b 51 3e e2 42 58 3e
       0.17635974 -0.17514206 0.20469397 0.21119264
000330 46 df 54 3c 55 d8 45 3d 09 ff c7 3d 34 96 1e 3d
       0.012992686 0.048302013 0.09765441 0.038717464
000340 fc f2 d0 bd 57 11 be 3c 1c 5c 64 bd ec 19 d5 bd
       -0.102025956 0.023201628 -0.055751905 -0.10405335
000350 ee 72 fd bd 0f a7 ad 3d 54 99 3d be cb 83 7a bb
       -0.12375437 0.084791295 -0.18515521 -0.0038225527
000360 e8 12 10 3e 22 1c 24 be 72 96 aa 3d 6c 65 4e be
       0.14069712 -0.16026357 0.083294764 -0.20155877
000370 1c ee 12 3d 60 1e 44 3e 9e 0a 71 be 6e 0a 85 3d
       0.03587161 0.19152212 -0.23539206 0.0649613
000380 e4 2d 4b 3d 14 3b f8 bd 9d fc 49 3d 77 9c 5d 3e
       0.04960431 -0.12120643 0.049313176 0.21641718
000390 09 36 c9 3d 26 ed 3f bd 4c 57 09 bd 5b ba b6 bd
       0.098247595 -0.04685702 -0.03353052 -0.08922263
0003a0 d0 7c 80 3d 58 dd 9c bd 64 e6 50 3d fa b6 4d 3e
       0.06273806 -0.076594055 0.051000968 0.20089331
0003b0 63 f0 02 3e 69 bc 0e 3e c4 f0 99 3d 33 ed 5e bd
       0.12787013 0.1393906 0.075166255 -0.05442543
0003c0 8d 46 1c 3e 82 24 a3 3d bc 40 45 be a9 ed 4d be
       0.15261288 0.07965948 -0.19262975 -0.20110191
0003d0 94 48 7a 3c 11 0a 50 3e 7d ea 2d 3e 9c 10 7e 3e
       0.015276093 0.2031634 0.16983981 0.24811023
0003e0 71 71 78 3d a1 6c 04 be 1b b5 21 be 76 19 2b 3d
       0.06065506 -0.12932064 -0.15791743 0.04177233
0003f0 06 87 73 bd c9 49 22 be 76 d9 27 3d ce ee 24 be
       -0.05945494 -0.1584846 0.04097887 -0.16106722

model.model.mixing_blocks.0.intraatomic_context_net.0.bias f4 [32]
000000 84 29 6f 3a c6 62 ae 39 4d 14 87 ba 5d 4a ae 3a
       0.0009123313 0.00033261458 -0.0010305733 0.0013297308
000010 83 b2 24 ba eb 17 90 ba 99 0a ae 3a c1 97 28 3a
       -0.0006282704 -0.0010993456 0.0013278305 0.00064313045
000020 3f 97 b6 39 63 9b 59 ba 15 b8 8c ba 12 9c 43 3a
       0.00034826432 -0.00083010475 -0.0010736013 0.0007461916
000030 2a 2b 67 ba 5c 45 18 3a d5 6b 78 3a cd 2b 83 ba
       -0.00088183826 0.0005808675 0.00094765174 -0.001000756
000040 f9 04 a0 ba d7 e4 37 39 a2 e3 ab 39 5e 3c a3 ba
       -0.0012208513 0.0001753749 0.0003278526 -0.0012453904
000050 10 99 ad ba a0 55 3c ba c5 4d af 3a 6a a2 74 3a
       -0.0013244469 -0.000718439 0.0013374618 0.0009332063
000060 7e 80 4a 38 64 87 a4 3a 3f 6b 30 38 ee 43 bd b9
       4.828022e-05 0.0012552557 4.206155e-05 -0.000360995
000070 31 99 9a 3a 15 8d 94 ba 73 b0 15 b9 42 44 7e ba
       0.0011794922 -0.001133355 -0.0001427548 -0.0009699502

model.model.mixing_blocks.0.intraatomic_context_net.2.weight f4 [96, 32]
000000 52 db 0e bd e9 b7 ae 3d 02 65 0e 3e f4 b0 45 be
       -0.03487713 0.08531172 0.13905719 -0.19305784
000010 3f 0a 50 be b3 19 01 bd 1e 12 26 be 72 50 38 be
       -0.20316409 -0.03151865 -0.16217849 -0.17999437
000020 c6 b6 34 be ed 58 07 3e 2c ab 83 3d 2a cb d1 3d
       -0.17647848 0.13217516 0.06429133 0.102438286
000030 e5 09 8a bd 0a 7f 1c 3e 91 32 05 3e a8 fa dd 3d
       -0.067401685 0.15282837 0.13007571 0.108388245
000040 c2 38 95 bd 37 41 9c 3d 8c ba 62 bd bb 18 3c bb
       -0.07286216 0.07629626 -0.055353686 -0.0028701264
000050 2c 07 27 3e ab 52 77 bd 6a e3 83 3d 01 d2 59 be
       0.1631133 -0.060381573 0.0643986 -0.21271516
000060 25 4a 1b 3d 19 56 99 bd 94 57 4a be 80 11 dc 3c
       0.037912507 -0.07487125 -0.19759971 0.026863813
000070 b8 38 45 be fa 4d d5 3d 34 c8 de bd 77 7b 97 3d
       -0.19259918 0.104152635 -0.108780295 0.07396596
000080 ab 9e 19 bd b3 13 78 bc 99 55 b5 bc ae 8e d8 bd
       -0.037504833 -0.015141415 -0.022135543 -0.10574089
000090 ee 14 0e 3d f5 dd fe bd 4e ff 53 3e 76 bf e6 3d
       0.03468793 -0.12444679 0.2070286 0.11266987
0000a0 fa 5f 04 bd eb 40 16 3e 5a 31 32 be e7 90 bd bd
       -0.032318093 0.14673202 -0.17401639 -0.092561536
0000b0 39 bd 47 3e 36 88 4b 3d 77 3d a2 bd ca 07 d1 3d
       0.19505776 0.049690448 -0.0792188 0.10206564
0000c0 c8 1e b4 bd 29 5c 35 bb 74 f9 0a 3e 64 2d f6 3c
       -0.087949336 -0.002767334 0.13571721 0.03005094
0000d0 a3 aa 98 3d 14 b2 4b be aa 15 0a 3e a5 15 3c 3e
       0.07454421 -0.1989215 0.13484827 0.18367632
0000e0 37 87 1f 3e 53 77 3c be 6e 5d 87 3d ef 65 10 be
       0.15578924 -0.18404894 0.06609617 -0.14101385
0000f0 8b 69 10 be 43 24 53 3e 08 dd 0c 3e a2 f6 e8 3d
       -0.14102761 0.20619301 0.13756192 0.113751665
000100 71 b5 a8 bd 7c 84 f7 3c ad 24 fd 3d 74 d9 55 be
       -0.08237732 0.03021454 0.12360511 -0.20883733
000110 f7 66 e1 3d 15 00 10 3e 27 c7 83 3d fa 57 90 bc
       0.11005967 0.14062531 0.0643447 -0.017620075
000120 fb f4 f6 3d 29 c4 22 be 65 39 27 3e 8d d5 3d 3e
       0.12058445 -0.15895142 0.16330488 0.18538494
000130 63 2e b7 3d c0 90 7d 3b 3e d2 87 bb 6e 4f 3f 3e
       0.089443944 0.0038691014 -0.004144936 0.18682644
000140 c6 5b b7 bd 91 3c 11 be 3d d6 22 3d ef 16 d8 bd
       -0.08953051 -0.1418326 0.039755095 -0.10551249
000150 f8 0d 6d 3d 4e 1a d7 bd 42 6b 58 3d 34 b3 32 be
       0.05787465 -0.10503064 0.052836664 -0.17451173
000160 eb f5 5b 3e 80 25 12 3e 47 72 4d 3e a8 b9 37 3e
       0.21480529 0.14272118 0.20063125 0.17941916
000170 87 ef 79 bd b3 ae f5 bd 16 73 33 bc eb 28 7d bd
       -0.061019447 -0.11996212 -0.010952732 -0.0618066
000180 30 c0 f5 bd 86 e1 cf bb f4 3d 0c 3e 8f 0d 8f 3d
       -0.119995475 -0.006344023 0.13695508 0.06985008
000190 e6 1e 93 3c 8e 2f 03 3d 89 5b cd 3d f2 8a 68 3c
       0.01795907 0.032027774 0.100272246 0.014193283
0001a0 6e e2 9c bd 79 ad 4f be 74 fb 00 be 06 8d 60 3d
       -0.076603755 -0.20281018 -0.12595922 0.05482199
0001b0 5f fe 1d 3e b7 d4 cd bc 28 96 ad 3a 73 0a 02 3e
       0.15429066 -0.025125844 0.0013243603 0.12699299
0001c0 52 46 98 bd 93 e8 03 bd 83 95 5f bd 4c f7 cc 3b
       -0.074352875 -0.032204222 -0.054585945 0.006255066
0001d0 9a c9 07 3e 52 9b 4c be 6e 60 09 3e 2b 0c 9a bd
       0.13260499 -0.19981125 0.13415691 -0.07521852
0001e0 0e 4f 44 be d6 45 3d 3e c0 8f dd bd ba 7d f6 bd
       -0.19170782 0.18483672 -0.10818434 -0.12035699
0001f0 5a 07 b4 3d 98 73 e6 bd a2 d3 63 3d a6 d1 3a be
       0.08790465 -0.112525165 0.05562175 -0.18244037
000200 ba a3 17 3e 58 92 40 3e 54 05 cd 3d a2 a4 19 bd
       0.1480855 0.18805826 0.10010782 -0.03751052
000210 09 73 06 3e ad 58 4e bd 68 b5 3c be 00 d6 3d be
       0.1312982 -0.050377537 -0.18428576 -0.18538666
000220 04 40 22 3e 4e 08 24 3e ab 6c 7f 3d 2c 2d 3d 3e
       0.15844733 0.16018793 0.062359493 0.18474263
000230 a6 39 5e 3e 84 46 05 3e 9b f2 c1 bc e3 bb 24 be
       0.21701679 0.13015181 -0.023675254 -0.16087298
000240 55 93 c6 3b 85 fb 59 3e 7b c1 4c 3d 02 ea 2e 3e
       0.006060044 0.21287353 0.049989205 0.17081454
000250 b1 1a 58 be 0e 33 8e bd 39 65 fd bd ed a8 60 3d
       -0.21103932 -0.06943332 -0.12372822 0.0548486
000260 85 41 ad 3d 01 cd eb 3d d5 c5 f8 bd 57 26 e9 3a
       0.084597625 0.11513711 -0.121471085 0.0017787915
000270 59 3b a2 3c eb 40 33 bb 95 b0 e5 3c 71 47 26 3e
       0.01980369 -0.0027351927 0.028038302 0.1623819
000280 00 24 fb bd c9 b5 22 3e d5 3b 37 3e f4 9d e1 3d
       -0.12262726 0.15889658 0.17893918 0.11016455
000290 82 6f 3d 3e 2a c8 9e bd 16 1a 5b be 0e ce dd 3d
       0.18499568 -0.07753022 -0.2139667 0.108303174
0002a0 b3 20 08 bd 66 a3 39 be ce 5a d9 bd ee 2c 9a bd
       -0.03323431 -0.18128738 -0.10613023 -0.07528101
0002b0 ce f5 2a 3d 32 79 4b 3e 90 44 f5 bd 9c 39 53 3e
       0.041738324 0.19870451 -0.11975968 0.20627445
0002c0 a0 38 9d 3d 98 89 b3 3d d6 6a 5b bc c7 d1 73 3d
       0.07676816 0.08766478 -0.013392171 0.05952623
0002d0 a2 3e 56 3e 1c 6b 43 be 88 36 91 3c c4 09 4c bc
       0.2092233 -0.19083828 0.017726198 -0.0124535
0002e0 49 b0 0a be 84 07 e7 3d 52 32 1b be 6d cf 0f 3e
       -0.1354381 0.1128073 -0.15155914 0.1404397
0002f0 b7 57 72 bd dc 8d 59 be 3f 19 54 bd 45 54 b0 bd
       -0.059165683 -0.21245521 -0.05178189 -0.08609823
000300 77 26 18 be d6 c5 dc 3c 26 d5 02 3d b7 ae 0b be
       -0.14858423 0.026949804 0.031941555 -0.13640867
000310 85 63 23 3e e4 01 80 bd a2 45 b5 3d 6b fd 36 be
       0.15955932 -0.062503606 0.08851172 -0.17870109
000320 8e 7e 47 3e 8e ef 48 be d9 c4 2c bd 3f 25 0b be
       0.1948187 -0.19622633 -0.042179916 -0.13588427
000330 21 7b 33 be 1a b2 08 3d 33 10 c8 bd 04 8c 65 bd
       -0.17527439 0.033372976 -0.09768715 -0.056041732
000340 45 4d 0d be cd 73 d9 3d d6 65 45 be aa 6a cb 3b
       -0.13799007 0.1061779 -0.19277129 0.0062077837
000350 89 3f 14 3e 4c 33 4a be 38 6b 4b be c6 78 52 be
       0.14477362 -0.1974613 -0.1986512 -0.20553884
000360 83 65 16 bd 8c 9a da 3d 78 57 ce bd 8a c5 12 be
       -0.036717903 0.10674009 -0.10075277 -0.14333168
000370 c5 e3 aa bc fb 10 ee bd 29 4e f2 bd 80 08 0a be
       -0.020860562 -0.116243325 -0.11831314 -0.13479805
000380 e2 6a 7d 3d ee 77 13 3e 9b 47 b7 3d d8 eb bb 3b
       0.06186951 0.14401218 0.089492045 0.005734902
000390 28 d1 2f 3e ac ad 28 3e e4 20 e2 bc e1 ee 29 3e
       0.1716963 0.164725 -0.027603574 0.16595031
0003a0 d4 20 20 3e ab 36 2e 3c c0 c4 fa bd ac 94 c2 bd
       0.15637523 0.010633151 -0.12244558 -0.09501013
0003b0 2a e6 27 3e 07 94 14 3e c5 0a 43 3e 5e 4b a5 3d
       0.16396394 0.14509593 0.19047077 0.08071016
0003c0 4c 08 d9 bd e1 ff bc 3d 75 97 3d bd 83 2f 5b be
       -0.10597286 0.092284925 -0.04628702 -0.21404843
0003d0 d5 14 52 3e dc 1a 53 be ed 3a 15 be 6d 89 57 3e
       0.2051576 -0.20615715 -0.1457326 0.21048518
0003e0 ee 52 56 be 25 f2 04 bd d8 27 40 be 44 22 17 3e
       -0.20930073 -0.03245749 -0.18765199 0.14759165
0003f0 19 b3 db bd 3e fa a4 3b 7c 1d 4e 3e e0 7d 28 be
       -0.107275195 0.005034714 0.20128435 -0.16454268
