tests/continuity/training_ckpts/schnet_train.ckpt (torch, 138028 bytes, 60 tensors)

model.model.embedding_layer.weight f4 [50, 32]
00000000: 8ca7 213e 2796 a23e edf8 e23d e7dd 333e
00000010: 7861 3bbe 83fb 4dbe a048 acbf db87 6f3e
00000020: 6d31 16c0 04c3 e73f d341 0fbe cf23 b4bf
00000030: 5dcf b23f 5c6e d2bf c0e6 e83f 4a0b 9d3f
00000040: ac68 b23f fafd 6c3e f059 fe3d b748 6fbe
00000050: fc6a 0e40 4eee 64bf 75e2 57bf ed0a 1740
00000060: 47c8 0e40 8603 59be d248 a73e c26e a23e
00000070: c4b3 6fbe e56d 8bbd 9663 1abf 0dab babf
00000080: c9de 393f 43e7 b1bf 74c5 a73e 7334 283f
00000090: 8003 143e 2874 41bf 7a26 a1be cba6 ae3d
000000a0: 9540 f4bf f20e bd3e 126e 76bf 6dc3 9a3e
000000b0: 092c a13f 64e4 fdbd e1cf 4dbf b3a0 c13f
000000c0: beac 063f 4fe4 063f 8490 0c3f 45f3 fa3f
000000d0: aa23 a93b bf89 9ebf 5283 dabf ecdc b2bf
000000e0: b94d 8a3f c521 023f c701 a1be 53ca 723f
000000f0: 3813 983d 8c8a 5e3f 2c60 b1bf 96f7 dc3e
00000100: 1a16 8e3e 4b8e 99bf 9839 0e40 516d 67bf
00000110: d66a 893f 77c5 a6bf ab26 58bc 3849 143f
00000120: b0b7 eb3e e11e 8bbc 4743 92be 6ed1 b5bf
00000130: aff1 9a3d 8891 16bf d6ec 343f c1be d83f
00000140: 78c1 c9bf ae66 d2bf cecb bc3c b485 27bf
00000150: d293 e03e ff12 183f b645 89bf c49c e8be
00000160: 983f 733f 74e0 33c0 a4d4 acbf 5a38 d6bf
00000170: 08f6 bbbd a464 cb3f be62 a2be 4ca2 3f3f
00000180: bdde 9b3f 822f e33f e696 b63e 3afe 393f
00000190: 6d35 3e3f d895 413f 459b bdbf 7e94 db3f
000001a0: e412 7c3f 32fc f93e ce54 acbf 9ed9 14bf
000001b0: 4b6a 08bf cda9 873f e7c3 8fbe b725 853f
000001c0: b753 d43f f544 b9bf 2074 c7be c301 473f
000001d0: a0a9 163f 1fe8 ffbc 017a 37bf b9e2 a23f
000001e0: 106b 033e bb82 c03d a99a 033f 3126 cabf
000001f0: 01ad 23bf 90d1 603e 63a3 70bf 5804 d23f
00000200: e51e 21bf adbd 663f 0971 3cbf 4b80 72be
00000210: cde4 f13f 31da a9bf 917b b63e 338c 523f
00000220: 5824 85bf 4804 933f 12a4 d43e b8e6 4abf
00000230: 0e11 8d3e bcc7 283f 9c1b b63f ca47 c83f
00000240: 638e 873f 14b9 08bf 25e9 3dbf 039a f73e
00000250: 26f0 0f3e 73e9 9ebe c1f5 2abd d34a 9bbf
00000260: b023 b7be 17f2 b0bf aa61 813d bffe 59bf
00000270: bbcf f83f 8f5f e1bd bd08 33bf 3247 253b
00000280: edeb 0d3f 6d23 e43e 34ff e93e 5ff9 b5be
00000290: 7846 0bbf 7b27 abbe e9a9 563f 5d0e 56be
000002a0: 5cb6 babf 8ca2 5d3f e99c 39bf 86bf ea3e
000002b0: 512a af3f c0f5 80bf 1c57 82bf 55a9 b03f
000002c0: 46b6 91bf d318 92bf 6ce6 28bf 72ac 6f3f
000002d0: a3d1 413f e296 e63d cc1f 5cbe 907f 363f
000002e0: 219e b2be b934 673e 456c 4ebd 9927 b4bf
000002f0: 0a38 07c0 9f97 54bf 18a9 efbd abd0 15bf
00000300: a076 aabf 4e0b 093f a03d 293f 21b1 d6be
00000310: 8805 c8be bb29 5440 2219 a53f 290c b03f
00000320: 1461 a0bf 52c7 433f 3246 81bf b0f2 22c0
00000330: 15df ee3f 98e2 843f 3b15 c23e 6b10 4cbf
00000340: ac92 8cbe 76a8 8fbf d493 243f 646c 763f
00000350: 7543 a03f 77e8 b7bf 33ed e6bf 5e23 87be
00000360: a333 6cbf df02 8b3f bccb 1abe 0cda 9bbf
00000370: fe31 3b3e 8144 42be dd5e 05bf 2b59 bb3e
00000380: cd3c 7cbd 4f00 3cbc 8bb5 f7bf 54b2 773f
00000390: fd0f b0be c1fd 653f 3bc8 4fbe 2532 3e3f
000003a0: e49d 123f d59a 163e 24c1 723f 283e 303f
000003b0: 8ba9 cfbe e959 93be df79 94bf bdaa 91bf
000003c0: 4090 1f3f 7063 72be b047 c53f 8516 5b3f
000003d0: 54c7 a83f 087e b13f 3ad6 273f f785 4dbe
000003e0: e915 cc3e 95ac 99be ca94 b0bf 90a2 aebf
000003f0: c1b1 9ebe 767c d93e 20a4 23bf 8125 653f
0.1578657 0.31755182 0.11082635 0.17565118 -0.182989 -0.20115475 -1.3459663 0.23391668
-2.3467667 1.8106389 -0.13989954 -1.4073428 1.3969532 -1.6439929 1.8195419 1.226907
1.3938193 0.2314376 0.12419498 -0.23367582 2.2252798 -0.89426124 -0.8432992 2.3600419
2.230974 -0.2119275 0.32672745 0.31725127 -0.23408419 -0.0680807 -0.60308206 -1.458345
0.7260557 -1.38987 0.32767832 0.6570503 0.1445446 -0.75567865 -0.31474668 0.08527907
-1.9082209 0.36925465 -0.96261704 0.30227223 1.2591563 -0.12397078 -0.80395323 1.5127167
0.52607334 0.5269212 0.54908013 1.960549 0.005161722 -1.2385787 -1.7071326 -1.397367
1.0804969 0.5083278 -0.31446669 0.9483997 0.07425541 0.86930156 -1.3857474 0.43157643
0.27751237 -1.1996549 2.2222652 -0.9040118 1.0735729 -1.3029011 -0.013192813 0.5792422
0.4603858 -0.016982498 -0.28566954 -1.4204538 0.07565629 -0.58815813 0.7067388 1.6933213
-1.5762167 -1.6437585 0.0230464 -0.6543839 0.43862778 0.59403986 -1.0724399 -0.45432103
0.9501891 -2.8105745 -1.3502393 -1.6735947 -0.09177786 1.5890088 -0.3171596 0.7485702
1.2177349 1.7748873 0.35662 0.72653544 0.7430027 0.7561927 -1.481301 1.7154691
0.98466325 0.48825222 -1.346338 -0.5814456 -0.5328719 1.0598694 -0.2807915 1.0402135
1.6588048 -1.4474169 -0.38955784 0.77737063 0.5885258 -0.031238614 -0.7167054 1.272544
0.1283381 0.09399935 0.5140787 -1.5792905 -0.6393586 0.21954942 -0.9399931 1.6407576
-0.62937766 0.9013317 -0.7360998 -0.23681752 1.889795 -1.3269712 0.3564115 0.8224518
-1.0401716 1.1485682 0.41531426 -0.792583 0.27552074 0.6592977 1.4227176 1.5646908
1.0590328 -0.53407407 -0.74183875 0.4835969 0.14056453 -0.31037483 -0.041738275 -1.213221
-0.35769415 -1.382388 0.06317456 -0.85154337 1.9438394 -0.110045545 -0.6993521 0.0025219438
0.5543812 0.44558278 0.45702517 -0.35541818 -0.544044 -0.3342856 0.8385301 -0.20903917
-1.4586902 0.8657615 -0.7250505 0.45849246 1.3684789 -1.0074997 -1.0182834 1.3801676
-1.138375 -1.1413826 -0.65976596 0.93622506 0.75710505 0.11259247 -0.21496505 0.71288395
-0.34886268 0.22578706 -0.050396223 -1.4074584 -2.1127954 -0.83043855 -0.11702174 -0.5852153
-1.3317451 0.53532875 0.6610966 -0.41932014 -0.3906672 3.315047 1.2898295 1.3753711
-1.2529626 0.76476014 -1.0099547 -2.5460625 1.8661829 1.0381651 0.37906823 -0.7971255
-0.27455652 -1.1223285 0.6428807 0.9625914 1.2520586 -1.4367818 -1.8041137 -0.2639417
-0.9226629 1.0860251 -0.15116781 -1.2175918 0.1828079 -0.18971445 -0.52097875 0.36591467
-0.06158142 -0.011474683 -1.9352278 0.9675648 -0.34387198 0.8984032 -0.20291226 0.74295264
0.5727217 0.14707501 0.9482596 0.6884484 -0.4055904 -0.28779534 -1.1599692 -1.138023
0.62329483 -0.23670745 1.5412502 0.8558124 1.318583 1.3866587 0.6556126 -0.20070635
0.39860466 -0.30014482 -1.3795407 -1.364336 -0.3099499 0.4247777 -0.6392231 0.8951035

model.model.rbf_layer.means f4 [30]
00000000: e53a a434 1a3e 0d3d f13d 8d3d d5dc d33d
00000010: dd3d 0d3e 4f8d 303e c1dc 533e 332c 773e
00000020: d23d 8d3e 8be5 9e3e 448d b03e fd34 c23e
00000030: b6dc d33e 6f84 e53e 282c f73e f169 043f
00000040: ce3d 0d3f aa11 163f 86e5 1e3f 63b9 273f
00000050: 408d 303f 1c61 393f f834 423f d508 4b3f
00000060: b2dc 533f 8eb0 5c3f 6a84 653f 4758 6e3f
00000070: 242c 773f 0000 803f
3.0590232e-07 0.034483053 0.0689658 0.10344855 0.1379313 0.17241405 0.2068968 0.24137954
0.27586228 0.31034502 0.34482777 0.37931052 0.41379327 0.448276 0.48275876 0.51724154
0.5517243 0.58620703 0.62068975 0.6551725 0.6896553 0.724138 0.75862074 0.7931035
0.8275863 0.862069 0.8965517 0.9310345 0.9655173 1.0

model.model.rbf_layer.betas f4 [30]
00000000: 0900 6143 0900 6143 0900 6143 0900 6143
00000010: 0900 6143 0900 6143 0900 6143 0900 6143
00000020: 0900 6143 0900 6143 0900 6143 0900 6143
00000030: 0900 6143 0900 6143 0900 6143 0900 6143
00000040: 0900 6143 0900 6143 0900 6143 0900 6143
00000050: 0900 6143 0900 6143 0900 6143 0900 6143
00000060: 0900 6143 0900 6143 0900 6143 0900 6143
00000070: 0900 6143 0900 6143
225.00014 225.00014 225.00014 225.00014 225.00014 225.00014 225.00014 225.00014
225.00014 225.00014 225.00014 225.00014 225.00014 225.00014 225.00014 225.00014
225.00014 225.00014 225.00014 225.00014 225.00014 225.00014 225.00014 225.00014
225.00014 225.00014 225.00014 225.00014 225.00014 225.00014

model.model.interaction_blocks.0.conv.lin1.weight f4 [32, 32]
00000000: 230f 743e 5c20 8abe f097 b1bd 7355 0dbe
00000010: 60da cf3c f59b 163b 9d76 c63d 8c82 b1bd
00000020: 907e 0fbd 5b2b 5c3e dff5 71be 8dde 6ebd
00000030: b8d0 90bd 1020 813e 17db 233e b7cc 883e
00000040: 1e9c 0dbe 02ff f3bc 69b4 693e 8a44 a1bd
00000050: 3202 8abe ec5e b3bd e9e6 bbbd bb0e 983e
00000060: 900d 6cbe 930b 7f3c 09c5 4abe 194f a8bd
00000070: 667b 5fbe 96a3 32bc e9b9 af3d 150e 87be
00000080: 2800 7c3e 5604 9bbe c7d8 58be a43b 62be
00000090: c215 84be 5661 99bd c2c9 973e 5d5e 18be
000000a0: fa36 89be b151 843e 7947 95be 7c83 563e
000000b0: 7781 45be efd7 1abc 40fc 563e ae98 b2bd
000000c0: c06e b73d 79aa 5b3e 7c9d 803e cc62 4abe
000000d0: eb10 8a3e 9b58 95be 41df 6f3e 6dc5 59be
000000e0: d7b0 8c3e 8ff7 42be 279c 6abc fe37 54be
000000f0: 6459 c4bd 3b90 183e 32a8 87be ca94 f3bd
00000100: e919 2f3d fc61 7e3d 96d1 013e 2162 cabd
00000110: e005 953d 19aa a93d 9ec8 99be f493 113e
00000120: 0997 963d 645e 403c 01ee 2f3e c2de dc3d
00000130: 9d6d bfbd 6048 e1bd bad8 2b3e 5442 413e
00000140: 923f 9a3d 4b62 30be 8937 ae3d a961 98bd
00000150: 816e 80be 29b5 513d ff46 8f3e d047 7c3e
00000160: 60cb 603d cc8e 09be e8a5 fa3d 0d3a 6f3e
00000170: baf4 893e 9687 a9bd 7109 d73d 4046 92be
00000180: 05cc 113e dcb9 76be c511 ec3c abe7 073e
00000190: be5f 7dbe a616 953e 3a4e 49be 572e 8f3e
000001a0: b8e3 953e 8ade 5e3e 3904 d43d b4a9 e93d
000001b0: 3e5d 93be 700d 8b3d 092f 873e 8ba6 4abe
000001c0: 9889 dc3c 3c2a 2bbd e3da 69be dc39 223d
000001d0: acdc d33d 7dcd e93d a2a4 883e dca2 ec3c
000001e0: 1e16 9abd 7cb8 33bd 27d3 4d3e fcbb 12be
000001f0: b153 86be fa33 683d 044c f53b 9da5 633d
00000200: 61cb 8dbe 9723 9c3e 12ea 92be 1898 863e
00000210: 3826 8cbd 0e19 22be 0a3f 9b3e b8c7 65be
00000220: 3723 4ebe 23a7 9b3e 8789 8f3e 23b8 973e
00000230: 8037 473e 5457 3bbe 5c87 e73d 84eb d73d
00000240: 25e2 82be e10f b3bd 054c 18be be32 61bd
00000250: d6b8 c53d 1eae 3e3e bacf bcbd 69b3 8d3e
00000260: be0b 32be e054 35be 3463 43bd 1103 793d
00000270: 6ac2 73be b97c 6a3e ef4b ea3c a2d5 113d
00000280: c58a a1bd 4e96 7abd b4b8 583e 3905 8bbc
00000290: 7a0e 9cbe 7f89 7ebe 49de 6fbd 78f4 363e
000002a0: b405 f2bc 9f44 703d 2bf1 89be c5a0 7bbe
000002b0: 0d50 d63d 0cba 713e 56af 983e 9aa5 ebbd
000002c0: 8ca3 bdbd 35c4 a63c 0c36 09be c93f 963d
000002d0: 9875 3fbe b9d8 ecbb 6f22 8fbd c8bc 0a3e
000002e0: 58b1 8cbe 08f5 913e e764 ccbd 4679 073e
000002f0: e1f9 52be 7a2c a53c 00a7 a53d e48c fcbb
00000300: aa1b f83a 5191 05bc 1ec1 84bd 43af 75be
00000310: 0bec cc3d a3fb 0bbe 3635 21bd 45a4 bbbd
00000320: b452 58be c305 dc3d e4d3 6abd a937 46be
00000330: c784 33be 4cf6 1cbe f415 40be cf70 8bbe
00000340: 92ba 313e 1a04 8cbe 09b8 273e 0c44 073e
00000350: 2687 123e 9032 813e bd53 71be f6fd 0a3e
00000360: 84f8 793e f385 653e 33d6 8e3d 6091 40bd
00000370: 4bbb 9c3e 31e7 89be d428 273d 2608 38be
00000380: 3c28 76bd d8a6 ee3d c910 86be 7819 993e
00000390: 8601 cbbd 7003 b63c f53f 36be 3377 0a3e
000003a0: ce48 413e 12cd 21bd 7a05 3c39 0bc7 4c3e
000003b0: 431e e6bd 34e3 41be 4f19 06bd 0ad3 2cbe
000003c0: 8f54 a13b aaa2 2bbe 336a d4bd ca4a baba
000003d0: fcbf ed3d 9138 88be bdd8 c83d 0814 643e
000003e0: b021 acbd 34a1 903d d99c e43d 4f36 963e
000003f0: 6d9f c13c 10af 4b3d fb4e 523e 519e 82bc
0.23833899 -0.26977813 -0.08671558 -0.13802128 0.025372684 0.0022981141 0.096905924 -0.08667478
-0.03503281 0.21500914 -0.23628949 -0.05831771 -0.0707106 0.25219774 0.16001545 0.26718685
-0.13829085 -0.029784683 0.22822727 -0.07874401 -0.269548 -0.08758339 -0.09174902 0.29698738
-0.23052049 0.015566724 -0.19801725 -0.08218212 -0.21824417 -0.01090326 0.085803814 -0.2637793
0.24609435 -0.30276746 -0.21176444 -0.22093064 -0.2579785 -0.074892685 0.29646116 -0.14879747
-0.26799756 0.25843576 -0.29156092 0.20948595 -0.19287668 -0.009450897 0.20994663 -0.087205276
0.08956671 0.21451749 0.2512015 -0.1976425 0.26966032 -0.29169163 0.23425008 -0.21266718
0.27478668 -0.19039749 -0.014319456 -0.20724484 -0.095873624 0.1489877 -0.2649551 -0.11893614
0.04274932 0.062105164 0.12677607 -0.09881998 0.07276511 0.08284397 -0.3003587 0.14216596
0.073530264 0.0117412545 0.17180635 0.10784675 -0.09347079 -0.110001326 0.16781893 0.18872958
0.07531656 -0.17224996 0.08506686 -0.07440502 -0.25084308 0.05119816 0.27983853 0.2463677
0.054881454 -0.13433379 0.12238675 0.23361988 0.26944524 -0.08277814 0.10499848 -0.28569221
0.14237984 -0.24094337 0.028817067 0.13271968 -0.24743554 0.29118842 -0.19658747 0.27965042
0.29275298 0.2176458 0.10352368 0.114093214 -0.28782076 0.067896724 0.26403072 -0.19790094
0.026921079 -0.041788325 -0.22837405 0.03960596 0.10344824 0.11416147 0.26688105 0.028886251
-0.0752375 -0.04387711 0.2010008 -0.14329523 -0.26235726 0.056690194 0.0074858684 0.055577863
-0.27694228 0.30495903 -0.28694206 0.26287913 -0.06843227 -0.1582987 0.30321532 -0.22439468
-0.20130621 0.30400953 0.28034613 0.29632673 0.19454765 -0.18295032 0.113051146 0.10542968
-0.2556316 -0.08743263 -0.14872749 -0.054980032 0.09654395 0.18621108 -0.09219308 0.27675942
-0.17387292 -0.17708158 -0.04770203 0.06079394 -0.23804632 0.2289914 0.028600661 0.035604127
-0.07887796 -0.061178498 0.21164209 -0.016970264 -0.30479795 -0.24857138 -0.058561597 0.17866695
-0.029543735 0.058659192 -0.2694181 -0.24573047 0.10464487 0.23606128 0.2982127 -0.11506195
-0.0925971 0.02035723 -0.13399523 0.07336385 -0.18697202 -0.007227984 -0.069889896 0.13548577
-0.27479053 0.28507257 -0.09980183 0.13229856 -0.20603134 0.02016281 0.08088493 -0.007707225
0.0018929143 -0.008152322 -0.06482147 -0.23992638 0.10005959 -0.1367021 -0.039357387 -0.09162191
-0.21125299 0.107432865 -0.05733098 -0.1935717 -0.1753112 -0.1532833 -0.18758374 -0.27234504
0.17356327 -0.2734688 0.16378798 0.13209552 0.14309368 0.2523389 -0.235671 0.13573441
0.24411207 0.22414379 0.06974449 -0.04701364 0.30611643 -0.26934198 0.04081042 -0.17971858
-0.060096964 0.11652917 -0.2618468 0.29902244 -0.099124 0.022218436 -0.17797835 0.13522033
0.18875429 -0.03950221 0.00017931117 0.19997804 -0.11236241 -0.18934327 -0.03273898 -0.1687738
0.0049234102 -0.1676127 -0.103718184 -0.0014212963 0.11608884 -0.26605657 0.098069645 0.22273266
-0.08404863 0.07061997 0.11162729 0.2933831 0.02363559 0.0497275 0.20537941 -0.015944632

model.model.interaction_blocks.0.conv.lin2.weight f4 [32, 32]
00000000: 1708 5ebd 809c 93be f6bd 713d 3641 35bd
00000010: abc1 86be 093f 753e 1b2d 53be f3eb 6ebd
00000020: 5a57 f4bd c54a 59be 2bb4 323e 63f5 92be
00000030: 9a31 90be f458 943d 5ca1 42be 862a 013e
00000040: 71dd 5a3e 2454 063e 62c0 043e c897 8d3e
00000050: 528b 8a3e a7b4 973d 3ab9 76be 2a01 edbd
00000060: cd35 3bbe 6ba4 933e 70da 51be 4f8e 7bbe
00000070: fe29 343d dbd2 e43c 9011 9a3e 6fee abbc
00000080: d5f7 24be 282b 92be ca81 163e cd0a ec3d
00000090: 1d93 4c3e 1d5a 443e a2ad 4d3e 514d 7ebe
000000a0: d36d 973a f212 80bd a00e 80be 8438 913e
000000b0: 4016 833e da83 7b3e 51dc 023e bf6a 59be
000000c0: 534e 073b ffac 55be c1bb 913e 325c f03d
000000d0: c23c 6bbe 6be2 9e3c a759 08be 8fc0 67be
000000e0: f4b8 f13d 1758 c53d 7525 f53d 0af0 77bc
000000f0: 75d3 62bd 063e 87bd 7d05 823e fc79 46be
00000100: 910d 853e 731e 2d3e 382b 643e 6a0a 923e
00000110: 418a 273e 2a77 e1bd f0e7 6c3e 04e7 0bbe
00000120: e300 51be e078 91be d54b 24bd b884 92be
00000130: 8e98 b8bd d2aa 83be b5d2 f53d 9b03 ce3d
00000140: 258e a13d 31e6 a0bc be68 a0bc 155c 12bc
00000150: a335 79be d387 94be bfa9 403e fc29 053e
00000160: 6e54 0c3e c1a4 83be 88ba 8b3d 682e a0bd
00000170: d8d1 8cbe 492d 283e 4dd0 3abe 67ee 983e
00000180: 4ef1 35be e69e 51be 5d44 dbbd d84d 373e
00000190: a0d1 fe3d 431c 793d c202 9b3e 4451 8abe
000001a0: bf39 9bbe cad6 093e 197f 78be 04d4 6a3e
000001b0: 813d 2fbe 92da 4bbe c07d 61be b62e 513e
000001c0: 7149 99be ebda 793e f2b8 2bbe 1cf5 923e
000001d0: 52c3 73be 1325 53bc 21e8 31be a408 37be
000001e0: bbe3 63be c2e6 3dbd 0321 3b3e e2e6 843e
000001f0: d3de bc3d d20f 463e f4ad 3f3e 44bb 843e
00000200: 9d68 8a3e 55cb d7bd d1bd b13d 20c0 4dbe
00000210: 3f49 3b3e e8b7 5f3e fd8f f93d 6a3c 2dbb
00000220: 9b7c 553e 9617 4a3e d833 863d 1f39 9f3b
00000230: e281 973e 3267 1ebe c13e ff3d c1be 6ebe
00000240: 724a 3dbe 1c86 b63c 7537 153e 4c75 a0bd
00000250: 73e5 1fbe e8a3 463e 16b5 8b3e ec89 193b
00000260: 5388 60bd c34b 263e 5af1 84be 2f62 213e
00000270: 0ca5 79be e7a4 2abe 3eb4 4dbd ffb9 45be
00000280: f71d 0a3e aeea 693d 484c d9bd e2d8 7b3e
00000290: 2b33 413e 06b1 7e3e 472c 603e 47ba 643e
000002a0: 7dd1 d13c d1f2 353e dfb6 d1bd faac ae3c
000002b0: b534 423e 98c5 403e 73a5 8c3e b787 87be
000002c0: 4d61 56be f1a4 71bd 6114 a7bd 2dec 0c3d
000002d0: 1c55 1bbe 5b5b e13c dc87 b33d 8f77 8ebe
000002e0: 30c0 0b3d b8fe 003e 020a 1dbd 4674 193e
000002f0: e364 56be 52bf 09be b9e3 433c 1168 f43c
00000300: 7f2c e93c 74fd 003e 6b84 983e c61a 7abe
00000310: 8994 353d 9674 333a ce06 9ebd 6dce 9abe
00000320: 96cc 0b3e e385 0a3e b6d3 30bd d0be 4d3e
00000330: 8d54 103e ca89 fd3d 7352 5abe c611 99be
00000340: 8ce8 7e3d 69a4 0b3e 395d 343e 31c0 3abc
00000350: b8d4 53be 6945 263d 597e 4b3e 0c74 1e3e
00000360: 8022 adbd 6f33 7bbe b474 303e bc9c 803d
00000370: 4fd2 193c 3bec 6bbd 7687 22be 177a b5bd
00000380: 0610 9b3e 7095 403e d2f9 023d 5712 883e
00000390: e6d2 4fbe 3024 ae3d 0d00 533e 7811 c2bd
000003a0: 408d c13c 73ff 4cbd 46d7 fdbd 8c0f 623e
000003b0: 4c0b cfbd 1dbb 29bb 679a c83d fc22 0f3e
000003c0: c4ad 95be 8b14 9a3e effd dabc ef58 c43c
000003d0: 3d4a 843e d09f 443e 9d38 7c3e c221 90be
000003e0: c55a 893e 1b64 e33d 0213 943e 613a 50be
000003f0: e310 9e3d fe7f 323d b4a5 d13d d4e2 4cbe
-0.054206934 -0.28830338 0.05901905 -0.044251643 -0.26319632 0.23949827 -0.20622675 -0.058330487
-0.119307235 -0.21219929 0.17451541 -0.2870284 -0.28162843 0.07243529 -0.19006866 0.12613878
0.21373536 0.13118035 0.12964013 0.27654862 0.27059418 0.074075036 -0.24094096 -0.11572488
-0.18282242 0.28836378 -0.20493484 -0.24566005 0.04398536 0.027932575 0.30091524 -0.020987717
-0.16110165 -0.2854855 0.14697948 0.115254976 0.19977994 0.19175 0.20085767 -0.24834181
0.0011553116 -0.062536135 -0.25011158 0.2836343 0.25602913 0.24562016 0.12779357 -0.21232127
0.002064605 -0.20866774 0.28463557 0.11736335 -0.22972396 0.019395074 -0.1331545 -0.22632049
0.11802855 0.096359424 0.11970035 -0.015132913 -0.055377442 -0.06603627 0.25394812 -0.19382471
0.25986913 0.16906147 0.22282112 0.2852357 0.16361333 -0.11009057 0.23135352 -0.13662344
-0.20410495 -0.28412533 -0.04011138 -0.2861688 -0.090134725 -0.25716263 0.1200308 0.100592814
0.0788844 -0.019641014 -0.019581195 -0.008933087 -0.24336867 -0.29009876 0.18814753 0.13004297
0.13704082 -0.25711635 0.068226874 -0.07821351 -0.27503848 0.16423525 -0.18243523 0.29869387
-0.17767832 -0.20470771 -0.10706399 0.17900789 0.124423265 0.060817968 0.30275542 -0.27015126
-0.30317494 0.13460842 -0.24267234 0.2293244 -0.17113306 -0.19907597 -0.22020626 0.20427975
-0.29938844 0.24399917 -0.1676977 0.2870263 -0.23804978 -0.012887257 -0.17373706 -0.1787439
-0.22254841 -0.046362646 0.18274312 0.259574 0.09222188 0.19341972 0.18718702 0.25924122
0.2703294 -0.105368294 0.08678783 -0.20092821 0.1828966 0.21847498 0.12185667 -0.0026433715
0.20848314 0.1973556 0.06552857 0.0048591043 0.2959128 -0.15469053 0.12463141 -0.23314954
-0.1848543 0.022280745 0.14571936 -0.078348726 -0.15614872 0.19398463 0.27286595 0.0023428155
-0.05481751 0.16239838 -0.25965387 0.1576011 -0.24379367 -0.16664468 -0.05022072 -0.19309233
0.13487993 0.057108574 -0.106102526 0.24594453 0.18867175 0.24872217 0.2189189 0.22336684
0.025612587 0.17768408 -0.10239958 0.021322716 0.18965419 0.18825376 0.27469978 -0.2647073
-0.20935555 -0.05899519 -0.08158184 0.034404922 -0.15169185 0.027509382 0.087661475 -0.2782559
0.03411883 0.12597167 -0.038339622 0.14985761 -0.20936923 -0.13451889 0.011956149 0.029834779
0.0284636 0.12596685 0.29788527 -0.24424276 0.044331107 0.0006845681 -0.07716142 -0.30235615
0.13652262 0.13527636 -0.043170653 0.2009232 0.14094754 0.12379797 -0.21320514 -0.29896373
0.062233493 0.13636936 0.17613687 -0.011398361 -0.20686615 0.04059354 0.19872417 0.15473956
-0.08453846 -0.24531339 0.17232019 0.06279895 0.00938852 -0.057598334 -0.15871987 -0.088611774
0.30285662 0.18807006 0.03197653 0.26576492 -0.20295295 0.08502996 0.20605488 -0.09475988
0.023626924 -0.050048303 -0.12394576 0.22076243 -0.101095766 -0.0025898882 0.09795075 0.13978189
-0.29234135 0.30093798 -0.026732413 0.023968188 0.2583789 0.19201589 0.24630971 -0.28150755
0.26827064 0.11103078 0.28920752 -0.2033477 0.07718065 0.043579094 0.102366835 -0.20008403

model.model.interaction_blocks.0.conv.lin2.bias f4 [32]
00000000: 97d0 afba 0c65 c539 d517 9fba 1280 abba
00000010: c08e 9dba b85c aeba 6514 acba cd3f 72ba
00000020: 7f7c 97ba 138f 643a 6fbe 59ba 1a6b a239
00000030: d338 eeb9 abfe 6aba 2304 9cba 7bac 32ba
00000040: 64e4 573a 801f 63ba a3eb 4a3a 4810 11ba
00000050: 86b6 a23a 6d67 8a3a 50f1 83b9 2ce0 19ba
00000060: fc63 08ba 9836 973a 9d2a 843a 24bd aa3a
00000070: bfb6 88b9 0c20 1aba 38c4 9dba 42fa 87ba
-0.0013413605 0.00037650054 -0.001213784 -0.0013084433 -0.0012020692 -0.0013302779 -0.0013128637 -0.00092410744
-0.0011557488 0.00087188295 -0.000830627 0.00030978845 -0.00045437235 -0.000896434 -0.0011903088 -0.0006815863
0.0008235632 -0.00086640567 0.0007740801 -0.0005533737 0.0012414015 0.0010559388 -0.0002516606 -0.0005869891
-0.0005202887 0.0011536656 0.00100835 0.0013026339 -0.00026076098 -0.0005879409 -0.0012036627 -0.0010374265

model.model.interaction_blocks.0.conv.filter_network.layers.0.weight f4 [32, 30]
00000000: f9be 3b3e db10 7cbe f258 a1bd 5d99 5cbe
00000010: cae7 5dbe c7ca 6c3e 2905 a53d 19ad bcbd
00000020: f856 de3d 17d1 9a3d fd89 673d c34a 9abe
00000030: 302e 8c3d 0dcd 1e3e b1ec f03d eedd 973e
00000040: 7073 96be c6d4 103e 71c5 673e e90b e6bd
00000050: 018c a3bd c60b 6dbe 95c7 703e 9acd 3b3e
00000060: 43f5 a9bd 9498 5dbe 7fa1 5ebe 0ed1 febd
00000070: f971 9e3c 7893 0f3e d1d3 4f3c 410c 04bd
00000080: 3c6b 3f3d d4fb 533e 80f8 e43d bc8d 0ebe
00000090: 5341 833e 6d9c 5fbe df70 65be 47cf f83d
000000a0: b9ff 9abd 74b9 9dbe 8a67 ccbd 657e 3bbe
000000b0: 47fe 72be fc71 77be 209a 5fbe b36b 8d3e
000000c0: 289f 76be 7e24 8a3e 2b07 243d f0ac 273e
000000d0: 1e7a e3bd d3f5 ab3d 4eb4 9bbe 78f2 bfbd
000000e0: 7d9b 143e 1c85 1ebd 0421 883e c5c3 923e
000000f0: b6c3 953e 0045 7d3d 00c4 da3d 90ea 8abe
00000100: 499b 59be 7f97 263e 6573 7fbe 613c 573d
00000110: 7e9d 12be 3bd1 cd3d a4dd d93c 6a99 86bd
00000120: d2a1 8abe 75cb e33d 6f0b 48be 594c 5d3e
00000130: 50fc 3abe dc18 a0bd b7fc 923e cb1f bbbd
00000140: 5984 ea3d 8898 103e 5702 5d3e a517 743d
00000150: 236d 0a3e e4c9 2ebe 0dc6 4dbe 9aa8 93be
00000160: 0506 923e 2b75 8fbe 9618 36be 115d 5bbd
00000170: d388 83be bfca 6a3d 9459 503e 54be c93c
00000180: 11d8 183e d6ab 133e 9971 433e 4031 0a3d
00000190: a5eb 30be 2fc8 89be ffec 343e b277 7cbe
000001a0: 4eca 6a3e 75e0 2b3c af69 f53d 825e 633e
000001b0: fcc2 8d3e b3ca 55be b672 ba3d 89fb 873e
000001c0: f144 14be eb93 f5bd 4b9e 603e 70a3 3c3e
000001d0: d369 e73d b98d 3c3e 62ab de3b 7539 3b3d
000001e0: 0a28 08be b987 213d 5af6 68be 2d3b e93d
000001f0: 5ff9 ffbd f290 433e a9f0 463e 1b15 3ebe
00000200: f7d2 073e 4791 8ebe 43e5 3fbe 7094 84bd
00000210: 05d6 143e a8d4 48be 0e7e 273e 326e 74bd
00000220: e670 99be 5025 583e 2293 cc3d ef34 8d3e
00000230: f9ab d03c d8bd c4bc aeb8 8a3e 59b3 0c3e
00000240: cc46 9e3e df14 3f3e 65e3 23be 4837 07be
00000250: e46a bc3b e824 543e 1fbb 4c3e ea79 8bbe
00000260: 7c49 5dbe bb42 993d 123b 35be ada8 983e
00000270: 809a 09be 62ec 3e3e 7edf cb3d 8bb0 54be
00000280: 0c45 27be bf12 763e 1e55 64bd e1b6 9ebe
00000290: e315 2a3d 9a09 823a e32d 93be 4c5c 22be
000002a0: 5efe 863e 1c1e 91be 66f5 b5bd a064 23be
000002b0: 421a 41bc ced0 dc3d ece8 aa3d 9bd5 8e3e
000002c0: 1d2c 79be f100 263c ddef 21be d676 9cbe
000002d0: e26d de3c 541f 0dbd 9b73 733e 9ffb 70be
000002e0: 6a0d 18bd 8bbe 80bd 2ab4 2abe 34ce c4bd
000002f0: f42d 363d 6703 76bd 50c7 53bd 0971 71be
00000300: 3d99 b23d 636b 2dbe 39aa 6ebc e511 af3c
00000310: 0a43 02be 19f5 0b3e f906 153e 8b7a 2b3d
00000320: 7d83 2d3e 677c 443e a886 1dbe 9f05 15be
00000330: 9ca1 7d3d bace d23d e73d 1b3c fcad 0e3e
00000340: a286 313e be70 29be 08be 53be 5c18 033e
00000350: c2c0 5c3e 51c5 31be 0f3b e73d e09d bc3d
00000360: 60cc 3c3e 7120 73be 1eb4 003c 73b6 61bd
00000370: 53f1 463e bbed a83d 6145 25be e8d6 1dbe
00000380: e849 5f3e 3892 85be 3466 2a3e 3c9b 6cbe
00000390: 02b0 62be 73d6 313e 06a8 70be 0253 82bd
000003a0: a7e5 3c3e a66d 9c3e 5a8e 6f3e 74fe 4a3e
000003b0: 434b 1ebe de46 7abe 6863 503c 9ada 783e
000003c0: f3c7 743d b288 aabd 0680 793d 24e9 ccbd
000003d0: 6bb8 8f3e dd4d 5a3e 597d ccbc 0b00 64be
000003e0: 589d 61be 31d5 173b 5665 97be 6014 9c3d
000003f0: 18a5 9a3e a87b f53b 9ab6 8cbe c4d4 39be
0.18334569 -0.24615805 -0.07878293 -0.21542878 -0.21670452 0.23124228 0.08057625 -0.09212703
0.10856432 0.07559412 0.05652808 -0.30135164 0.06844747 0.15507908 0.11763895 0.29661506
-0.29384947 0.14143667 0.22633912 -0.112327404 -0.07985688 -0.23149022 0.23513635 0.1834015
-0.08298733 -0.21640235 -0.21741293 -0.12442218 0.019341456 0.14021099 0.012684778 -0.03223825
0.046733126 0.20701534 0.1118021 -0.13921255 0.25635776 -0.21837015 -0.22406338 0.1214891
-0.075683065 -0.30805552 -0.09980686 -0.18309934 -0.23729812 -0.24164575 -0.21836138 0.2762123
-0.24084151 0.26980966 0.0400459 0.16374564 -0.111072764 0.083964966 -0.30411 -0.09372419
0.14512439 -0.03870116 0.2658769 0.28664985 0.29250878 0.06183338 0.10681915 -0.27132082
-0.21250643 0.16268729 -0.24946363 0.052547816 -0.14317891 0.10049673 0.026594944 -0.0657223
-0.27076584 0.11122791 -0.19535612 0.21611156 -0.18260312 -0.078172415 0.2870843 -0.091369234
0.114510246 0.14120686 0.21582924 0.05959286 0.13518195 -0.17069203 -0.20095082 -0.2883957
0.28520218 -0.2801908 -0.17782816 -0.053555552 -0.25690326 0.05732226 0.20346671 0.024626888
0.14926173 0.14421019 0.19086303 0.033738375 -0.17277391 -0.2691054 0.17668532 -0.24655035
0.22928736 0.010490526 0.11983048 0.2220402 0.27687824 -0.20878105 0.091039106 0.26559094
-0.14479424 -0.11991104 0.21935384 0.18421721 0.11299481 0.18413438 0.0067953328 0.045709092
-0.13296524 0.039436076 -0.22750226 0.1138824 -0.12498736 0.19098261 0.19427742 -0.18562739
0.1326407 -0.27845213 -0.187398 -0.06473625 0.14534767 -0.19612372 0.1635668 -0.059675403
-0.29968947 0.21107984 0.09989001 0.27579448 0.025472628 -0.024016306 0.27094024 0.1374029
0.3091339 0.18660305 -0.16004713 -0.13204682 0.005750047 0.20717204 0.19993256 -0.2724145
-0.21610063 0.07483431 -0.17698315 0.2981619 -0.13437843 0.1864486 0.09954737 -0.20770471
-0.16334933 0.24030589 -0.055745237 -0.309989 0.04152478 0.0009921074 -0.28745946 -0.15855521
0.26365942 -0.28343284 -0.08884697 -0.15956354 -0.0117860455 0.10782014 0.083452076 0.27897343
-0.24333234 0.01013206 -0.15814157 -0.30559415 0.027152006 -0.034453705 0.23774569 -0.23533486
-0.037122168 -0.06286343 -0.1667029 -0.096096426 0.044477418 -0.06006184 -0.05170375 -0.23578276
0.08720634 -0.16935496 -0.014566951 0.021370837 -0.12720886 0.13667716 0.14553441 0.041864913
0.1694469 0.1918808 -0.15383399 -0.14552926 0.0619217 0.10293336 0.009475208 0.13933557
0.17336515 -0.16546914 -0.2067796 0.12802261 0.21557906 -0.17360426 0.112905614 0.092098
0.18437338 -0.23742844 0.007855443 -0.055105638 0.19427995 0.082484685 -0.16139747 -0.15414011
0.21805537 -0.2608812 0.1664055 -0.23106092 -0.22137454 0.17366962 -0.23501596 -0.06363489
0.1844698 0.30552405 0.23394147 0.19823629 -0.15458398 -0.24441096 0.012719013 0.2430214
0.059761 -0.08326854 0.06091311 -0.100054055 0.28070387 0.21318765 -0.024962114 -0.22265641
-0.22032678 0.0023167843 -0.295695 0.07621074 0.30204082 0.0074915476 -0.27483064 -0.1814757

model.model.interaction_blocks.0.conv.filter_network.layers.0.bias f4 [32]
00000000: c559 f639 a557 4e3a c209 b9b9 94c4 903a
00000010: e60c 1b3a a829 a738 be30 953a ddd0 a73a
00000020: 251c b9b9 7936 0e3a 58ab 17b9 3432 9239
00000030: 1d77 493a 9f36 60b8 9529 40b9 a686 dbb9
00000040: d693 813a f442 013a 1843 033a c8a2 9c3a
00000050: cc8c 41ba 9285 b039 6ca9 90ba 992a 00ba
00000060: 74ab 1d3a 3a7f 16ba 53c6 85ba b37a 663a
00000070: 4bea 39ba a9e3 a0ba 5868 97ba 53a5 c2b9
0.0004698766 0.00078713364 -0.0003529322 0.0011044913 0.0005914703 7.9709396e-05 0.0011382324 0.0012803335
-0.0003530692 0.0005424987 -0.00014464313 0.00027884694 0.0007685291 -5.345663e-05 -0.00018326037 -0.00041871256
0.0009885977 0.0004930936 0.0005007251 0.0011950368 -0.0007383346 0.00033668854 -0.001103682 -0.000488916
0.0006014623 -0.0005741004 -0.00102062 0.00087920873 -0.00070921023 -0.0012274879 -0.0011551483 -0.0003712574

model.model.interaction_blocks.0.conv.filter_network.layers.2.weight f4 [32, 32]
00000000: 1c86 313d 0c18 f6bd 5d60 923e 0689 093e
00000010: ef29 42bc 3561 6fbe 381c 06bd 9d6f c93d
00000020: f250 963e 7d5e 933e da99 d23d 4889 1c3e
00000030: 3be9 95be 3d05 803e c9a6 733d 7e54 15bd
00000040: 1ef4 64be 2973 77bd b941 b93d 5cb2 2c3d
00000050: 638e edbc fe0a 713e 448e 553e 9e0c 973d
00000060: 25e8 95be 2926 f0bd ae85 85bd 5c88 92be
00000070: c729 513e 2882 613e 414c 973e 9845 b33c
00000080: 75f6 75bc aba0 38bd 2904 273e 1c49 37be
00000090: 232b f03d 3f62 98bc fe8f 823d 371b dc3c
000000a0: 857a 4abe 1220 073e dd47 3b3e 4838 62be
000000b0: d793 923e e463 9bbe d8fb 973e 05d7 393e
000000c0: 364e 82be 3a60 c5bd 5f5f 003e 1965 013e
000000d0: 59b6 52be 11a0 96be a707 7d3e 051e f23d
000000e0: 2f0b 193e 8009 6b3e f438 713e 9f97 8fbe
000000f0: 61a0 45be a5eb 973b 987e 3e3d 28f3 70be
00000100: 0302 07be 53f4 d73d 8257 7dbe 68c9 8fbe
00000110: e6b2 1fbe 8275 14ba 9ab9 9bbe 4e8c a43d
00000120: 7bb2 81be ab5d 6abd 5c4e eb3d 83a3 103d
00000130: aa11 163e 2ade 4f3e 510e 833e c6a4 ddbc
00000140: 396d b13d e056 96be 457a b2bd 20e0 72be
00000150: ee66 70be 44c6 4bbe 9530 6e3e f083 05be
00000160: 2017 de3d 378e 8ebe e64c 70be 3094 233e
00000170: a791 c93d 165f 993b 3409 82be 8f2e 92bb
00000180: faf5 f6bb 296e 7f3e 44ca 89be c7a1 f0bb
00000190: 3c04 45be 047d 96bd 20ee e8bc 7063 46be
000001a0: fbcd cb3d 610a fb3d dab1 acbd 61b7 533e
000001b0: 34c0 573e 92f2 5fbe 54c7 22be 0186 05be
000001c0: 5505 b63d 4f33 59bd 3c20 9f3d 473e 033d
000001d0: 3f78 3fbe 4f44 fbbd d7a9 2f3e fa8b 27be
000001e0: ca2b 913e 7394 a9bd 085e 6e3e 956b 1c3e
000001f0: 1045 d23d dcaa d1ba 82ee 683e 2e5f 183e
00000200: a5c5 103d 8eea 9bbe b508 323e 0ccc 8dbe
00000210: 4bae 63be 6643 a9bc 04aa 7e3e d98b 5abe
00000220: 6c5a 033e 0985 cc3d 1b0b 66bb ade7 023e
00000230: cd27 24bd 5913 163e bab2 22bd 2c14 babd
00000240: 7ea3 31be 17a8 81be 3a86 5e3e 1d2c 39be
00000250: 4b35 933e 27f7 96bc 1130 5f3e 710c 37bc
00000260: 1388 9b3d 04da 303b 5614 d0bc 4d16 9cbe
00000270: 6938 503e f57a 933e 4a2e 843e 731b df3d
00000280: 8cea d53c cb2a 3dbe 7722 cdbd 6d3b 18bb
00000290: 136f ec3d f1ab 2b3e b69e 743d f3d3 8b3e
000002a0: c16a 0dbe 5b5b a8bc 2e2a 01bd c6ed 2dbe
000002b0: b5a7 463e a6ef 70be 1447 95be f454 2d3d
000002c0: cf75 2cbe 7eb5 1b3c 5463 343e ca78 423e
000002d0: 1152 86be 1fa2 0dbe c9c4 97be 082d cdbd
000002e0: 0b9b 773e 46a3 5d3e 025b 2ebe 353b 40be
000002f0: 11b0 8b3e bcc7 9cbe 26a3 36be 4487 d73a
00000300: a471 0d3e 1ede 8a3e 9cc4 79bd 4c22 333e
00000310: bcd7 793e c2c5 e43d 2fd2 873e 7ee7 7a3e
00000320: 59f8 08be d5e4 893e cc0e e6bd 4ba0 5d3e
00000330: 4045 8f3d 0177 e23c ce3a 8f3e 2fd9 94be
00000340: 93c0 8a3e a7e8 d23d b636 ff3c 697d 703e
00000350: c8b9 72be 2e99 4e3e 85f2 9bbe efbe f5bd
00000360: 2376 15bd 65c3 98be 40f9 bebd 8a2f b13c
00000370: ba27 9f3d f871 8ebe b579 87be 674d 2cbe
00000380: 4a20 eebd dd73 74be 8d2d 113e 5adc 2fbd
00000390: 12b9 853e c558 d8bd d771 a4bd f812 ddbd
000003a0: f1d4 a8bd 7331 343c 2406 b53d 1874 413e
000003b0: 6b3c 8dbe ca7b 8abd 2de3 b1bd 4747 d1bd
000003c0: 567b 94be bdfd 09be c16e 01bd f752 3f3c
000003d0: 6c5c 08be c734 f6bd 4a88 763e 3edc 7f3d
000003e0: cfe1 3bbe 191a 14be a8ba af3d e447 35be
000003f0: c6b8 2bbe 17bf 18be c0d3 9ebd 1a79 503d
0.043340787 -0.12016305 0.28589144 0.13431177 -0.011850818 -0.23376925 -0.032741755 0.09835742
0.2935863 0.28783026 0.10283251 0.15286744 -0.29279503 0.25003996 0.05948523 -0.03645753
-0.22358748 -0.06041256 0.09045739 0.042162284 -0.02899856 0.2353935 0.20855051 0.073754534
-0.29278675 -0.117260285 -0.06519638 -0.2861966 0.20426093 0.22022307 0.29550365 0.02188377
-0.015012373 -0.0450751 0.1631018 -0.17898983 0.11726978 -0.018601535 0.063751206 0.026868446
-0.197733 0.13195828 0.18289132 -0.22091782 0.28628418 -0.30349648 0.2968433 0.1814843
-0.25450295 -0.096374944 0.12536381 0.12636222 -0.20577373 -0.29418996 0.2470995 0.11822132
0.14945672 0.22952843 0.23556882 -0.28045365 -0.19299461 0.0046362453 0.046507448 -0.23530257
-0.13184361 0.10544648 -0.24740413 -0.28083348 -0.15595588 -0.0005663262 -0.3041504 0.080345735
-0.25331482 -0.057218235 0.11489555 0.035312187 0.14655176 0.20299593 0.2559686 -0.02705611
0.08663411 -0.29363155 -0.08714727 -0.2371831 -0.23476765 -0.19899851 0.2326072 -0.13038611
0.108442545 -0.27842876 -0.23466834 0.15974498 0.09842234 0.0046805246 -0.25397646 -0.0044611166
-0.007536647 0.24944367 -0.2691213 -0.007343504 -0.19239897 -0.073480636 -0.02843386 -0.1937387
0.09951397 0.12257839 -0.0843236 0.20675422 0.21069413 -0.21869877 -0.1589635 -0.130394
0.08887736 -0.053027447 0.0776982 0.032041814 -0.18698214 -0.12268888 0.17154633 -0.1636199
0.2835372 -0.082802676 0.23278058 0.15275414 0.10267079 -0.0015996355 0.22747234 0.14880058
0.03534474 -0.3045239 0.17386134 -0.27694738 -0.22234456 -0.02066202 0.24869543 -0.2134241
0.12827462 0.09986312 -0.0035101834 0.1278369 -0.04007702 0.14655818 -0.03972123 -0.09085879
-0.17347524 -0.25323555 0.21730891 -0.18083234 0.28751597 -0.018428398 0.2179568 -0.0111724
0.075943135 0.0026985416 -0.025400322 -0.30485764 0.20334019 0.28804746 0.25816566 0.108939074
0.026112817 -0.18473355 -0.10016339 -0.002322878 0.11544623 0.16764809 0.05972167 0.27310142
-0.13810255 -0.020551374 -0.031534366 -0.16985235 0.19399913 -0.23528919 -0.2915579 0.042317346
-0.16841815 0.00950372 0.17616016 0.1899139 -0.26234487 -0.13831376 -0.29642323 -0.10018355
0.24180238 0.21644315 -0.17026904 -0.18772586 0.27282766 -0.30621135 -0.17835674 0.001644351
0.13812882 0.27122587 -0.060978517 0.17493552 0.24398702 0.11170532 0.26527545 0.2450237
-0.13375987 0.26932397 -0.11233291 0.21643178 0.0699563 0.027644636 0.27974552 -0.29071948
0.27100047 0.10298281 0.031154018 0.2348534 -0.23703682 0.20175621 -0.30458465 -0.11999308
-0.036489617 -0.29836574 -0.093248844 0.021629114 0.07771249 -0.27821326 -0.26460043 -0.16826402
-0.116272524 -0.23872323 0.14177532 -0.042934753 0.2611776 -0.105638064 -0.08029526 -0.107946336
-0.0824374 0.010998118 0.08839062 0.18891943 -0.27585158 -0.06761892 -0.086859085 -0.10218673
-0.29000348 -0.134757 -0.031599764 0.011677495 -0.13316506 -0.12021785 0.24075428 0.0624659
-0.18347858 -0.1446308 0.08580524 -0.17703205 -0.16769704 -0.14916645 -0.07755232 0.05089674

model.model.interaction_blocks.0.lin.weight f4 [32, 32]
00000000: 74ba e4bb e275 95bd e93f 66be 00df 54be
00000010: f97d b03d 2b3a 31be f8ed de3d c524 903e
00000020: d508 c63d e71d 7f3e b70b c63d 03c5 523e
00000030: f76c acbd 89ef 7d3e 2864 83be fbd5 d33d
00000040: e139 83be d942 65be cc41 9cbe 4065 6bbd
00000050: 10cf 463e ad71 14be 94ce 523e 507c 0f3e
00000060: e32f 1dbe d30a 8ebe 0fc9 803d c355 5f3d
00000070: c730 553d 0d5c 3d3d eeb3 803d 9f3f 713e
00000080: 6329 94be 8f87 22be 75e4 6ebe 746d 463e
00000090: 3631 66be c067 dc3d efe4 ba3d ae7c 4d3e
000000a0: ab73 8b3e 1b6c 61bd 6c3f 303e 517e 273e
000000b0: a6db 8f3c aa94 863d d778 96bd 501d 6abe
000000c0: 4a7f 003e 974c 4abd 396d 6c3e 73b8 38be
000000d0: f592 3e3e ebb9 593e 8988 90bd 8124 003e
000000e0: e971 34bd 70a9 27be ec24 d2bc 3f64 95be
000000f0: 22b8 d43d 67aa 943e 33c0 8cbd 7ba4 393e
00000100: fbef 16be 3e10 6d3e 4c38 993d 0da0 843d
00000110: a0c5 2fbe fca5 07bd 656e 3dbe 4a4a 35be
00000120: afe3 abbd 0ad5 723e 5df5 22be 361e 15bd
00000130: ff55 90be 5b5e 673e 024e 303e 97b8 9a3d
00000140: c0ba 2ebe d275 6cbd 5f98 653e 7312 863d
00000150: 46b0 5cbd f9ad 9a3d 431b 1dbe e9df 23be
00000160: 53ad 453c 6ca6 75be 5f36 e6bd 428a 803e
00000170: 816f 5d3d b253 ea3c 6669 193b 166c 733d
00000180: 0210 0a3e 844a 133e 5b23 103e 0b11 493e
00000190: 677f 00be f462 90bd f720 b3bd 903f 43be
000001a0: 8ab5 983a c210 0ebb 3656 8f3b b4e2 003d
000001b0: 28c3 803e 8e3c 02be c1ba 0c3e b440 8bbd
000001c0: e0de 8f3e e003 5a3e 0203 34be 5424 493e
000001d0: def3 643e 2497 a83d 1f8e 91be cb92 e3bc
000001e0: c50d e1bd e4e2 083e 0173 03be aa0c bd3c
000001f0: d97d 433e 41aa 123e 3c44 933d 6786 87be
00000200: feda 3ebe 81bd 68be 02c1 6cbe 14ea 81be
00000210: 8784 49be fbd7 b8bd 2ca3 8cbe 1b6c e33d
00000220: 2cb8 913c 96d7 4abe 4503 4dbe 9bb7 c5bd
00000230: 9538 5fbe 9ac2 84be 6a41 8abe aebc 54be
00000240: 86d3 b4bd 3948 23bd 6c48 12bd 111b 6ebe
00000250: 66ab 77be e1fa b4bd 287a f83d 3a9c c63d
00000260: a161 9abe ea89 c53d eb25 5e3e e360 27be
00000270: 37af 62be 5925 513e 0369 98be d484 963c
00000280: 1635 4d3e 1323 9b3a b064 373e e76c 063e
00000290: fc54 6e3d c6b0 9b3e e138 41bc f569 0ebe
000002a0: 3790 39be 5976 003d 2e99 8bbe 16e1 a43d
000002b0: 3be9 6d3d 27d4 533e 8edc 593e e30c 3d3e
000002c0: bf0c 293e 7ec7 843e cd41 103e 5539 d23d
000002d0: 80ed d13d f93c 5cbd 8c0c 79be f45d 5b3e
000002e0: 82f0 3c3e d2a6 03bc a0e9 1fbd 0cda 733e
000002f0: 657c 8b3e 7657 7f3e e5e4 a63d 5dfd 873e
00000300: 29dd 0b3d a706 493e 8348 6c3e 76b8 85be
00000310: e4c7 4fbe 1d7d 2f3e c233 983e 68db 7c3e
00000320: 058d 5d3e 20d3 59be 1295 803e 1c40 843e
00000330: 4cb6 7c3c 621e 6c3d 61db f73d e1a8 423d
00000340: 426e 02be ba4f fd3c 351e 87bd 1d98 02be
00000350: 7fa2 1abe 47fb d73d 74cf 6abe 8a34 53bb
00000360: 3271 323e 1bfb 49be 3cec cf3d 5446 7ebe
00000370: 2088 323d 7528 713e 28e5 92be 118e a53d
00000380: 384e 703d 9163 18be c97e 6b3d fc91 863e
00000390: 0cf1 f53d 21dc 6bbd 45be 2fbd a46e e0bd
000003a0: a837 9c3d 780b c5bd a768 753d a49d 7b3e
000003b0: be0f 203e 9bbb 2b3e de15 bc3d 433d 89bd
000003c0: aa7d 3c3e 6058 c73d 121b 74be 631a 7fbe
000003d0: a5ec 883c cb4d 7c3e fa75 523e 0a2b 9a3e
000003e0: ae48 963d 9894 24be 4885 46be fa98 4e3d
000003f0: 52c5 98bd 2ae7 47be f91d 4a3d 62f1 4abe
-0.0069802348 -0.07297875 -0.22485317 -0.20788193 0.086177774 -0.17307346 0.10885233 0.28153053
0.09669653 0.2491375 0.09670203 0.20582967 -0.08419221 0.24798407 -0.2566235 0.10343548
-0.25630096 -0.22388782 -0.3051895 -0.057469606 0.19414926 -0.14496489 0.20586616 0.14012265
-0.15350299 -0.27742633 0.06288349 0.054525148 0.05204847 0.046230365 0.06284319 0.23559426
-0.28937826 -0.15872024 -0.23329337 0.1937769 -0.2247971 0.10761976 0.09125697 0.20067093
0.27236685 -0.055034738 0.17211694 0.1635678 0.017560791 0.06571324 -0.07347267 -0.22862744
0.12548557 -0.049389448 0.2308854 -0.18039112 0.18610747 0.21262328 -0.07057292 0.12513925
-0.044053946 -0.16373229 -0.025652371 -0.29178044 0.10386683 0.29036257 -0.068725966 0.1812915
-0.14739983 0.23150727 0.07481441 0.0647584 -0.17165232 -0.03311728 -0.18499143 -0.1770412
-0.083930366 0.2371408 -0.15913911 -0.036405765 -0.2819061 0.22594588 0.17217258 0.07554739
-0.17063427 -0.05772955 0.22421406 0.06546488 -0.053879045 0.07552714 -0.15342431 -0.16003384
0.0120652495 -0.23989266 -0.11240839 0.25105482 0.054061417 0.028604362 0.002340877 0.05942925
0.13482669 0.14383894 0.14075987 0.19635408 -0.125486 -0.07050124 -0.08746522 -0.19067216
0.0011650783 -0.002167747 0.004374291 0.0314662 0.25148892 -0.12718412 0.13743116 -0.067994505
0.28099728 0.2129054 -0.17579272 0.19642764 0.22358653 0.08231953 -0.28428742 -0.027779957
-0.109889545 0.13367802 -0.1283684 0.023077328 0.19090976 0.14322759 0.07190749 -0.26469728
-0.18638226 -0.2272854 -0.23120502 -0.253739 -0.19679461 -0.0902557 -0.2746824 0.11104604
0.017788015 -0.19808802 -0.20020778 -0.096541606 -0.21798928 -0.2592972 -0.27003032 -0.207751
-0.088294074 -0.0398638 -0.035713598 -0.23252513 -0.24186477 -0.08836914 0.121326745 0.096977666
-0.3015261 0.09645446 0.21694152 -0.16345553 -0.22137152 0.20424403 -0.29767618 0.018373884
0.20039782 0.0011836014 0.17909503 0.1312748 0.058186516 0.30408305 -0.011793346 -0.13907607
-0.1812142 0.031362865 -0.27265304 0.08050744 0.058083754 0.20686398 0.21275541 0.18461947
0.16508768 0.2593345 0.14087601 0.102648415 0.10250378 -0.053769086 -0.24321193 0.21422559
0.18451121 -0.0080353785 -0.03904116 0.23813647 0.27243343 0.24935707 0.08149127 0.26560488
0.03414646 0.19631444 0.23074536 -0.26117295 -0.20291096 0.1713757 0.29726988 0.24693072
0.21635826 -0.21271944 0.25113732 0.25830162 0.015424322 0.057646163 0.1210239 0.047524337
-0.12737373 0.030921806 -0.065975584 -0.12753339 -0.1510105 0.10545974 -0.229307 -0.003222736
0.17425993 -0.19724695 0.1015248 -0.24831516 0.04358685 0.2355059 -0.28690457 0.08083738
0.058668345 -0.14881732 0.05749396 0.26283252 0.12008867 -0.05758298 -0.042906065 -0.10958603
0.07627803 -0.09621328 0.059914257 0.24571854 0.15631005 0.16770785 0.09183858 -0.06701138
0.18407312 0.09733653 -0.23838452 -0.2491241 0.016714403 0.2463905 0.20552817 0.3011096
0.07338081 -0.16072309 -0.1938678 0.05043886 -0.07459511 -0.19521776 0.04934499 -0.19818643

model.model.interaction_blocks.0.lin.bias f4 [32]
00000000: 8f2e 2c3a 31c7 a53a ee94 18ba 6ae0 a0ba
00000010: 4041 c4b8 8468 35b9 331d 97ba 8f6b 9cba
00000020: 681a 15ba 6c9b a8ba 4be8 33b8 f061 67ba
00000030: 82f6 7cba a144 0b3a c088 9d3a ac0e 743a
00000040: 0d40 38ba 91ce 9bba 6019 ae3a 3472 57ba
00000050: dd8f 83ba d85f 5eb7 4a11 9c3a 7346 f539
00000060: 1293 e439 ffca 0dba b8a6 dab9 0804 4436
00000070: c234 84ba 77cb adba 9e78 9cba 505a b0ba
0.0006568217 0.0012647865 -0.0005820532 -0.0012273912 -9.358162e-05 -0.0001730044 -0.0011529088 -0.001193391
-0.0005687834 -0.0012863702 -4.2893265e-05 -0.00088265445 -0.00096497696 0.00053126557 0.0012018904 0.00093100476
-0.0007028587 -0.0011887123 0.0013282709 -0.0008218617 -0.0010037381 -1.32545465e-05 0.0011907008 0.0004678253
0.00043597125 -0.0005408972 -0.00041704415 2.9208622e-06 -0.0010086524 -0.001325949 -0.0011937802 -0.001345465

model.model.output_network.layers.0.weight f4 [32, 32]
00000000: c5da 733d fd2e aebd 08d0 0f3e 102b 1abe
00000010: 3022 a53d 417b 8b3e d210 60be d346 35be
00000020: fd90 053a db8f 6bbe 67ab 97bd 97a7 663e
00000030: 0507 89be 2037 89be 415b 48be f48a 563e
00000040: fbab 91be 88bb 49be 54d4 d53d 0142 7d3e
00000050: e80a 3a3e ec4c 7c3e 06d8 52be debd 4ebe
00000060: f305 f6bd a13f 313e e096 b73d 1e72 313e
00000070: ca41 ebbd 28b9 18be e596 e3bd 6dc6 9abd
00000080: dce0 8cbe 7c16 c03d b900 133e 2c7f 0a3d
00000090: 9a5e 4d3e 20df 913e 6a69 373d 1aa7 613e
000000a0: 873c 43be 3050 513e 3983 953e c2a3 6bbe
000000b0: 576b 70be 2c8e b13b 0b17 6bbe bf77 5e3d
000000c0: e1dd 81be f622 74bd 58c4 b33d 05a7 2dbe
000000d0: 44bc 3abe a6a0 88be ce66 173e 0ef6 f03d
000000e0: d6d3 913e 193e 933d f5a8 a83d e0ec 91be
000000f0: 224f c9bd 0671 9dbd c019 39be 3152 94be
00000100: 5760 843e 3c62 463c ab3e c23d 02d0 533e
00000110: 9d00 37bd 11b9 39ba 734e 8abe 63d7 34be
00000120: 705a be3d 2963 683e b286 44bd 0be3 93be
00000130: e51e b2ba 81d4 f83d 5810 38bc 9660 d3bb
00000140: b1d7 40be b77a 333e 562b 77be 6e3c cb3d
00000150: ad48 a8bd 752f 3fbe 2b13 3fbe 1ef6 763e
00000160: 948e 62bd 451e 483e 431b de3d d8ef df3b
00000170: 511e 0b3d 4378 17be 0806 66be c9c5 65be
00000180: f0b6 733e 432c 3bbe b8ef 123e 2f7f 95be
00000190: 3ca3 b43c bd5b 8c3e d0b8 0f3d 5038 c6bd
000001a0: 18e6 34be ff65 933e bd62 b4bd 77a8 853e
000001b0: 6ef5 42be 5c88 35be e23a b63c 89cf 87be
000001c0: cf0f 09be 2049 9abe a184 81be 1639 8b3e
000001d0: 097d 8f3e e7b5 8fbe a22c bcbd 26ee 623e
000001e0: c752 3c3e 40a2 6abe dc28 02be 3f3e 8ebe
000001f0: 2a97 84be a8c9 dfbd 915a 223e ba44 5c3e
00000200: 0ded 38be 597f 59be e1fd eebd e8a9 edbd
00000210: 0413 043e 39d6 053d 71ed a9bd 0b44 07be
00000220: c837 8f3e a5c9 173e 1e1d fcbd 1aad 343e
00000230: 36a6 d33c f6fb 5d3e 98c0 9abe 935a c73b
00000240: c87e b8ba bec1 87bc 71c7 64be 07da b5bd
00000250: cbfa 45be 4297 19be a5eb f83d f8b7 cc3d
00000260: bf4a c43d 5c48 6cbe 03b0 ae3c dc9d 92be
00000270: 39bd 6a3e 273d 6ebe 2c84 5fbc fb36 2f3d
00000280: 255c 013e 3e35 42be c0c1 9c3e 50ce 963e
00000290: 0811 a0bd 0273 24bd 9dd1 87be d76d bdbc
000002a0: 364d 07be 0f08 fd3d 92b7 9cbc 1f51 06be
000002b0: 651f 8cbe 008c 8ebe 312e 703e d262 21bd
000002c0: 6953 7dbe 1fcf 8ebe bdab 85be 28a8 ef3d
000002d0: 71b5 683e eb43 843e a51a 78bd 20ba 04be
000002e0: 4c21 98be 8258 f6bb c98c 90be cada 6d3e
000002f0: 69c8 0b3e 1113 51be 1a1d 8dbe 1163 bf3d
00000300: 4086 ec3d 77a4 103e fd9e 433d 943b dc3d
00000310: c791 633e acb6 78be 1a8a 5a3e de7b 9a3e
00000320: 96a7 413d c1c2 353e 02b5 ebbd e792 993e
00000330: 5a76 623d a6cb ce3d b637 663e 0757 133e
00000340: 1502 8abe 1c8e 40be 95b5 63be 3998 94be
00000350: 2a13 de3d 3e48 7dbe f024 5f3d 2d10 36be
00000360: 98fc 253d 5fe4 303e 104c 91be 3fce a4bd
00000370: 7072 4cbd 75cd e2bc 8813 84be 9b3e 41be
00000380: 1cce 69be ff03 0b3d 512c 023e 6b0b ad3c
00000390: 79b7 b3bd 82c6 413e 27fa 85be e509 dabc
000003a0: 5145 713e e254 d73d 7934 a1bd cb22 90be
000003b0: 8571 79bd 016d 653e cc31 1f3e 84ca b5bc
000003c0: 3dd3 5fbd 5582 8fbe db19 05bb ef27 04be
000003d0: 4ed8 4e3e 03d5 723e 2143 7ebe 6fc7 65bd
000003e0: 42ee fc3d 564e 453e b6db 003e bcab 193e
000003f0: 9a42 8f3e f472 883e 585d 8e3e ea2d 3ebe
0.059534807 -0.08505056 0.14044201 -0.1505549 0.080631614 0.27242473 -0.21881416 -0.17702799
0.00050951523 -0.23004095 -0.07405739 0.22524868 -0.26763168 -0.2679987 -0.1956606 0.20951444
-0.28451523 -0.19700444 0.10440889 0.2473221 0.18168223 0.24638718 -0.20590219 -0.20189616
-0.120128535 0.17309429 0.08964324 0.17328689 -0.11487158 -0.14914382 -0.11112765 -0.07557378
-0.27515304 0.093792886 0.14355744 0.033812687 0.20055619 0.28490543 0.044778265 0.220364
-0.19066058 0.20440745 0.29201677 -0.23011687 -0.23478447 0.0054185595 -0.22958009 0.054313418
-0.25364593 -0.059603654 0.08777684 -0.16958244 -0.1823588 -0.26685065 0.1478531 0.11765681
0.2848193 0.071895786 0.08235351 -0.28501034 -0.098295465 -0.07687573 -0.18076229 -0.28968957
0.2585475 0.012108382 0.09484609 0.20684817 -0.04467832 -0.0007084767 -0.27012977 -0.17660289
0.09294593 0.22694077 -0.047980018 -0.28884158 -0.001358953 0.12149907 -0.011234365 -0.006450723
-0.1883228 0.17527281 -0.24137625 0.099236354 -0.08216987 -0.18670447 -0.18659656 0.24117324
-0.055311754 0.19542797 0.108450435 0.0068340115 0.03396446 -0.1479197 -0.22463238 -0.2243873
0.23800254 -0.18278603 0.14349258 -0.29198596 0.022050492 0.2741374 0.03508836 -0.096787095
-0.17665899 0.28788754 -0.08807895 0.2610509 -0.19038936 -0.17727798 0.022244874 -0.26525524
-0.13384937 -0.30133915 -0.252965 0.2719199 0.28025082 -0.28068468 -0.091882005 0.22161159
0.18390952 -0.22913456 -0.12710899 -0.27781865 -0.2589658 -0.10927135 0.15854861 0.21510592
-0.18059178 -0.21239986 -0.11669517 -0.11604673 0.12897879 0.032675 -0.082972415 -0.1320955
0.27972245 0.14823015 -0.12310241 0.17644158 0.025836091 0.21678147 -0.30225062 0.0060837953
-0.001407587 -0.016571876 -0.22341706 -0.08879476 -0.19333951 -0.14999107 0.121543206 0.09996027
0.09584569 -0.23074478 0.021324163 -0.28636062 0.22923745 -0.23265515 -0.013642352 0.042777043
0.12632807 -0.18965623 0.3061657 0.2945428 -0.078157485 -0.040148742 -0.2652711 -0.023123665
-0.13213047 0.12355053 -0.019130502 -0.13116883 -0.27367702 -0.27841187 0.2345512 -0.039400883
-0.2473885 -0.27892396 -0.26107588 0.11701995 0.22725464 0.25833067 -0.060572285 -0.12961626
-0.29712903 -0.007517875 -0.2823241 0.23227993 0.13650669 -0.2041743 -0.27561265 0.09345067
0.11549044 0.14125238 0.047759045 0.10753551 0.22223578 -0.24288434 0.21341744 0.30172628
0.047278963 0.17750074 -0.11509134 0.2999489 0.05528865 0.100974366 0.2248219 0.14388667
-0.26954713 -0.1880421 -0.22237237 -0.29022387 0.10843499 -0.2473459 0.054478586 -0.17779608
0.040524095 0.17274617 -0.28378344 -0.08047151 -0.049913824 -0.02768586 -0.2579615 -0.18871538
-0.2283253 0.033939358 0.12712218 0.021123609 -0.08775229 0.18923381 -0.26167414 -0.026616046
0.23561598 0.10514237 -0.078713365 -0.28151545 -0.060899276 0.22404863 0.1554634 -0.022191294
-0.054644812 -0.28029123 -0.00203096 -0.12905858 0.20199701 0.2371407 -0.24830295 -0.056098398
0.123501316 0.19268164 0.12583813 0.15006918 0.279805 0.26650202 0.2780559 -0.18572202

model.model.output_network.layers.0.bias f4 [32]
00000000: 0565 a83a d00a 98ba ee23 633a 1578 8dba
00000010: 3b96 6dba 23de 813a 964d a63a 0e62 84ba
00000020: ce96 223a 5544 a13a 1094 a5ba dbb3 9dba
00000030: 8190 a23a 35a5 abba 68b0 aa3a 77ce a4ba
00000040: a47d a1ba 8e65 81ba 4ad2 b23a 1cb1 8f3a
00000050: c45a ac39 4aa8 913a 2e73 96ba 92b2 5339
00000060: af66 703a 7ba9 e2b9 d012 32b8 d530 963a
00000070: 6133 ab3a 9124 a23a fee6 7d3a 79d5 a9ba
0.0012847489 -0.0011599902 0.0008664717 -0.0010793234 -0.00090632186 0.0009908121 0.0012687917 -0.0010100023
0.0006202281 0.001230369 -0.0012632627 -0.001203175 0.0012402685 -0.00130955 0.0013022544 -0.0012573738
-0.0012320769 -0.0009872185 0.0013642993 0.0010962817 0.00032874022 0.0011112776 -0.0011478418 0.0002018905
0.00091705745 -0.00043232352 -4.2456028e-05 0.0011458645 0.0013061577 0.0012370517 0.00096856046 -0.0012957297
