tests/continuity/training_ckpts/so3krates_train.ckpt (torch, 317105 bytes, 162 tensors)

model.model.embedding_layer.weight f4 [25, 32]
0	0x3f7b2bc6	0.9811367
1	0xbf0f9bd8	-0.56097174
2	0x3ce65ebf	0.02812135
3	0x3df90ecb	0.12161025
4	0x3cd03b70	0.025418967
5	0x3f859698	1.0436583
6	0xbf430e20	-0.7619343
7	0x3fa3e0f7	1.2803029
8	0x3f4f65ea	0.81014884
9	0xbe9efb1d	-0.3105096
10	0xbe880dba	-0.26572973
11	0xbf1db0c7	-0.61597866
12	0xbd49e7f6	-0.04929348
13	0x3fd7b4a0	1.6851997
14	0x3f88fcb5	1.070212
15	0x3ecd51b9	0.40101412
16	0x3e5884df	0.21144436
17	0x3f18c107	0.59669536
18	0x3e665c1a	0.22496071
19	0x3eb40e9a	0.3516739
20	0x3e0b3255	0.13593419
21	0x3f0db775	0.5535806
22	0xbf0fd40c	-0.5618293
23	0x3d8d4051	0.06897033
24	0x3f6fa5b1	0.936122
25	0x3fc98d19	1.5746185
26	0x3fb26aad	1.3938805
27	0xbd8a5291	-0.067540295
28	0x3f20e33b	0.62846726
29	0x3e94d7bc	0.29070842
30	0xbf82ec6d	-1.0228401
31	0x3f113d62	0.5673429
32	0x3f126f16	0.57200754
33	0xbf936c9e	-1.1517522
34	0xbf1b7b43	-0.6073496
35	0xbf207c79	-0.6268993
36	0xbe32fa59	-0.17478313
37	0x3dfc157f	0.123087876
38	0xbdf0a039	-0.1174931
39	0xbf88d6b2	-1.069052
40	0x3ec4201f	0.38305756
41	0xbf462d6c	-0.7741306
42	0xbe51f6d8	-0.2050432
43	0xc000187a	-2.001494
44	0xbece9934	-0.4035126
45	0xbf167c44	-0.58783364
46	0xc02fbf08	-2.7460346
47	0x3fe8fab7	1.8201512
48	0xbfbbc26b	-1.4668707
49	0x401c8d05	2.4461071
50	0xbc2a8288	-0.010407098
51	0x3f49c2ad	0.78812677
52	0x3eadc846	0.3394186
53	0xbfb40287	-1.4063271
54	0xbede9d6d	-0.4347948
55	0xbf23f9a9	-0.64052826
56	0xbf9bcdcc	-1.2172179
57	0x3e88c68a	0.26713973
58	0xbe19b37a	-0.15009871
59	0x3f1e0a2b	0.61734265
60	0xbea89887	-0.3292887
61	0xbe6ad04e	-0.22931024
62	0x3d94ef05	0.07272152
63	0xbfbf0cee	-1.4925821
64	0xbf737a7c	-0.9510877
65	0xbf113ec1	-0.5673638
66	0xbf23a227	-0.639193
67	0xbf18101c	-0.5939958
68	0xbfa7da4c	-1.3113494
69	0xc00940ea	-2.144587
70	0x3f1a68ea	0.60316336
71	0x3f8a8e7a	1.082473
72	0x3f0bf4ce	0.5467042
73	0xc015fc8b	-2.343539
74	0xbd2941d3	-0.04132254
75	0x3c35becd	0.011092854
76	0x3ee83e2c	0.45359933
77	0x3e798c6e	0.24369976
78	0x3e27ebf8	0.16398609
79	0xbf5ef2f1	-0.8708945
80	0xbfe7adb2	-1.8099883
81	0x3e90eb3c	0.2830447
82	0xbfb986f4	-1.449431
83	0xbe813ddc	-0.25242507
84	0xbf88079c	-1.0627322
85	0xbf9fab7c	-1.2474208
86	0xbfda34b5	-1.7047335
87	0x3e356339	0.17713632
88	0x3f50f7e7	0.8162827
89	0xbfc83969	-1.564252
90	0x3f8fb625	1.1227461
91	0xbee6b689	-0.45061138
92	0x3f7d1abb	0.9886891
93	0xbf7c2ee2	-0.9850904
94	0x3f46d8e0	0.77674675
95	0xbf5d3a61	-0.86417204
96	0xbe6ba28f	-0.2301123
97	0x3d697fab	0.05700652
98	0x3f0d29b5	0.55141765
99	0x3ebc6b88	0.3680079
100	0x3f066004	0.5249026
101	0xbf41bfa9	-0.75683075
102	0xbf80a9a6	-1.0051773
103	0x3d086763	0.033301722
104	0x3dc991e2	0.09842278
105	0xc005150b	-2.0794094
106	0x3dc38d26	0.09548406
107	0xbf2b9c16	-0.67035043
108	0x3f811545	1.0084616
109	0xbe4efb4e	-0.20213053
110	0xbf2e7613	-0.68148917
111	0xbecbb910	-0.3978963
112	0xbf16d0fd	-0.5891264
113	0xbe385746	-0.18002042
114	0xbf84de01	-1.038025
115	0xbf459c45	-0.77191573
116	0x3e40eba8	0.18839896
117	0xbf12060a	-0.57040465
118	0xbfeeb7ac	-1.8649802
119	0xbea4041c	-0.32034385
120	0x3ed686e4	0.41899788
121	0xbf141577	-0.5784525
122	0xbfe8faa5	-1.8201491
123	0xbf8e9e68	-1.1142092
124	0xbf251529	-0.6448541
125	0x3f84add1	1.0365545
126	0xbf9cfa0d	-1.226381
127	0x3fd10350	1.6329136
128	0xbeb576d5	-0.35442224
129	0x3e8346f1	0.25640061
130	0x3eac3163	0.3363143
131	0x3f39e9b5	0.72622234
132	0x3f160539	0.5860172
133	0xbdc0677d	-0.09394739
134	0x3ea7e4df	0.32791802
135	0x3e92c960	0.28669262
136	0xbf40bfad	-0.75292474
137	0xbd25cddb	-0.040479522
138	0xbf68da94	-0.90958524
139	0x3de6b37b	0.11264702
140	0xbfcd9162	-1.6059992
141	0x3f96de94	1.1786675
142	0xbf56d60d	-0.83920366
143	0xbf13ebf8	-0.57781935
144	0xbf043d80	-0.5165634
145	0xbe09ff73	-0.13476352
146	0x3e95b2ba	0.2923792
147	0x3ea9515f	0.33069894
148	0xbf4c879a	-0.7989441
149	0xbfd1e9fc	-1.6399531
150	0x3efddf28	0.49584317
151	0xbf95a7ec	-1.1691871
152	0x3f933c5e	1.1502798
153	0x3e1e89cd	0.15482254
154	0xbf977995	-1.1833979
155	0x3ea7ca6e	0.3277163
156	0xbf29de49	-0.66354805
157	0x3fa86f67	1.3158997
158	0x3f976492	1.1827567
159	0xbf7107dd	-0.94152623
160	0xbdcba469	-0.09943468
161	0x3f80ec7a	1.0072167
162	0xbe78a6dd	-0.24282403
163	0xbfb0853a	-1.3790658
164	0x3d16d1c7	0.036821153
165	0x3e312e42	0.17302802
166	0x3fc75bd4	1.5574899
167	0x401b21f1	2.4239466
168	0xc00a9b0e	-2.1657138
169	0xbf2b55d5	-0.66927844
170	0x3fc40055	1.5312601
171	0xbfb6826a	-1.4258549
172	0xbecefc40	-0.40426826
173	0xbfaf1029	-1.3676807
174	0x3e55a035	0.20861895
175	0xbfdabad5	-1.7088267
176	0xbf08c310	-0.5342264
177	0xbf9c085e	-1.2190053
178	0xbe06da28	-0.13169158
179	0x3e52de61	0.20592643
180	0xbdebf31e	-0.1152098
181	0xbf00aad6	-0.50260675
182	0xbfa5b105	-1.2944647
183	0xbf070daa	-0.52755225
184	0xbee05e73	-0.4382206
185	0xbe3eeee3	-0.18645816
186	0x3f2dedcb	0.6794097
187	0xbf77437f	-0.96587366
188	0x3e304d85	0.17217071
189	0xbef2a726	-0.4739315
190	0x3ecdff76	0.40233964
191	0x403d1e25	2.9549649
192	0x3f98722e	1.1909845
193	0x3f8eb856	1.1150005
194	0x3f50b6f4	0.81529164
195	0x3f93f7a9	1.1559955
196	0xbe219b84	-0.15781981
197	0x3e4d7b74	0.20066625
198	0xc0235add	-2.5524209
199	0xbf6a72d6	-0.91581476
200	0x3fa70f6e	1.3051584
201	0xbf0873a8	-0.5330148
202	0x3ea2b73f	0.3178043
203	0xbfd4a683	-1.6613315
204	0x3f2d58a9	0.6771341
205	0x3f8a24d6	1.0792491
206	0x3fc87317	1.5660123
207	0x3e65e06f	0.22448896
208	0x3e9f8488	0.311558
209	0x3e21cc7c	0.15800661
210	0x3d873fe3	0.06603982
211	0xbd560a0d	-0.05225568
212	0xbf19b704	-0.60044885
213	0xbf90fbd9	-1.1326858
214	0xbfc5cb41	-1.5452653
215	0x40195349	2.3957083
216	0xbf5513fd	-0.83233625
217	0xbf2956ba	-0.6614796
218	0x3f840ab8	1.0315771
219	0x3e5c74ae	0.21528885
220	0x3f65bc6a	0.8974062
221	0x3f32e4cf	0.69880384
222	0xbf3fca17	-0.7491774
223	0x3ebb20a0	0.36548328
224	0x3ec75672	0.3893314
225	0x3f4a0367	0.7891144
226	0x3f669168	0.9006562
227	0x3f25d55c	0.64778686
228	0x401a5721	2.411568
229	0xbf8cbe0e	-1.09955
230	0xbedb5b32	-0.42843014
231	0x3e8eedb1	0.2791572
232	0xbf970356	-1.1797893
233	0xbe92e34c	-0.2868904
234	0xbf70008e	-0.93750846
235	0x3f29d835	0.6634553
236	0x3eaa44ef	0.33255717
237	0x3e12662e	0.14296791
238	0x3f253c66	0.64545286
239	0xbe73e6b2	-0.23818472
240	0xbe12dd1e	-0.14342162
241	0xbe97bfc2	-0.29638487
242	0x3f880a10	1.0628071
243	0xbef76871	-0.4832187
244	0x3f0ad8e4	0.542372
245	0x3f9a1241	1.2036821
246	0xbe6e4dd7	-0.23271881
247	0xc01b46b3	-2.4261901
248	0x3eecb1ad	0.46229306
249	0xbe0c5a1f	-0.13706253
250	0x3da3a73d	0.079908825
251	0x3f92bf48	1.1464624
252	0x3e1f2546	0.15541562
253	0xbfcb0481	-1.586075
254	0x3e2c6452	0.16835144
255	0x3cbe601b	0.023239186

model.model.rbf_layer.means f4 [32]
0	0x34a43ae5	3.0590232e-07
1	0x3d042158	0.03225836
2	0x3d84212f	0.06451642
3	0x3dc631b2	0.096774474
4	0x3e04211b	0.12903254
5	0x3e25295c	0.16129059
6	0x3e46319e	0.19354865
7	0x3e6739df	0.2258067
8	0x3e842110	0.25806475
9	0x3e94a531	0.2903228
10	0x3ea52952	0.32258087
11	0x3eb5ad73	0.35483894
12	0x3ec63193	0.38709697
13	0x3ed6b5b4	0.41935503
14	0x3ee739d5	0.4516131
15	0x3ef7bdf6	0.48387116
16	0x3f04210a	0.51612914
17	0x3f0c631b	0.5483872
18	0x3f14a52b	0.58064526
19	0x3f1ce73c	0.61290336
20	0x3f25294c	0.6451614
21	0x3f2d6b5c	0.6774194
22	0x3f35ad6d	0.7096775
23	0x3f3def7d	0.74193555
24	0x3f46318d	0.7741936
25	0x3f4e739e	0.8064517
26	0x3f56b5ae	0.8387097
27	0x3f5ef7be	0.87096775
28	0x3f6739cf	0.90322584
29	0x3f6f7bdf	0.9354839
30	0x3f77bdf0	0.96774197
31	0x3f800000	1.0

model.model.rbf_layer.betas f4 [32]
0	0x43800005	256.00015
1	0x43800005	256.00015
2	0x43800005	256.00015
3	0x43800005	256.00015
4	0x43800005	256.00015
5	0x43800005	256.00015
6	0x43800005	256.00015
7	0x43800005	256.00015
8	0x43800005	256.00015
9	0x43800005	256.00015
10	0x43800005	256.00015
11	0x43800005	256.00015
12	0x43800005	256.00015
13	0x43800005	256.00015
14	0x43800005	256.00015
15	0x43800005	256.00015
16	0x43800005	256.00015
17	0x43800005	256.00015
18	0x43800005	256.00015
19	0x43800005	256.00015
20	0x43800005	256.00015
21	0x43800005	256.00015
22	0x43800005	256.00015
23	0x43800005	256.00015
24	0x43800005	256.00015
25	0x43800005	256.00015
26	0x43800005	256.00015
27	0x43800005	256.00015
28	0x43800005	256.00015
29	0x43800005	256.00015
30	0x43800005	256.00015
31	0x43800005	256.00015

model.model.interaction_blocks.0.interaction.fb_rad_filter.layers.0.weight f4 [32, 32]
0	0x3d69a02c	0.057037517
1	0x3e0bb7e0	0.13644361
2	0x3d0d9e7f	0.03457498
3	0x3a08c555	0.0005217393
4	0xbe22c5a1	-0.15895702
5	0xbe587041	-0.21136571
6	0xbe94544e	-0.2897057
7	0x3e0d428e	0.1379492
8	0xbe3a0226	-0.18164882
9	0xbe606fc4	-0.21917635
10	0xbe3952ad	-0.18097945
11	0x3e7b0efe	0.24517438
12	0xbde1bc71	-0.110222705
13	0xbe94c0ce	-0.29053348
14	0xbd31a6a1	-0.0433718
15	0x3e7e993f	0.24863146
16	0x3ccf4295	0.025300303
17	0xbe42c122	-0.19018987
18	0xbe88aba8	-0.26693463
19	0x3e22e946	0.15909299
20	0x3e06b9eb	0.1315686
21	0xbbcc5834	-0.0062361006
22	0x3e7960e8	0.24353373
23	0xbd571b43	-0.052516233
24	0x3e84433b	0.25832543
25	0xbe5db884	-0.21652418
26	0xbe4e47fe	-0.2014465
27	0x3de79f1d	0.11309645
28	0x3dfc9a07	0.12334066
29	0x3cc33105	0.023827085
30	0x3e115de0	0.14195967
31	0x3d30e3bb	0.04318593
32	0xbe1ce95a	-0.15323392
33	0xbe15c666	-0.14626464
34	0x3d92acb5	0.071618475
35	0xbda98b9f	-0.08278584
36	0x3e092676	0.13393578
37	0xbe475fb4	-0.19470102
38	0x3e2b3bfb	0.167221
39	0xbda28c98	-0.079369724
40	0x3e975c97	0.29562828
41	0x3e965439	0.29361132
42	0x3e8dbf42	0.2768498
43	0x3e5d4fbd	0.21612449
44	0xbdf98002	-0.12182619
45	0x3e44867c	0.19191927
46	0x3da47775	0.08030597
47	0xbe319385	-0.1734143
48	0xbe86f1f4	-0.2635647
49	0x3e2c030e	0.1679804
50	0x3e8340d9	0.25635412
51	0xbe902112	-0.2815023
52	0xbe0d5af8	-0.13804233
53	0x3e66dd0c	0.2254526
54	0xbe7c3d5c	-0.24632782
55	0x3e4f2233	0.2022789
56	0x3e69399f	0.22775887
57	0xbdce1b1f	-0.10063767
58	0xbd9d2dab	-0.07674726
59	0xb9aed2e6	-0.00033344998
60	0x3e3c6b6b	0.18400352
61	0xbde90686	-0.11378197
62	0x3e8507dc	0.2598256
63	0x3e993782	0.29925162
64	0x3c2d59a8	0.010580458
65	0xbdb2841c	-0.08716604
66	0x3e2a0d61	0.16606666
67	0xbe564d31	-0.20927884
68	0x3e24251c	0.16029781
69	0xbb832f7f	-0.0040034647
70	0xbe52cb57	-0.2058538
71	0x3e99470b	0.29937014
72	0xbdc637f7	-0.09678643
73	0xbe1890f5	-0.14899047
74	0x3e16ceb2	0.14727286
75	0xbe68187c	-0.2266559
76	0x3d836355	0.064154305
77	0x3db4c6ec	0.08827004
78	0xbe493fd8	-0.1965326
79	0xbc810da6	-0.015753578
80	0x3d7ffbde	0.06249606
81	0xbe40a6a2	-0.18813565
82	0xbce8cd26	-0.028418135
83	0x3d177317	0.036974993
84	0x3df5d474	0.12003413
85	0x3db5d519	0.08878536
86	0xbe62ceb4	-0.22149163
87	0xbe6bdf0c	-0.23034304
88	0x3d3c96e4	0.046042338
89	0xbe3a2ad1	-0.18180396
90	0xbdb22f7d	-0.08700464
91	0xbc6df8cf	-0.014524653
92	0x3dc5984d	0.0964819
93	0xbcf91d81	-0.030409576
94	0xbd9a7531	-0.07541884
95	0xbe93f43c	-0.28897274
96	0x3e1b7958	0.15183008
97	0xbd07dfb8	-0.03317234
98	0x3e8e7075	0.27820173
99	0x3e455a44	0.19272715
100	0x3d214070	0.039368093
101	0x3e4159b2	0.18881872
102	0xbe835d94	-0.25657332
103	0xbdb173a3	-0.08664634
104	0x3e782ba2	0.24235395
105	0x3de1ada1	0.11019445
106	0xbd368769	-0.04456273
107	0x3daf04bd	0.08545826
108	0x3e86da16	0.2633826
109	0xbdaf2cae	-0.08553444
110	0xbe8fe96e	-0.2810778
111	0x3e8979e4	0.26850808
112	0xbe753212	-0.23944882
113	0xbe18b9b4	-0.1491459
114	0x3d891b0e	0.066946134
115	0x3cf4ad90	0.029867917
116	0xbc5affde	-0.013366668
117	0xbdda6f69	-0.10665781
118	0x3e7e6f83	0.24847226
119	0x3e73e9eb	0.23819701
120	0xbe97147c	-0.29507816
121	0x3d9ae2e3	0.075628065
122	0x3daaed0c	0.08345994
123	0xbdf8883e	-0.12135361
124	0x3b44923b	0.0029994387
125	0x3e9cd99d	0.30634776
126	0xbdad4251	-0.084599145
127	0xbe981f33	-0.29711303
128	0x3e4d1d93	0.20030813
129	0xbd1fa2ee	-0.03897374
130	0x3e81618b	0.25269732
131	0x3e0dc788	0.13845646
132	0xbddc9579	-0.10770697
133	0x3c327106	0.010891205
134	0x3e1d5f9c	0.15368503
135	0xbe80d004	-0.25158703
136	0x3d16b908	0.036797553
137	0x3e903221	0.28163245
138	0xbe3f1b24	-0.18662697
139	0xbe491322	-0.19636205
140	0xbdb732cb	-0.08945235
141	0x3e4e8459	0.20167674
142	0xbe392811	-0.1808169
143	0xbe45af26	-0.19305095
144	0x3cdb6db8	0.026785716
145	0xbe9b878f	-0.3037686
146	0xbd574d5a	-0.052564003
147	0x3da8661a	0.08222599
148	0x3e5bb19a	0.21454468
149	0xbd0da62e	-0.03458231
150	0xbe32c0e5	-0.17456396
151	0x3e77ae9f	0.24187706
152	0x3e85204b	0.260012
153	0x3dd9db47	0.10637527
154	0xbe181ff4	-0.14855939
155	0xbe29f6f9	-0.16598119
156	0xbe1aac96	-0.15104899
157	0x3e6f1e22	0.23351339
158	0xbe672031	-0.22570874
159	0x3ddc3264	0.10751799
160	0x3d70f949	0.058831487
161	0xbe825bc8	-0.2546065
162	0xbe8be7e3	-0.27325353
163	0x3e9114ba	0.28336126
164	0x3e657a13	0.22409849
165	0x3ddf899e	0.1091492
166	0x3e469117	0.19391285
167	0x3e89e6e1	0.2693396
168	0xbe10fc56	-0.14158759
169	0x3e961540	0.29313087
170	0xbe1fedd2	-0.15618065
171	0x3c95dbb4	0.01829324
172	0x3e9a7e20	0.3017435
173	0x3da63b86	0.08116822
174	0x3def2279	0.11676497
175	0xbb7e83a5	-0.003883579
176	0xbdd4fa18	-0.10399264
177	0xbe91c282	-0.2846871
178	0xbd5b9da3	-0.05361713
179	0xbe93e9d3	-0.2888933
180	0xbe4c6cc7	-0.1996337
181	0xbe60d153	-0.21954851
182	0xbe2f665c	-0.17128891
183	0x3d9b94e5	0.07596759
184	0x3dd9a466	0.1062706
185	0xbe899b26	-0.2687618
186	0xbe5d0fa1	-0.21587993
187	0x3e59f5c6	0.21285161
188	0xbdc39112	-0.09549154
189	0x3e8edbb9	0.2790201
190	0xbdbf2c10	-0.09334576
191	0xbe99b82a	-0.3002332
192	0xbd5db132	-0.054124065
193	0x3e159b9a	0.14610139
194	0xbe4003d2	-0.18751457
195	0xbe63846f	-0.22218488
196	0xbd5ff72d	-0.054679085
197	0xbe20c218	-0.15699041
198	0x3d40ed41	0.047101263
199	0xbe674f75	-0.22588904
200	0xbe2585d8	-0.16164339
201	0xbe807429	-0.25088623
202	0x3e8a3bce	0.26998752
203	0x3e5edff3	0.21765117
204	0x3db87464	0.09006575
205	0x3e3939af	0.18088411
206	0x3e46487d	0.1936359
207	0xbe00e2bf	-0.12586497
208	0xbe118162	-0.14209512
209	0xbbe8838e	-0.0070957607
210	0xbd2c52e8	-0.042071253
211	0x3d82e1c3	0.06390717
212	0xbdd41c44	-0.10356954
213	0x3ca29c98	0.01985006
214	0xbd976290	-0.07391846
215	0x3e8c5655	0.27409616
216	0xbc02a8d8	-0.007974826
217	0x3e86786f	0.2626376
218	0xbdb3cae3	-0.08778932
219	0x3e17a8f9	0.14810552
220	0x3e93396d	0.2875475
221	0xbdea6285	-0.11444572
222	0x3e73dd27	0.23814832
223	0x3e8dab80	0.27669907
224	0x3d4f37f6	0.050590478
225	0x3d8b10a1	0.06790281
226	0x3cefa25c	0.029252224
227	0xbdb071dd	-0.08615468
228	0x3e54d476	0.20784172
229	0x3e318e6e	0.17339489
230	0xbe903add	-0.2816991
231	0x3d8e0e22	0.06936289
232	0xbe78b175	-0.24286444
233	0x3df0ed1f	0.11763977
234	0x3e14ae75	0.14519675
235	0x3e4a746f	0.19770978
236	0xbe3434eb	-0.17598312
237	0x3e8e9a9a	0.27852327
238	0xbe746781	-0.23867609
239	0x3e611ab5	0.21982844
240	0x3e5410fa	0.20709601
241	0xbe91c016	-0.28466862
242	0xbe3ea436	-0.18617329
243	0x3e300a9e	0.1719155
244	0xbd724ea6	-0.059157036
245	0x3e582c42	0.21110633
246	0x3e0be771	0.13662507
247	0x3dd5809e	0.104249224
248	0xb9f35c6e	-0.00046417437
249	0x3e0b4ee4	0.13604313
250	0xbe5d895e	-0.21634433
251	0x3e68b96c	0.22726983
252	0xbcf7fe38	-0.030272588
253	0x3d505d34	0.050870135
254	0x3e36cd3d	0.1785173
255	0x3da6db20	0.081472635

model.model.interaction_blocks.0.interaction.fb_rad_filter.layers.0.bias f4 [32]
0	0x3974b6df	0.00023337778
1	0x39cbd590	0.00038878294
2	0x3a176b08	0.0005776142
3	0xbaae0d76	-0.0013279158
4	0xba9cc5a6	-0.0011960759
5	0x3aa77c91	0.0012778213
6	0x3aaa36f2	0.0012986346
7	0x3a7b66e1	0.000959022
8	0x3a8acb94	0.0010589235
9	0xba7f4feb	-0.0009739387
10	0xb9f42eeb	-0.00046574263
11	0x3a36d2a7	0.00069741387
12	0x38205724	3.822813e-05
13	0xba9da47a	-0.0012027167
14	0xba8c6565	-0.001071137
15	0xba081ada	-0.00051919895
16	0xba8cd976	-0.0010745961
17	0xba135912	-0.00056208775
18	0x3aa2910c	0.0012402846
19	0xba81fd32	-0.0009917377
20	0x3a8904de	0.0010453721
21	0x39b35885	0.00034207493
22	0xba3c6173	-0.0007186152
23	0x3a8ded4f	0.001082817
24	0xba450bd4	-0.0007516716
25	0xbaa04b5b	-0.0012229489
26	0xba158384	-0.0005703496
27	0xbaa54023	-0.0012607615
28	0x3aa08e90	0.0012249518
29	0xba0207de	-0.0004960279
30	0xba224966	-0.0006190747
31	0x3aa55bfd	0.0012615916

model.model.interaction_blocks.0.interaction.fb_rad_filter.layers.2.weight f4 [32, 32]
0	0x3e63e208	0.22254193
1	0xbe765a9e	-0.24058005
2	0xbb779359	-0.0037777035
3	0x3c57f5d1	0.013181166
4	0x3e915a97	0.28389427
5	0x3c3138df	0.010816782
6	0x3e340358	0.175794
7	0xbe429c7f	-0.19005011
8	0x3a2aba5c	0.0006512755
9	0x3dc73d8e	0.097285375
10	0x3e9904ff	0.29886624
11	0x3e7dd5a7	0.24788533
12	0xbdf996bc	-0.121869534
13	0xbe566f28	-0.2094084
14	0x3dad8cd9	0.0847413
15	0xbd990dff	-0.07473373
16	0xbbafa624	-0.0053603817
17	0xbdf2771c	-0.118391246
18	0x3e44120f	0.19147514
19	0xbd927ce1	-0.07152725
20	0xbd509320	-0.05092156
21	0xbe5f521b	-0.21808665
22	0x3d1356e6	0.035971545
23	0xbd872277	-0.065983705
24	0x3e8451e1	0.2584372
25	0x3e467b50	0.19382977
26	0x3c84ac4f	0.016195444
27	0xbe714db0	-0.23564792
28	0xbe29bd65	-0.16576155
29	0x3e3b8d2c	0.18315572
30	0xbe92e987	-0.28693792
31	0x3e721b58	0.23643243
32	0xbe445bfa	-0.19175711
33	0xbe17178c	-0.14755076
34	0x3dd25389	0.10269839
35	0x3da6d4c5	0.08146051
36	0x3c5c23e6	0.013436293
37	0x3e52194f	0.20517467
38	0x3e82ef04	0.2557298
39	0xbda64bd9	-0.081199355
40	0xbc4bf90d	-0.012449515
41	0x3e3c1746	0.18368253
42	0xbdc3720a	-0.095432356
43	0x3e01ca89	0.12674917
44	0x3e80a874	0.2512852
45	0xbe7be7e8	-0.24600184
46	0x3e9288a0	0.28619862
47	0x3e9a1aec	0.30098665
48	0x3e7663df	0.24061535
49	0x3e6d3c8a	0.23167625
50	0xbe86f347	-0.2635748
51	0xbe94a0f5	-0.2902905
52	0x3e951968	0.29120946
53	0x3e925838	0.2858293
54	0x3e89dd9a	0.2692688
55	0xbe97aa9b	-0.2962235
56	0xbe92c4d7	-0.28665802
57	0xbc39b8df	-0.011335581
58	0xbe905ea2	-0.281972
59	0xbe92ce7f	-0.2867317
60	0xbc3c8237	-0.011505655
61	0x3e8d1bd0	0.27560282
62	0xbc617cc8	-0.01376266
63	0x3e78df4c	0.24303931
64	0x3c1d404b	0.009597848
65	0xbc845ae3	-0.01615662
66	0x3e4e8108	0.20166409
67	0xbd9ebf6f	-0.07751357
68	0xbe1a9feb	-0.15100066
69	0xbe2fd9a3	-0.17172866
70	0x3d8e87ac	0.06959471
71	0x3d92cf6f	0.07168471
72	0x3e9c8381	0.3056908
73	0x3e2b46d7	0.16726242
74	0x3e907ef3	0.28221855
75	0x3e52fbfe	0.2060394
76	0x3e2c3404	0.16816717
77	0xbe46c7f2	-0.1941221
78	0xbcedffc0	-0.029052615
79	0x3de73444	0.11289266
80	0x3e96ab63	0.29427633
81	0xbccc7ce2	-0.024961893
82	0xbe15581e	-0.14584395
83	0xbe36aa26	-0.17838344
84	0xbdaa6428	-0.083198845
85	0xbd1bd7f6	-0.038047753
86	0x3e84deba	0.25951177
87	0x3d0e44a8	0.034733444
88	0x3e3209d5	0.17386563
89	0xbd96fe24	-0.07372692
90	0x3c66bce6	0.014083123
91	0x3e752148	0.23938477
92	0x3e99cc6b	0.3003877
93	0x3c889745	0.016673693
94	0x3e680119	0.22656669
95	0xbe90c41d	-0.28274623
96	0xbe93a1ca	-0.28834373
97	0x3e072fc3	0.13201813
98	0x3e39c411	0.181412
99	0xbe03fcc0	-0.12889385
100	0x3e48af09	0.1959802
101	0xbe65d18a	-0.22443214
102	0xbb41dd7b	-0.0029581476
103	0xbe309323	-0.17243628
104	0xbe53760d	-0.20650502
105	0xbe84be5c	-0.25926483
106	0xbe37e6fd	-0.17959209
107	0xbdf471c7	-0.11935764
108	0x3e77516f	0.24152158
109	0x3e24f58b	0.16109292
110	0x3e84704b	0.25866923
111	0x3c99e9fb	0.018788328
112	0xbb77f866	-0.0037837266
113	0xbe50124c	-0.2031948
114	0xbd181141	-0.03712583
115	0xbe4d52aa	-0.20051065
116	0xbde7d973	-0.11320772
117	0xbd54a0a2	-0.051911004
118	0xbe582f1a	-0.21111718
119	0xbe9274bc	-0.28604686
120	0xbd9dd80e	-0.07707225
121	0x3c751d78	0.014960639
122	0xbe16e047	-0.14733993
123	0xbe728e8d	-0.23687191
124	0xbdb47458	-0.08811253
125	0xbe559dac	-0.20860928
126	0x3e0243b8	0.12721145
127	0x3e873eaa	0.26414996
128	0xbe22918d	-0.15875836
129	0xbdb96a9c	-0.09053537
130	0xbe1d6141	-0.1536913
131	0x3dad8253	0.08472123
132	0xbd025eac	-0.031828567
133	0xbe645c18	-0.22300756
134	0x3e6b6a23	0.22989707
135	0x3d877173	0.066134356
136	0x3e9a9983	0.30195245
137	0x3daa2fa5	0.08309869
138	0xbdac7d33	-0.08422317
139	0x3d8423d1	0.06452144
140	0xbe67176d	-0.2256753
141	0xbe1525fb	-0.1456527
142	0x3e297788	0.16549504
143	0x3e5359a3	0.20639662
144	0x3e877dd9	0.26463202
145	0x3e625a9e	0.2210488
146	0xbe1c0d5a	-0.15239468
147	0x3dc35918	0.09538478
148	0x3e03e5ad	0.12880583
149	0xbe630196	-0.22168574
150	0x3ddbf013	0.1073915
151	0xbddf89b8	-0.1091494
152	0xbdb7f2f5	-0.08981887
153	0x3e944b6b	0.2896379
154	0xbe5c77a9	-0.21530022
155	0x3e451a01	0.19248201
156	0xbdc96db7	-0.098353796
157	0x3cb2b6b6	0.021815639
158	0x3d670025	0.056396622
159	0x3e2eeef0	0.17083335
160	0x3e6666f1	0.22500207
161	0x3e8df5ec	0.27726686
162	0x3e2864e6	0.1644474
163	0x3d4a44bb	0.049381953
164	0xbd91def7	-0.07122605
165	0xbe21a899	-0.15786971
166	0xbd33b370	-0.043872297
167	0x3d950cb2	0.07277812
168	0x3e61aa30	0.22037578
169	0xbe551b27	-0.20811139
170	0x3d0291ec	0.031877443
171	0xbe8ba559	-0.27274588
172	0x3cc5a550	0.024126679
173	0x3e641c14	0.22276336
174	0x3e430891	0.19046237
175	0xbd4fc9de	-0.050729625
176	0xbe773ae2	-0.24143556
177	0xbdd35f99	-0.10320968
178	0x3e865d19	0.26242903
179	0xbd9f400d	-0.077758886
180	0x3e4ac4b7	0.19801603
181	0xbe6da734	-0.23208314
182	0xbd9eacfd	-0.07747839
183	0xbe8969bc	-0.2683848
184	0xbe5cca37	-0.21561514
185	0x3e285040	0.16436863
186	0xbe8d63ab	-0.27615103
187	0x3d61b89e	0.055107705
188	0xbb8f7626	-0.004378098
189	0x3e82fcca	0.25583488
190	0x3cc468a0	0.02397567
191	0x3e80e36d	0.25173512
192	0x3d63ed4f	0.055646237
193	0x3dca7af6	0.09886734
194	0xbe2a8153	-0.16650896
195	0xbe597f20	-0.212399
196	0xbe80c8ad	-0.25153103
197	0x3e82cd19	0.25547102
198	0x3e8fa3d4	0.28054678
199	0x3e9ae814	0.30255187
200	0xbbc1f6a6	-0.0059192954
201	0x3d6356e9	0.055502806
202	0x3e29b41f	0.16572617
203	0xbe807b29	-0.25093964
204	0x3d04787a	0.032341458
205	0x3e1024b5	0.14076503
206	0xbe8f7d5e	-0.28025335
207	0x3e36fdc3	0.1787024
208	0x3e8e85f1	0.27836564
209	0x3a022d96	0.0004965899
210	0xbd366f0d	-0.0445395
211	0xbe3e17c8	-0.1856376
212	0xbd83df52	-0.06439079
213	0x3e9728d2	0.2952333
214	0x3ca8a7a9	0.02058776
215	0x3e555b8c	0.20835704
216	0xbda6371d	-0.08115981
217	0x3e3435cf	0.17598651
218	0xbe8f1825	-0.27948108
219	0x3e8672fc	0.262596
220	0x3ddbf1a6	0.1073945
221	0x3a8d07a9	0.0010759729
222	0xbe736e64	-0.2377258
223	0xbbb8b6ff	-0.005637049
224	0xbd7aeba7	-0.06125989
225	0xbe0f9e8c	-0.14025325
226	0xbd424363	-0.047427546
227	0xbd6f5eed	-0.058440138
228	0x3e72fb07	0.23728572
229	0x3c4651bc	0.012104448
230	0xbd2fda88	-0.042933017
231	0xbdd5c417	-0.10437792
232	0xbe225602	-0.15853122
233	0x3e1b4099	0.15161361
234	0xbe25d65a	-0.1619505
235	0xbe3043d9	-0.17213382
236	0xbddc45fc	-0.10755536
237	0x3e80bdb6	0.25144738
238	0x3e323ca9	0.17405953
239	0x3d637759	0.05553374
240	0x3e6b422e	0.22974464
241	0x3e28d2f5	0.16486724
242	0xbe8eefdc	-0.27917373
243	0x3e80da19	0.25166395
244	0xbb28c311	-0.0025751034
245	0x3c2616b2	0.010137247
246	0x3df17016	0.11788957
247	0xbe6060e9	-0.21911968
248	0x3dcdb604	0.10044482
249	0x3e649882	0.22323802
250	0x3c8fe05f	0.017563043
251	0x3d67c094	0.05658014
252	0xbe25bbcf	-0.16184925
253	0x3e4a52cb	0.19758146
254	0xbd1f5b46	-0.038905405
255	0xbe8fd76f	-0.2809405

model.model.interaction_blocks.0.interaction.fb_rad_filter.layers.2.bias f4 [32]
0	0x3a170db3	0.0005762234
1	0x3aa76999	0.001277256
2	0xbaa49100	-0.001255542
3	0xb98cc3c3	-0.00026848735
4	0xba15f8ed	-0.0005720992
5	0xb8b8e53e	-8.8165034e-05
6	0x3a319c36	0.00067752914
7	0xbaae526b	-0.0013299709
8	0xba931f5a	-0.0011224553
9	0xb96f50d2	-0.00022822924
10	0xba5a6597	-0.0008331178
11	0x3a1e0652	0.00060281635
12	0xba9bad31	-0.0011877177
13	0xbaadab72	-0.0013249947
14	0x3a9b7c4d	0.0011862606
15	0x3939cf25	0.00017720142
16	0x38bd8e8a	9.038772e-05
17	0x3a1f457a	0.00060757215
18	0x3aa1890d	0.001232417
19	0xba878898	-0.0010340391
20	0x3aaa5979	0.0012996636
21	0xb9d2b68f	-0.00040190338
22	0xbaae8b42	-0.0013316649
23	0xba5bdf3c	-0.00083874515
24	0xba1bcb23	-0.00059430505
25	0x39cf9370	0.00039591966
26	0xba02bde0	-0.00049874
27	0x3a9762f4	0.0011549876
28	0x39b0ad1e	0.00033698318
29	0x3a80c77e	0.0009825078
30	0x3a19a6ee	0.0005861361
31	0xbaa5a88f	-0.0012638735

model.model.interaction_blocks.0.interaction.fb_sph_filter.layers.0.weight f4 [8, 2]
0	0x3ed72267	0.42018434
1	0x3a4d24e4	0.00078256265
2	0x3db5340d	0.088478185
3	0xbe7fa84e	-0.24966547
4	0x3ec47b3d	0.38375273
5	0xbd0ae1c9	-0.03390673
6	0x3f3b2986	0.73110235
7	0xbe0c4d95	-0.1370147
8	0xbefbec29	-0.49203613
9	0xbf168d4e	-0.58809364
10	0xbf1298fd	-0.5726469
11	0x3d84374d	0.0645586
12	0x3e41570d	0.18880863
13	0xbf4606cf	-0.7735414
14	0xbdd66a03	-0.10469439
15	0x3eaadac5	0.33370033

model.model.interaction_blocks.0.interaction.fb_sph_filter.layers.0.bias f4 [8]
0	0x3aaa025f	0.0012970677
1	0x39a68522	0.0003176118
2	0xba88085e	-0.001037847
3	0xbaa2d1f4	-0.001242219
4	0x3aae9702	0.001332015
5	0x3aaeac34	0.0013326467
6	0xba87096b	-0.0010302489
7	0x3a090434	0.00052267616

model.model.interaction_blocks.0.interaction.fb_sph_filter.layers.2.weight f4 [32, 8]
0	0x3e401781	0.18758966
1	0x3de60704	0.11231807
2	0xbe565a06	-0.20932779
3	0xbd684cf4	-0.056714013
4	0x3e7cece4	0.24699742
5	0x3ebacdb6	0.3648507
6	0x3e19bc8c	0.15013331
7	0xbe69073c	-0.22756666
8	0x3e0f3f5b	0.13989012
9	0x3e772286	0.24134263
10	0x3e739343	0.23786645
11	0xbe6e97d8	-0.23300111
12	0x3e579c10	0.21055627
13	0x3eb5360e	0.35392803
14	0xbe89b2a1	-0.26894096
15	0xbd24ee71	-0.040266458
16	0xbe83873e	-0.2568912
17	0xbe965068	-0.2935822
18	0xbe3c60dc	-0.18396324
19	0xbe844c8e	-0.25839657
20	0xbe8bfb35	-0.27340093
21	0xbe4df722	-0.20113805
22	0x3e0d645e	0.13807818
23	0xbeb64ee2	-0.35607058
24	0x3e5d5511	0.21614482
25	0x3e4e7355	0.20161183
26	0xbe7d5340	-0.24738789
27	0xbd60e61d	-0.054906953
28	0x3ea1d1c0	0.3160534
29	0x3eb32b2d	0.34993878
30	0x3d84b1db	0.06479236
31	0x3e7ea496	0.24867472
32	0xbe4dae4e	-0.20086023
33	0x3d37387a	0.044731595
34	0xbe51a144	-0.20471674
35	0xbdf80704	-0.12110713
36	0xbe3dca0d	-0.18534108
37	0x3cd629b5	0.026142934
38	0xbdfec9db	-0.124408446
39	0x3e7d0fdf	0.24713086
40	0x3dd7c15d	0.10534928
41	0x3d656158	0.056001037
42	0x3e63a341	0.22230245
43	0x3ebbbd65	0.36667934
44	0x3e82e61c	0.25566185
45	0x3e8427bc	0.25811565
46	0xbe7e51e9	-0.24835934
47	0xbe68f251	-0.22748686
48	0x3d133898	0.035942644
49	0xbdd18a4b	-0.102314554
50	0xbeb5a5ad	-0.35477963
51	0xbe8710f5	-0.26380125
52	0x3ec45064	0.38342583
53	0x3b1d5a41	0.0024010094
54	0xba03b05a	-0.0005023532
55	0xbe8d2e38	-0.27574325
56	0xbec4e5f9	-0.38456705
57	0x3d2faccf	0.042889412
58	0x3e2910cb	0.16510312
59	0x3e5f9406	0.2183381
60	0xbe13c8f5	-0.14432128
61	0xbe9b4828	-0.30328488
62	0x3eaeb325	0.3412105
63	0x3dc701f8	0.097171724
64	0x3dc94be8	0.09828931
65	0x3e9958e9	0.29950646
66	0x3ec2ff7e	0.3808555
67	0x3c9f3948	0.019436494
68	0xbe79e815	-0.24404939
69	0xbe88143c	-0.26577938
70	0x3e0a004c	0.13476676
71	0x3e80bb13	0.25142726
72	0x3e7c8540	0.24660206
73	0xbead084a	-0.33795387
74	0xbe910b14	-0.28328764
75	0xbc06ad0b	-0.008219968
76	0xbd9234d6	-0.07138984
77	0xbd9fc5b3	-0.0780138
78	0x3c4a4e97	0.012347839
79	0x3c697454	0.014248926
80	0x3e502b21	0.20328952
81	0x3ea7a8d5	0.32745996
82	0xbe996ac1	-0.2996426
83	0xbea76116	-0.32691258
84	0xbe2e81b8	-0.17041671
85	0x3c492575	0.012276997
86	0xbe94eca8	-0.29086804
87	0xbe0d7d95	-0.13817437
88	0xbe8a23f5	-0.26980558
89	0x3c965169	0.018349366
90	0xbe375c58	-0.1790632
91	0xbeaaa5d9	-0.33329657
92	0xbeac0b82	-0.3360253
93	0xbc7be097	-0.015373371
94	0xbcff2b19	-0.03114848
95	0xbe5cd0a7	-0.2156397
96	0x3ea125a3	0.31474027
97	0xbeb42824	-0.35186875
98	0x3e9909c6	0.2989027
99	0x3daa7651	0.08323348
100	0xbc41e24a	-0.011833737
101	0x3e570bea	0.21000639
102	0xbdbbc358	-0.09168118
103	0xbeb82567	-0.35966036
104	0xbe94165c	-0.2892331
105	0xbeaae0e0	-0.3337469
106	0xbe0cb73c	-0.13741773
107	0x3d02d724	0.031943455
108	0x3ebf8f15	0.3741385
109	0xbe4143d4	-0.1887353
110	0xbd6c22db	-0.05765043
111	0xbea3d0bc	-0.3199519
112	0x3eab7fd4	0.33495963
113	0xbe435c08	-0.19078076
114	0x3d678e6f	0.05653232
115	0xbd8b0136	-0.0678734
116	0x3ec581b9	0.38575533
117	0x3e3f14ea	0.18660322
118	0x3dfc5fcd	0.1232296
119	0x3ebebafb	0.3725203
120	0x3dd7301e	0.105072245
121	0x3ec364d3	0.3816286
122	0xbe895a21	-0.26826575
123	0xbe8b65d5	-0.2722613
124	0x3e0a94dc	0.13533348
125	0x3dcf09ae	0.10109268
126	0x3e53c2d2	0.20679787
127	0x3e80b28c	0.2513622
128	0x3cc9f782	0.024654154
129	0xbdfc7a01	-0.12327958
130	0x3ebb9ca2	0.3664294
131	0xbceaf3ba	-0.028680671
132	0xbe028ae2	-0.12748292
133	0x3e24d38d	0.16096325
134	0x3dae1743	0.085005306
135	0x3e62e109	0.22156157
136	0x3d83597e	0.06413554
137	0x3dbe501f	0.09292626
138	0x3e4c1357	0.19929253
139	0xbdad305a	-0.08456488
140	0xbebd9046	-0.37024134
141	0xbea9b41e	-0.3314523
142	0xbe7b75dd	-0.2455668
143	0xbeb45935	-0.3522431
144	0xbe1eeea7	-0.15520726
145	0x3e966579	0.29374292
146	0xbebab020	-0.36462498
147	0xbe4ce3e8	-0.20008814
148	0x3c1256e8	0.008931853
149	0xbe5baf98	-0.21453702
150	0xbe9473b8	-0.28994536
151	0x3d5eadd2	0.054364987
152	0x3e686040	0.22692966
153	0x3d609433	0.054828834
154	0x3e86083b	0.26178154
155	0x3e2bae95	0.16765817
156	0xbe301d80	-0.17198753
157	0x3e8d1e2e	0.27562088
158	0xbe056712	-0.130276
159	0xbe1b7380	-0.15180779
160	0xbd79db23	-0.061
161	0x3ebe6751	0.371882
162	0xbe0c14ab	-0.13679759
163	0xbec56c90	-0.3855939
164	0xbe160d37	-0.14653479
165	0xbe1eef82	-0.15521052
166	0x3dbf9bbc	0.09355876
167	0xbdb6fa6e	-0.089344844
168	0xbdc9f8a6	-0.09861879
169	0xbbf7eb05	-0.0075658583
170	0x3e8f0cb2	0.27939373
171	0xbe4102e3	-0.18848757
172	0xbc70934b	-0.014683555
173	0x3e7ca851	0.24673583
174	0xbe9d093a	-0.30671102
175	0x3e8a1cb7	0.26975033
176	0xbe33a0ed	-0.17541857
177	0x3e99e887	0.30060217
178	0x3d279c91	0.040920798
179	0x3d8f1c4d	0.0698782
180	0xbe002a51	-0.12516142
181	0xbd49aa68	-0.049234778
182	0xbeb78ff1	-0.35852006
183	0xbe801a34	-0.2501999
184	0xbe550ada	-0.20804921
185	0x3e6f78ce	0.23385927
186	0xbebdd705	-0.3707811
187	0xbccc5634	-0.024943449
188	0x3eb4a5dd	0.35282794
189	0x3ec08f16	0.37609166
190	0x3ea6da59	0.3258846
191	0xbe19ad07	-0.15007411
192	0xbe996501	-0.29959872
193	0x3e94231d	0.2893304
194	0xba9e1f02	-0.0012063684
195	0xbdf60e37	-0.1201443
196	0x3d81ff8c	0.0634757
197	0xbc8c2095	-0.01710538
198	0x3e0ea92f	0.13931726
199	0x3d90d948	0.07072693
200	0xbeacfda5	-0.33787265
201	0x3c952e05	0.01821042
202	0x3e1f2bb4	0.15544015
203	0x3e8efe57	0.2792842
204	0x3e68196e	0.2266595
205	0xbe9ece82	-0.31016928
206	0x3e4227cd	0.18960495
207	0x3e827df2	0.25486714
208	0xbe65130b	-0.22370546
209	0x3ea46cad	0.32114163
210	0x3e7a2f80	0.24432182
211	0x3eb869aa	0.36018115
212	0x3e01f1fa	0.12689963
213	0x3e8a0a1f	0.26960847
214	0xbe062c49	-0.13102831
215	0xbd859f65	-0.06524543
216	0x3ea993d2	0.3312059
217	0x3e050efc	0.12993997
218	0xbd9c7235	-0.07638971
219	0x3e12f3e2	0.14350846
220	0x3e266123	0.16247992
221	0x3e773192	0.24140003
222	0x3e2f7dc2	0.17137817
223	0xbe4e33ab	-0.20136897
224	0x3e457488	0.19282734
225	0xbe9b8e80	-0.30382156
226	0xbea347d6	-0.31890744
227	0xbeaf0b13	-0.34188136
228	0x3e6e0bf1	0.23246743
229	0x3e6be94b	0.23038213
230	0x3e98a3b2	0.2981239
231	0x3b33106a	0.0027323016
232	0xbebd5642	-0.36979872
233	0xbe79ca3f	-0.24393557
234	0xbd2c7fc9	-0.042114053
235	0x3e3c2e78	0.18377101
236	0x3d90c48c	0.07068738
237	0x3ebad748	0.36492372
238	0x3ded5778	0.11588949
239	0xbe873e22	-0.2641459
240	0x3e64c904	0.22342306
241	0xbea41f3e	-0.32055086
242	0xbec1d06c	-0.37854326
243	0xbe9e5fe1	-0.30932525
244	0x3e9c8b19	0.30574873
245	0x3e7be6cb	0.2459976
246	0x3e68fc4b	0.22752492
247	0x3e1b0e91	0.15142275
248	0x3d2267ce	0.039649777
249	0x3e33d167	0.1756035
250	0x3e52f418	0.20600927
251	0x3e9f07df	0.31060693
252	0xbd844ee0	-0.06460357
253	0xbc251ea2	-0.010078104
254	0xbd9fb24c	-0.07797679
255	0x3e625075	0.22101004

model.model.interaction_blocks.0.interaction.fb_sph_filter.layers.2.bias f4 [32]
0	0x3a170db3	0.0005762234
1	0x3aa76999	0.001277256
2	0xbaa49100	-0.001255542
3	0xb98cc3c3	-0.00026848735
4	0xba15f8ed	-0.0005720992
5	0xb8b8e53e	-8.8165034e-05
6	0x3a319c36	0.00067752914
7	0xbaae526b	-0.0013299709
8	0xba931f5a	-0.0011224553
9	0xb96f50d2	-0.00022822924
10	0xba5a6597	-0.0008331178
11	0x3a1e0652	0.00060281635
12	0xba9bad31	-0.0011877177
13	0xbaadab72	-0.0013249947
14	0x3a9b7c4d	0.0011862606
15	0x3939cf25	0.00017720142
16	0x38bd8e8a	9.038772e-05
17	0x3a1f457a	0.00060757215
18	0x3aa1890d	0.001232417
19	0xba878898	-0.0010340391
20	0x3aaa5979	0.0012996636
21	0xb9d2b68f	-0.00040190338
22	0xbaae8b42	-0.0013316649
23	0xba5bdf3c	-0.00083874515
24	0xba1bcb23	-0.00059430505
25	0x39cf9370	0.00039591966
26	0xba02bde0	-0.00049874
27	0x3a9762f4	0.0011549876
28	0x39b0ad1e	0.00033698318
29	0x3a80c77e	0.0009825078
30	0x3a19a6ee	0.0005861361
31	0xbaa5a88f	-0.0012638735

model.model.interaction_blocks.0.interaction.gb_rad_filter.layers.0.weight f4 [32, 32]
0	0xbe96d7b4	-0.29461443
1	0x3e82b7d1	0.25530866
2	0x3e8f70fb	0.28015885
3	0xbe7c2646	-0.24623975
4	0x3e6ddec3	0.23229508
5	0xbe1d1cc2	-0.15343001
6	0x3e19fe72	0.1503847
7	0x3b0825a2	0.0020774384
8	0x3e3aed2f	0.18254541
9	0xbe45850a	-0.19289032
10	0x3c301adf	0.010748594
11	0xbe6f13b5	-0.23347361
12	0xbc833ba0	-0.016019642
13	0xbe7da403	-0.24769597
14	0xbe23b694	-0.15987617
15	0xbe6aad74	-0.2291773
16	0x3e61b295	0.2204078
17	0x3e85e885	0.2615396
18	0x3ad1c611	0.0016004463
19	0xbe99d514	-0.30045378
20	0x3d6a24c6	0.057163976
21	0x3e7a47ab	0.24441402
22	0xbe6f85be	-0.23390862
23	0x3e6f1285	0.23346908
24	0xbe7a1dd6	-0.24425444
25	0xbe379458	-0.17927682
26	0xbe009502	-0.12556842
27	0xbd29a6a5	-0.04141869
28	0x3dfdc48f	0.12391006
29	0x3e8a0663	0.26957998
30	0xbe688bad	-0.22709532
31	0xbe386e18	-0.18010747
32	0xbe731bca	-0.2374107
33	0xbe8e21b4	-0.27760088
34	0xbe950800	-0.29107666
35	0xbe69f7e9	-0.22848476
36	0x3dbc72fa	0.092016175
37	0x3d17efe1	0.037094
38	0xbd41b790	-0.0472942
39	0x3e5b8c49	0.21440233
40	0xbd701c6d	-0.05862086
41	0x3e8159e5	0.25263897
42	0xbe1ee449	-0.15516771
43	0xbde856af	-0.113446586
44	0xbd2d9ce0	-0.042385936
45	0x3cf5b050	0.029991299
46	0x3e08e9e6	0.13370475
47	0xbe3cb18e	-0.18427107
48	0xbe953970	-0.29145384
49	0xbcdf7142	-0.027275685
50	0x3e88b9c9	0.26704243
51	0x3e82fd16	0.25583714
52	0xbe76fb62	-0.24119332
53	0xbe27e9fc	-0.16397852
54	0x3e1df8c2	0.15426925
55	0xbd8195cc	-0.063273996
56	0xbe527302	-0.20551684
57	0x3e090b4d	0.13383217
58	0x3e69009a	0.22754136
59	0xbe18e3f0	-0.14930701
60	0xbc5e900c	-0.013584148
61	0xbd577100	-0.052598
62	0x3db20a2a	0.08693345
63	0xbe6e1350	-0.23249555
64	0xbd91ac17	-0.07112902
65	0x3e96ef3f	0.29479405
66	0x3e652afd	0.2237968
67	0x3e2fb768	0.17159808
68	0xbe70344d	-0.23457451
69	0xbe12a899	-0.14322127
70	0x3e8bdabe	0.27315325
71	0xbe024b74	-0.12724096
72	0x3e902a90	0.28157473
73	0xbc9c9f71	-0.019118996
74	0x3d3489b6	0.044076644
75	0x3e429b2d	0.19004507
76	0x3e8f6ddc	0.28013504
77	0xbe87d366	-0.26528472
78	0xbe44ff27	-0.19237958
79	0x3e5ed415	0.2176059
80	0x3e70390e	0.23459265
81	0xbe9590b6	-0.29211968
82	0x3ceab087	0.028648628
83	0x3dee2046	0.116272494
84	0xbc4c212e	-0.0124590825
85	0x3dd49242	0.10379459
86	0xbdd1fa91	-0.1025287
87	0xbe68376e	-0.22677395
88	0x3e752bb8	0.23942459
89	0xbe922242	-0.28541762
90	0x3d3ca05e	0.046051376
91	0xbe3d3b4b	-0.1847965
92	0x3e6b0053	0.22949342
93	0x3ded0911	0.11573995
94	0xbe6236c1	-0.220912
95	0xbe11361b	-0.14180796
96	0x3c6f20de	0.0145952385
97	0xbe19fabd	-0.15037055
98	0x3e3417aa	0.17587152
99	0xbe85974f	-0.26092002
100	0xbd10101a	-0.035171606
101	0xbe9b2277	-0.30299732
102	0xbd91b9d5	-0.07115523
103	0x3a36d112	0.0006973903
104	0x3d4e86dc	0.05042158
105	0x3e46e574	0.19423467
106	0x3e012761	0.12612678
107	0xbe60d561	-0.21956398
108	0x3e627fb6	0.2211903
109	0x3e1604f3	0.14650325
110	0xbe825425	-0.25454822
111	0x3c4a23c7	0.012337632
112	0xbe61dfc1	-0.22058012
113	0x3e186f03	0.14886098
114	0x3e2728f7	0.1632422
115	0xbd86656f	-0.06562316
116	0x3e71a52e	0.23598167
117	0xbdbe3d4b	-0.092890345
118	0xbaa73ab8	-0.0012758588
119	0xbe5b4e7b	-0.21416657
120	0x3d91993e	0.07109307
121	0xbd8efc8d	-0.06981764
122	0x3e1f75c1	0.15572263
123	0x3c417d22	0.011809619
124	0x3e19ea81	0.15030862
125	0xbe213a56	-0.1574491
126	0xbe449b96	-0.19199976
127	0xbe56ef92	-0.20989826
128	0x3c537821	0.012907059
129	0x3df4194d	0.11918888
130	0xbe8e0c12	-0.27743584
131	0x3e5609fa	0.20902243
132	0x3e7c0461	0.24611045
133	0xbe394011	-0.18090846
134	0xbe8c0ceb	-0.27353606
135	0x3e7e9cfa	0.2486457
136	0xbe9a93f8	-0.30191016
137	0x3d8a806d	0.067627765
138	0x3e07775b	0.13229124
139	0x3e8fb680	0.28068924
140	0xbe99f2f3	-0.30068168
141	0xbe938ce7	-0.28818437
142	0x3ddb7340	0.107153416
143	0xbd43c59a	-0.04779587
144	0xbe41245d	-0.18861528
145	0x3d19729f	0.037462827
146	0xbd3b64bc	-0.045750365
147	0xbe620eff	-0.22076033
148	0xbc9a8df9	-0.018866526
149	0x3e04a91e	0.12955138
150	0x3e42ee00	0.19036102
151	0x3e2b8edc	0.16753715
152	0x3d81a880	0.06330967
153	0xbe62e681	-0.22158243
154	0x3e968baa	0.2940343
155	0x3cf9bffe	0.030487057
156	0x3d95afc8	0.07308918
157	0xbddba9ad	-0.107257225
158	0x3e51db73	0.2049387
159	0x3e9ba621	0.30400184
160	0x3e75cecd	0.2400467
161	0xbbee6498	-0.0072751753
162	0x3e30f1ec	0.17279786
163	0xbd851e0f	-0.06499874
164	0xbdb4af76	-0.08822529
165	0x3dd264f5	0.10273162
166	0x3dcf6a29	0.1012767
167	0xbe22ac42	-0.15886024
168	0xbe598f9b	-0.21246187
169	0x3e8c3dd1	0.27390912
170	0xbe65febf	-0.22460459
171	0x3df37057	0.118866615
172	0x3e97d882	0.2965737
173	0xbe44a2ae	-0.19202682
174	0x3e738b28	0.23783553
175	0xbab88348	-0.0014077211
176	0x3d97f900	0.0742054
177	0x3e046f3a	0.12933055
178	0xbe09a5b9	-0.13442124
179	0xbe8eb85d	-0.27875033
180	0x3e0667b4	0.13125497
181	0xbda2233d	-0.079168774
182	0x3e6eb113	0.23309736
183	0x3e7249d2	0.23660973
184	0x3e3ea95c	0.18619293
185	0x3e9b437e	0.3032493
186	0xbe7ff8a1	-0.24997188
187	0x3e943c6f	0.28952357
188	0x3d57ac10	0.052654326
189	0x3e3e39b4	0.185767
190	0x3e1738c4	0.14767748
191	0xbca76ce1	-0.02043766
192	0xbd2e7be4	-0.04259862
193	0xbe7bda11	-0.24594904
194	0x3e832154	0.25611365
195	0x3e970e8e	0.29503292
196	0xbdfd40a0	-0.12365842
197	0x3d167beb	0.03673927
198	0x3df6cdbb	0.12050959
199	0xbe00d88b	-0.12582605
200	0x3e860280	0.26173782
201	0x3e3ec3ac	0.1862933
202	0xbe3ba1d1	-0.18323447
203	0x3df491c0	0.11941862
204	0xbd67bd8a	-0.056577243
205	0xbe2bf93c	-0.16794294
206	0xbe575504	-0.21028525
207	0x3dfe4250	0.12414992
208	0xbe0077bc	-0.12545675
209	0x3e39f7d1	0.1816094
210	0xbe9551f0	-0.29164076
211	0xbd598f14	-0.053114966
212	0xbdadc69e	-0.08485149
213	0xbe449094	-0.19195777
214	0x3e6d20be	0.23157021
215	0xbe5c9b27	-0.21543561
216	0x3dbb55ff	0.09147262
217	0x3e88baf3	0.2670513
218	0xbcb974fc	-0.02263879
219	0x3cfcb65f	0.03084868
220	0x3dc765fe	0.0973625
221	0x3e082bcd	0.13297959
222	0xbdaf3f28	-0.08556968
223	0xbdc81b8e	-0.09770881
224	0x3db2c541	0.087290294
225	0xbdd66c4e	-0.10469876
226	0x3e837a8f	0.25679442
227	0x3c9c1387	0.01905228
228	0xbce183cb	-0.027528664
229	0x3e83d81d	0.2575082
230	0xbe48daea	-0.19614759
231	0x3e716676	0.23574242
232	0x3e6e8c13	0.23295622
233	0xbe52178b	-0.20516793
234	0x3d964cd4	0.073388726
235	0xbe7f2c08	-0.2491914
236	0xbe431250	-0.19049954
237	0x3cf21a43	0.029553538
238	0x3e8323c2	0.2561322
239	0x3d33a2b5	0.04385634
240	0xbe1de93a	-0.15421
241	0xbe9b060e	-0.30278057
242	0x3e8dc50e	0.27689403
243	0x3e33ec94	0.17570716
244	0x3de88f30	0.11355436
245	0x3d7d2ddc	0.061811313
246	0xbd9d32c4	-0.076756984
247	0x3e7ce9cb	0.2469856
248	0xbcaf1cc4	-0.021376021
249	0xbd99338b	-0.07480534
250	0xbd6a15cd	-0.057149697
251	0x3e89e23b	0.26930413
252	0x3e08aeb6	0.13347897
253	0xbe01354d	-0.12617989
254	0xbe800b76	-0.25008744
255	0x3d0c7a6c	0.034296438

model.model.interaction_blocks.0.interaction.gb_rad_filter.layers.0.bias f4 [32]
0	0xb9a9abe4	-0.0003236226
1	0x3a97dfcd	0.0011587084
2	0xba6d0663	-0.0009041784
3	0xba8d00a5	-0.0010757638
4	0x3a880720	0.00103781
5	0x3a94ee2d	0.0011362486
6	0x39ce1552	0.00039307267
7	0x377ef4f7	1.5196615e-05
8	0x3a85e32e	0.00102148
9	0xb9c1d63a	-0.0003697144
10	0xba8eb790	-0.0010888446
11	0x3a9120dd	0.0011072416
12	0xb98c1a0a	-0.00026722281
13	0x3a95d049	0.0011429872
14	0x3aa889f3	0.0012858495
15	0x3a93b1d8	0.0011268212
16	0x3aa3cd52	0.0012497103
17	0x3a991fad	0.0011682414
18	0x3a9c15ae	0.0011908317
19	0xba1ff157	-0.0006101331
20	0x3aa19115	0.0012326563
21	0xb9fc21fa	-0.000480905
22	0xba77340c	-0.0009430058
23	0xb92b4c38	-0.00016336225
24	0x3aa8d849	0.0012881841
25	0xb9ce095e	-0.0003929836
26	0x3a89fa86	0.0010526932
27	0xb9f34172	-0.00046397332
28	0x39395971	0.00017676294
29	0xb909bcce	-0.00013135673
30	0xba404d5b	-0.00073357456
31	0xba74e5dd	-0.00093421136

model.model.interaction_blocks.0.interaction.gb_rad_filter.layers.2.weight f4 [32, 32]
0	0x3d934bfe	0.07192229
1	0xbd9bc8e2	-0.07606675
2	0x3d834676	0.06409924
3	0xbe6511ea	-0.22370115
4	0x3dcddf31	0.10052336
5	0xbdae8a4c	-0.08522472
6	0xbe38818a	-0.18018165
7	0xbe0a24d7	-0.13490616
8	0xbe859658	-0.26091266
9	0x3e61791e	0.22018859
10	0xbe62de0d	-0.22155018
11	0xbe618bf0	-0.22026038
12	0xbe6894f0	-0.22713065
13	0xbcbb84ad	-0.022890413
14	0x3e1fe5fe	0.15615079
15	0xbd1120e4	-0.035431758
16	0xbde0cf77	-0.10977071
17	0x3e1e2fca	0.15447918
18	0xbe2c7ff0	-0.1684568
19	0x3e8d7c9a	0.27634126
20	0x3ba34f1d	0.0049837963
21	0xbe362ef1	-0.17791344
22	0xbe85544d	-0.2604088
23	0xbc6c71cb	-0.014431427
24	0x3e891e29	0.26780823
25	0xbd21c7e6	-0.03949728
26	0x3e78c8e5	0.24295385
27	0x3e73a8df	0.23794888
28	0xbe1e163c	-0.15438169
29	0xbe1fee39	-0.15618218
30	0xbd9718e5	-0.07377795
31	0x3e91573c	0.28386867
32	0x3c1997df	0.009374588
33	0xbe48cce1	-0.19609405
34	0xbe9503c7	-0.29104444
35	0x3d970894	0.07374683
36	0xbe65c126	-0.22436962
37	0x3c998b59	0.018743204
38	0xbdd599e2	-0.104297414
39	0xbe7ba530	-0.24574733
40	0x3e815cb4	0.2526604
41	0x3e0b09f7	0.1357802
42	0xbd8f61ab	-0.070010506
43	0x3da8a840	0.08235216
44	0x3e7907c6	0.24319372
45	0x3e504bdd	0.2034144
46	0xbe84fa3e	-0.2597217
47	0x3e905486	0.28189486
48	0x3cfaf5d4	0.030634798
49	0x3d2db49f	0.04240858
50	0x3cfd9acf	0.030957608
51	0xbc5c81c7	-0.013458676
52	0xbe02b7ef	-0.12765478
53	0x3e8de325	0.2771236
54	0x3d9c0bc8	0.076194346
55	0xbda9461a	-0.08265324
56	0xbe24238e	-0.16029188
57	0xbde238ce	-0.11045991
58	0x3e8ed103	0.27893838
59	0xbdbc4b0d	-0.09194002
60	0x3e636bd3	0.222091
61	0x3dcbe677	0.09956067
62	0x3e9cd0d3	0.3062807
63	0x3e6656c8	0.22494042
64	0x3e8875f9	0.26652506
65	0xbe24d86e	-0.16098186
66	0xbe926fc9	-0.2860091
67	0x3e972984	0.2952386
68	0xbe7510ec	-0.23932236
69	0xbdfe2331	-0.12409056
70	0xbd766f32	-0.060164638
71	0xbe37684e	-0.17910883
72	0xbe101270	-0.14069533
73	0x3e82d0ce	0.2554993
74	0xbd82fc05	-0.06395725
75	0x3e5b4d3d	0.21416183
76	0x3e62cdff	0.22148894
77	0x3e1a4b8b	0.1506788
78	0xbca034c9	-0.01955642
79	0x3e3c7c7c	0.18406862
80	0xbe7417ed	-0.23837252
81	0xbca5f658	-0.020259067
82	0x3e3239c8	0.17404854
83	0x3e4390c5	0.19098194
84	0xbe9ca985	-0.30598083
85	0x3e7b7bf3	0.24559002
86	0xbe053472	-0.13008288
87	0x3e62b5ae	0.22139618
88	0x3e4f6c61	0.20256187
89	0xbe9bd150	-0.3043313
90	0x3c313e11	0.01081802
91	0xbe70ed7c	-0.23528093
92	0xbd817263	-0.06320646
93	0xbe7ade28	-0.24498808
94	0xbd267307	-0.040637042
95	0x3db243ad	0.087043144
96	0xbe47078b	-0.19436471
97	0x3e20af2e	0.15691826
98	0xbe841f68	-0.2580521
99	0x3e2084c0	0.1567564
100	0x3caa8bbf	0.02081859
101	0x3e89b36a	0.26894695
102	0x3e5c617e	0.21521565
103	0x3d37fe38	0.044920176
104	0xbe1e59ba	-0.15463915
105	0x3e3ba04f	0.18322872
106	0x3e9a71e9	0.30165032
107	0xbd86d6b1	-0.06583918
108	0x3e4c699b	0.1996216
109	0xbd8b3956	-0.06798045
110	0x3db4d676	0.08829968
111	0x3ddfab10	0.109212995
112	0x3e6b58c2	0.22983077
113	0xbde7a810	-0.11311352
114	0x3d439b39	0.047755454
115	0xbe212955	-0.15738423
116	0xbdcb7c0a	-0.09935768
117	0x3e3b5e08	0.18297589
118	0xbd6d6f03	-0.057967197
119	0x3e6cce9b	0.23125689
120	0xbe958211	-0.29200795
121	0x3db59352	0.0886599
122	0xbe19969e	-0.14998862
123	0x3c9a812f	0.018860428
124	0x3df22eb2	0.11825313
125	0x3d9fbd2b	0.07799753
126	0x3e0471fe	0.1293411
127	0x3e7f917d	0.24957843
128	0xba0b6950	-0.0005318122
129	0x3e4f838c	0.20265025
130	0xbd85a203	-0.06525042
131	0xbe147e8b	-0.14501397
132	0x3e863356	0.2621104
133	0x3e4e2b34	0.20133668
134	0xbe9b04a4	-0.30276978
135	0x3e634092	0.221926
136	0x3e7a5955	0.2444814
137	0xbded8a6a	-0.11598666
138	0x3e7af0e6	0.24505958
139	0xbd88a8ce	-0.06672822
140	0xbe69940b	-0.2281038
141	0xbd268b4c	-0.040660188
142	0xbe7b5972	-0.2454584
143	0xbe912e69	-0.2835572
144	0xbd29dd3b	-0.041470747
145	0x3e95f606	0.29289263
146	0xbe0af8d8	-0.13571489
147	0xbbca3192	-0.00617046
148	0xbe825302	-0.25453955
149	0xbd6a3a50	-0.057184517
150	0xbe322345	-0.17396267
151	0x3e8ce8a9	0.27521256
152	0xbe887478	-0.2665136
153	0xbe2c29d3	-0.1681283
154	0xbe09390d	-0.1340067
155	0x3d2fa53c	0.04288219
156	0xbe4420f5	-0.19153197
157	0x3e925d38	0.28586745
158	0x3e1da226	0.15393886
159	0xbe01aca9	-0.12663521
160	0x3d080ad7	0.033213463
161	0xbdd3921b	-0.10330602
162	0xbde8c2be	-0.11365269
163	0xbce946fe	-0.028476235
164	0xbe090ddc	-0.13384193
165	0x3e3eb7e0	0.1862483
166	0x3e83204d	0.2561058
167	0xbe1a4ac4	-0.15067583
168	0x3e40e2a0	0.1883645
169	0xbd4ccdf2	-0.050001092
170	0xbe210544	-0.15724665
171	0xbd29d71e	-0.041464917
172	0x3e986145	0.2976171
173	0x3e995fdd	0.2995595
174	0xbc051508	-0.00812269
175	0xbe574bde	-0.21025035
176	0xbcc3ac38	-0.023885831
177	0x3dc34915	0.09535424
178	0xbe1b98e0	-0.15195036
179	0xbe787214	-0.24262267
180	0x3e5ab949	0.21359743
181	0xbe601ba0	-0.21885538
182	0xbe45a4c6	-0.19301137
183	0x3c1c32c8	0.009533592
184	0xbda6da95	-0.0814716
185	0x3dcbb9c3	0.099475406
186	0x3da547b8	0.0807032
187	0x3e1e3dc8	0.15453255
188	0x3e27b8db	0.1637911
189	0x3e86899b	0.2627686
190	0xbcbc9410	-0.02301982
191	0xbda1a9c0	-0.07893705
192	0x3e97f7a1	0.29681113
193	0xbe31dd56	-0.17369589
194	0x3e6460cf	0.22302555
195	0xbe532ff7	-0.20623766
196	0x3d5daff0	0.054122865
197	0xbe705aa0	-0.2347207
198	0x3d6949a3	0.05695499
199	0x3d30dc69	0.04317895
200	0x3c8ec09f	0.017425833
201	0xbd8f288d	-0.06990156
202	0x3e64020a	0.22266403
203	0xbcb5c9bd	-0.022190923
204	0x3d3fb5a5	0.04680409
205	0xbe308164	-0.17236859
206	0xbdb36f3d	-0.087614514
207	0xbe2c0701	-0.16799547
208	0xbe8f4617	-0.27983162
209	0xbe7ada83	-0.24497418
210	0x3dce966a	0.10087283
211	0x3c207099	0.00979247
212	0x3c50babb	0.0127398325
213	0xbdb5f796	-0.08885114
214	0xbe3461c6	-0.17615423
215	0xbcaa0435	-0.02075396
216	0xbe904ab1	-0.28181985
217	0x3d6d2b5d	0.057902683
218	0xbdab9541	-0.08378077
219	0xbe4fc73c	-0.20290846
220	0xbe38d121	-0.18048526
221	0xbe86108e	-0.26184505
222	0x3e81294f	0.25226828
223	0xbe1f3923	-0.1554914
224	0x3e2979a7	0.16550313
225	0x3ba20142	0.0049439976
226	0xbd5a5feb	-0.05331413
227	0x3e1de6c2	0.15420058
228	0x3e61c39c	0.22047275
229	0xbd1d83ab	-0.038455646
230	0x3e88d9b4	0.26728594
231	0x3e89fd71	0.26951173
232	0x3e62266c	0.2208497
233	0xbda84c9b	-0.08217736
234	0x3d1f14a8	0.03883806
235	0x3e8bc4df	0.27298638
236	0xbcfdfc49	-0.031004088
237	0xbdbc62f7	-0.091985635
238	0xbd772688	-0.06033948
239	0x3e94eb5b	0.29085812
240	0xbd2e6cc4	-0.042584196
241	0x3e76e3a8	0.24110281
242	0x3e94b304	0.29042828
243	0x3e94eed2	0.29088455
244	0xbc941842	-0.018077973
245	0xbe714632	-0.23561934
246	0xbe7fc918	-0.24979055
247	0xbe6b8a1a	-0.230019
248	0x3d3bba07	0.045831706
249	0x3d235db9	0.039884303
250	0xbe1a8d7f	-0.15093039
251	0x3e3af82f	0.18258737
252	0xbe99537d	-0.2994651
253	0x3cfd58c4	0.030926116
254	0xbd95ff7f	-0.07324123
255	0xbc9e7dba	-0.01934706

model.model.interaction_blocks.0.interaction.gb_rad_filter.layers.2.bias f4 [32]
0	0xba1da2ec	-0.0006013352
1	0x39f24478	0.0004620885
2	0xba436fb7	-0.00074553065
3	0xb978c71b	-0.00023725296
4	0xba9bc1f8	-0.0011883369
5	0x3a535d91	0.0008062954
6	0xba4bfaad	-0.0007781189
7	0xb9d15e13	-0.00039933677
8	0xb9bee156	-0.00036407512
9	0xba77455e	-0.0009432639
10	0xb95d1734	-0.00021084846
11	0xba3b8d68	-0.0007154555
12	0xb9c060f7	-0.00036693338
13	0xba5d7de5	-0.00084492407
14	0x3a7e7e74	0.0009708174
15	0x39b74b07	0.0003496038
16	0x397576f8	0.0002340934
17	0x37efef3e	2.8602426e-05
18	0xba7ca90c	-0.0009638227
19	0x390a5327	0.00013191682
20	0xb9df9b74	-0.00042649696
21	0xba8761eb	-0.0010328864
22	0xbaa04fa7	-0.001223077
23	0xbaa81c26	-0.0012825772
24	0x3a20e489	0.000613757
25	0xba8a7798	-0.0010564206
26	0xba639903	-0.00086821633
27	0xba0d6c78	-0.0005394886
28	0xba0fd562	-0.00054868136
29	0xba836db1	-0.0010027197
30	0xba499c30	-0.0007690815
31	0xb8867b8e	-6.412632e-05

model.model.interaction_blocks.0.interaction.gb_sph_filter.layers.0.weight f4 [8, 2]
0	0x3e877c85	0.26462188
1	0xbf4043d6	-0.7510351
2	0x3d8d2c7f	0.068932526
3	0x3ea7c6aa	0.32768756
4	0xbef8d1d6	-0.48597592
5	0x3f030463	0.5117857
6	0x3e90e2c0	0.28297997
7	0x3f3863af	0.72027105
8	0xbed4f132	-0.41590267
9	0xbf1ef0b5	-0.6208604
10	0xbee13ed5	-0.4399325
11	0x3f27cdd6	0.65548456
12	0xbf1f87aa	-0.6231638
13	0xbee7667f	-0.45195386
14	0x3f36c870	0.71399593
15	0x3de0ab42	0.10970165

model.model.interaction_blocks.0.interaction.gb_sph_filter.layers.0.bias f4 [8]
0	0x3a20a457	0.0006128004
1	0x38c07516	9.1770824e-05
2	0xb8c51069	-9.396749e-05
3	0xb9a4effc	-0.0003145932
4	0x39e317d4	0.00043314567
5	0x39997420	0.00029268954
6	0x3a7e6453	0.00097042805
7	0xba139cca	-0.00056309684
